Args: triton-opt addmm_kernel.ttir -convert-triton-to-tritongpu=target=cuda -debug 
Load new dialect in Context builtin
ImplicitTypeIDRegistry::lookupOrInsert(mlir::ShapedType)
ImplicitTypeIDRegistry::lookupOrInsert(mlir::MemRefLayoutAttrInterface)
ImplicitTypeIDRegistry::lookupOrInsert(mlir::TypedAttr)
ImplicitTypeIDRegistry::lookupOrInsert(mlir::ElementsAttr)
ImplicitTypeIDRegistry::lookupOrInsert(mlir::DistinctAttr)
ImplicitTypeIDRegistry::lookupOrInsert(mlir::BytecodeOpInterface)
ImplicitTypeIDRegistry::lookupOrInsert(mlir::SymbolOpInterface)
ImplicitTypeIDRegistry::lookupOrInsert(mlir::OpAsmOpInterface)
ImplicitTypeIDRegistry::lookupOrInsert(mlir::RegionKindInterface)
ImplicitTypeIDRegistry::lookupOrInsert(mlir::ConditionallySpeculatable)
ImplicitTypeIDRegistry::lookupOrInsert(mlir::MemoryEffectOpInterface)
ImplicitTypeIDRegistry::lookupOrInsert(mlir::ResourceBlobManagerDialectInterface)
ImplicitTypeIDRegistry::lookupOrInsert(mlir::OpAsmDialectInterface)
ImplicitTypeIDRegistry::lookupOrInsert(mlir::BytecodeDialectInterface)
ImplicitTypeIDRegistry::lookupOrInsert(mlir::detail::AffineBinaryOpExprStorage)
ImplicitTypeIDRegistry::lookupOrInsert(mlir::detail::AffineConstantExprStorage)
ImplicitTypeIDRegistry::lookupOrInsert(mlir::detail::AffineDimExprStorage)
ImplicitTypeIDRegistry::lookupOrInsert(mlir::detail::AffineMapStorage)
ImplicitTypeIDRegistry::lookupOrInsert(mlir::detail::IntegerSetStorage)
Load new dialect in Context builtin
ImplicitTypeIDRegistry::lookupOrInsert(mlir::OpTrait::ZeroOperands<mlir::TypeID::get<mlir::OpTrait::ZeroOperands>()::Empty>)
ImplicitTypeIDRegistry::lookupOrInsert(mlir::OpTrait::OneRegion<mlir::TypeID::get<mlir::OpTrait::OneRegion>()::Empty>)
ImplicitTypeIDRegistry::lookupOrInsert(mlir::OpTrait::ZeroResults<mlir::TypeID::get<mlir::OpTrait::ZeroResults>()::Empty>)
ImplicitTypeIDRegistry::lookupOrInsert(mlir::OpTrait::ZeroSuccessors<mlir::TypeID::get<mlir::OpTrait::ZeroSuccessors>()::Empty>)
ImplicitTypeIDRegistry::lookupOrInsert(mlir::OpTrait::NoRegionArguments<mlir::TypeID::get<mlir::OpTrait::NoRegionArguments>()::Empty>)
ImplicitTypeIDRegistry::lookupOrInsert(mlir::OpTrait::NoTerminator<mlir::TypeID::get<mlir::OpTrait::NoTerminator>()::Empty>)
ImplicitTypeIDRegistry::lookupOrInsert(mlir::OpTrait::SingleBlock<mlir::TypeID::get<mlir::OpTrait::SingleBlock>()::Empty>)
ImplicitTypeIDRegistry::lookupOrInsert(mlir::OpTrait::OpInvariants<mlir::TypeID::get<mlir::OpTrait::OpInvariants>()::Empty>)
ImplicitTypeIDRegistry::lookupOrInsert(mlir::BytecodeOpInterface::Trait<mlir::TypeID::get<mlir::BytecodeOpInterface::Trait>()::Empty>)
ImplicitTypeIDRegistry::lookupOrInsert(mlir::OpTrait::AffineScope<mlir::TypeID::get<mlir::OpTrait::AffineScope>()::Empty>)
ImplicitTypeIDRegistry::lookupOrInsert(mlir::OpTrait::IsIsolatedFromAbove<mlir::TypeID::get<mlir::OpTrait::IsIsolatedFromAbove>()::Empty>)
ImplicitTypeIDRegistry::lookupOrInsert(mlir::OpTrait::SymbolTable<mlir::TypeID::get<mlir::OpTrait::SymbolTable>()::Empty>)
ImplicitTypeIDRegistry::lookupOrInsert(mlir::SymbolOpInterface::Trait<mlir::TypeID::get<mlir::SymbolOpInterface::Trait>()::Empty>)
ImplicitTypeIDRegistry::lookupOrInsert(mlir::OpAsmOpInterface::Trait<mlir::TypeID::get<mlir::OpAsmOpInterface::Trait>()::Empty>)
ImplicitTypeIDRegistry::lookupOrInsert(mlir::RegionKindInterface::Trait<mlir::TypeID::get<mlir::RegionKindInterface::Trait>()::Empty>)
ImplicitTypeIDRegistry::lookupOrInsert(mlir::OpTrait::HasOnlyGraphRegion<mlir::TypeID::get<mlir::OpTrait::HasOnlyGraphRegion>()::Empty>)
Load new dialect in Context tt
Load new dialect in Context arith
ImplicitTypeIDRegistry::lookupOrInsert(mlir::arith::ArithFastMathInterface)
ImplicitTypeIDRegistry::lookupOrInsert(mlir::VectorUnrollOpInterface)
ImplicitTypeIDRegistry::lookupOrInsert(mlir::InferTypeOpInterface)
ImplicitTypeIDRegistry::lookupOrInsert(mlir::InferIntRangeInterface)
ImplicitTypeIDRegistry::lookupOrInsert(mlir::arith::ArithIntegerOverflowFlagsInterface)
ImplicitTypeIDRegistry::lookupOrInsert(mlir::CastOpInterface)
ImplicitTypeIDRegistry::lookupOrInsert(mlir::arith::ArithRoundingModeInterface)
ImplicitTypeIDRegistry::lookupOrInsert(mlir::SelectLikeOpInterface)
ImplicitTypeIDRegistry::lookupOrInsert(mlir::DialectInlinerInterface)
ImplicitTypeIDRegistry::lookupOrInsert(mlir::ConvertToLLVMPatternInterface)
ImplicitTypeIDRegistry::lookupOrInsert(mlir::bufferization::BufferDeallocationOpInterface)
ImplicitTypeIDRegistry::lookupOrInsert(mlir::bufferization::BufferizableOpInterface)
ImplicitTypeIDRegistry::lookupOrInsert(mlir::ValueBoundsOpInterface)
Load new dialect in Context math
Load new dialect in Context scf
ImplicitTypeIDRegistry::lookupOrInsert(mlir::RegionBranchTerminatorOpInterface)
ImplicitTypeIDRegistry::lookupOrInsert(mlir::RegionBranchOpInterface)
ImplicitTypeIDRegistry::lookupOrInsert(mlir::LoopLikeOpInterface)
ImplicitTypeIDRegistry::lookupOrInsert(mlir::DestinationStyleOpInterface)
ImplicitTypeIDRegistry::lookupOrInsert(mlir::ParallelCombiningOpInterface)
Load new dialect in Context cf
ImplicitTypeIDRegistry::lookupOrInsert(mlir::BranchOpInterface)
ImplicitTypeIDRegistry::lookupOrInsert(mlir::CallOpInterface)
ImplicitTypeIDRegistry::lookupOrInsert(mlir::SymbolUserOpInterface)
ImplicitTypeIDRegistry::lookupOrInsert(mlir::CallableOpInterface)
ImplicitTypeIDRegistry::lookupOrInsert(mlir::FunctionOpInterface)
ImplicitTypeIDRegistry::lookupOrInsert(mlir::TensorOrMemDesc)
ImplicitTypeIDRegistry::lookupOrInsert(mlir::OpTrait::AutomaticAllocationScope<mlir::TypeID::get<mlir::OpTrait::AutomaticAllocationScope>()::Empty>)
ImplicitTypeIDRegistry::lookupOrInsert(mlir::CallableOpInterface::Trait<mlir::TypeID::get<mlir::CallableOpInterface::Trait>()::Empty>)
ImplicitTypeIDRegistry::lookupOrInsert(mlir::FunctionOpInterface::Trait<mlir::TypeID::get<mlir::FunctionOpInterface::Trait>()::Empty>)
ImplicitTypeIDRegistry::lookupOrInsert(mlir::OpTrait::TensorSizeTrait<mlir::TypeID::get<mlir::OpTrait::TensorSizeTrait>()::Empty>)
ImplicitTypeIDRegistry::lookupOrInsert(mlir::OpTrait::VerifyTensorLayoutsTrait<mlir::TypeID::get<mlir::OpTrait::VerifyTensorLayoutsTrait>()::Empty>)
ImplicitTypeIDRegistry::lookupOrInsert(mlir::OpTrait::ZeroRegions<mlir::TypeID::get<mlir::OpTrait::ZeroRegions>()::Empty>)
ImplicitTypeIDRegistry::lookupOrInsert(mlir::OpTrait::OneResult<mlir::TypeID::get<mlir::OpTrait::OneResult>()::Empty>)
ImplicitTypeIDRegistry::lookupOrInsert(mlir::OpTrait::OneTypedResult<mlir::Type>::Impl<mlir::TypeID::get<mlir::OpTrait::OneTypedResult<mlir::Type>::Impl>()::Empty>)
ImplicitTypeIDRegistry::lookupOrInsert(mlir::OpTrait::ConstantLike<mlir::TypeID::get<mlir::OpTrait::ConstantLike>()::Empty>)
ImplicitTypeIDRegistry::lookupOrInsert(mlir::ConditionallySpeculatable::Trait<mlir::TypeID::get<mlir::ConditionallySpeculatable::Trait>()::Empty>)
ImplicitTypeIDRegistry::lookupOrInsert(mlir::OpTrait::AlwaysSpeculatableImplTrait<mlir::TypeID::get<mlir::OpTrait::AlwaysSpeculatableImplTrait>()::Empty>)
ImplicitTypeIDRegistry::lookupOrInsert(mlir::MemoryEffectOpInterface::Trait<mlir::TypeID::get<mlir::MemoryEffectOpInterface::Trait>()::Empty>)
ImplicitTypeIDRegistry::lookupOrInsert(mlir::InferIntRangeInterface::Trait<mlir::TypeID::get<mlir::InferIntRangeInterface::Trait>()::Empty>)
ImplicitTypeIDRegistry::lookupOrInsert(mlir::InferTypeOpInterface::Trait<mlir::TypeID::get<mlir::InferTypeOpInterface::Trait>()::Empty>)
ImplicitTypeIDRegistry::lookupOrInsert(mlir::arith::detail::ConstantOpGenericAdaptorBase::Properties)
ImplicitTypeIDRegistry::lookupOrInsert(mlir::OpTrait::OneTypedResult<mlir::IntegerType>::Impl<mlir::TypeID::get<mlir::OpTrait::OneTypedResult<mlir::IntegerType>::Impl>()::Empty>)
ImplicitTypeIDRegistry::lookupOrInsert(mlir::triton::detail::GetProgramIdOpGenericAdaptorBase::Properties)
ImplicitTypeIDRegistry::lookupOrInsert(mlir::OpTrait::NOperands<2>::Impl<mlir::TypeID::get<mlir::OpTrait::NOperands<2>::Impl>()::Empty>)
ImplicitTypeIDRegistry::lookupOrInsert(mlir::OpTrait::IsCommutative<mlir::TypeID::get<mlir::OpTrait::IsCommutative>()::Empty>)
ImplicitTypeIDRegistry::lookupOrInsert(mlir::arith::ArithIntegerOverflowFlagsInterface::Trait<mlir::TypeID::get<mlir::arith::ArithIntegerOverflowFlagsInterface::Trait>()::Empty>)
ImplicitTypeIDRegistry::lookupOrInsert(mlir::OpTrait::SameOperandsAndResultType<mlir::TypeID::get<mlir::OpTrait::SameOperandsAndResultType>()::Empty>)
ImplicitTypeIDRegistry::lookupOrInsert(mlir::VectorUnrollOpInterface::Trait<mlir::TypeID::get<mlir::VectorUnrollOpInterface::Trait>()::Empty>)
ImplicitTypeIDRegistry::lookupOrInsert(mlir::OpTrait::Elementwise<mlir::TypeID::get<mlir::OpTrait::Elementwise>()::Empty>)
ImplicitTypeIDRegistry::lookupOrInsert(mlir::OpTrait::Scalarizable<mlir::TypeID::get<mlir::OpTrait::Scalarizable>()::Empty>)
ImplicitTypeIDRegistry::lookupOrInsert(mlir::OpTrait::Vectorizable<mlir::TypeID::get<mlir::OpTrait::Vectorizable>()::Empty>)
ImplicitTypeIDRegistry::lookupOrInsert(mlir::OpTrait::Tensorizable<mlir::TypeID::get<mlir::OpTrait::Tensorizable>()::Empty>)
ImplicitTypeIDRegistry::lookupOrInsert(mlir::OpTrait::OneTypedResult<mlir::RankedTensorType>::Impl<mlir::TypeID::get<mlir::OpTrait::OneTypedResult<mlir::RankedTensorType>::Impl>()::Empty>)
ImplicitTypeIDRegistry::lookupOrInsert(mlir::OpTrait::OneOperand<mlir::TypeID::get<mlir::OpTrait::OneOperand>()::Empty>)
ImplicitTypeIDRegistry::lookupOrInsert(mlir::OpTrait::SameOperandsAndResultElementType<mlir::TypeID::get<mlir::OpTrait::SameOperandsAndResultElementType>()::Empty>)
ImplicitTypeIDRegistry::lookupOrInsert(mlir::OpTrait::SameOperandsAndResultEncoding<mlir::TypeID::get<mlir::OpTrait::SameOperandsAndResultEncoding>()::Empty>)
ImplicitTypeIDRegistry::lookupOrInsert(mlir::OpTrait::SameOperandsAndResultShape<mlir::TypeID::get<mlir::OpTrait::SameOperandsAndResultShape>()::Empty>)
ImplicitTypeIDRegistry::lookupOrInsert(mlir::OpTrait::SameTypeOperands<mlir::TypeID::get<mlir::OpTrait::SameTypeOperands>()::Empty>)
ImplicitTypeIDRegistry::lookupOrInsert(mlir::arith::detail::CmpIOpGenericAdaptorBase::Properties)
ImplicitTypeIDRegistry::lookupOrInsert(mlir::OpTrait::VariadicResults<mlir::TypeID::get<mlir::OpTrait::VariadicResults>()::Empty>)
ImplicitTypeIDRegistry::lookupOrInsert(mlir::OpTrait::AtLeastNOperands<3>::Impl<mlir::TypeID::get<mlir::OpTrait::AtLeastNOperands<3>::Impl>()::Empty>)
ImplicitTypeIDRegistry::lookupOrInsert(mlir::OpTrait::SingleBlockImplicitTerminator<mlir::scf::YieldOp>::Impl<mlir::TypeID::get<mlir::OpTrait::SingleBlockImplicitTerminator<mlir::scf::YieldOp>::Impl>()::Empty>)
ImplicitTypeIDRegistry::lookupOrInsert(mlir::LoopLikeOpInterface::Trait<mlir::TypeID::get<mlir::LoopLikeOpInterface::Trait>()::Empty>)
ImplicitTypeIDRegistry::lookupOrInsert(mlir::RegionBranchOpInterface::Trait<mlir::TypeID::get<mlir::RegionBranchOpInterface::Trait>()::Empty>)
ImplicitTypeIDRegistry::lookupOrInsert(mlir::OpTrait::HasRecursiveMemoryEffects<mlir::TypeID::get<mlir::OpTrait::HasRecursiveMemoryEffects>()::Empty>)
ImplicitTypeIDRegistry::lookupOrInsert(mlir::OpTrait::IsIdempotent<mlir::TypeID::get<mlir::OpTrait::IsIdempotent>()::Empty>)
ImplicitTypeIDRegistry::lookupOrInsert(mlir::OpTrait::AtLeastNOperands<1>::Impl<mlir::TypeID::get<mlir::OpTrait::AtLeastNOperands<1>::Impl>()::Empty>)
ImplicitTypeIDRegistry::lookupOrInsert(mlir::OpTrait::AttrSizedOperandSegments<mlir::TypeID::get<mlir::OpTrait::AttrSizedOperandSegments>()::Empty>)
ImplicitTypeIDRegistry::lookupOrInsert(mlir::OpTrait::SameLoadStoreOperandsAndResultShape<mlir::TypeID::get<mlir::OpTrait::SameLoadStoreOperandsAndResultShape>()::Empty>)
ImplicitTypeIDRegistry::lookupOrInsert(mlir::OpTrait::SameLoadStoreOperandsAndResultEncoding<mlir::TypeID::get<mlir::OpTrait::SameLoadStoreOperandsAndResultEncoding>()::Empty>)
ImplicitTypeIDRegistry::lookupOrInsert(mlir::triton::detail::LoadOpGenericAdaptorBase::Properties)
ImplicitTypeIDRegistry::lookupOrInsert(mlir::OpTrait::NOperands<3>::Impl<mlir::TypeID::get<mlir::OpTrait::NOperands<3>::Impl>()::Empty>)
ImplicitTypeIDRegistry::lookupOrInsert(mlir::OpTrait::DotLike<mlir::TypeID::get<mlir::OpTrait::DotLike>()::Empty>)
ImplicitTypeIDRegistry::lookupOrInsert(mlir::OpTrait::VariadicOperands<mlir::TypeID::get<mlir::OpTrait::VariadicOperands>()::Empty>)
ImplicitTypeIDRegistry::lookupOrInsert(mlir::OpTrait::HasParent<mlir::scf::ExecuteRegionOp, mlir::scf::ForOp, mlir::scf::IfOp, mlir::scf::IndexSwitchOp, mlir::scf::WhileOp>::Impl<mlir::TypeID::get<mlir::OpTrait::HasParent<mlir::scf::ExecuteRegionOp, mlir::scf::ForOp, mlir::scf::IfOp, mlir::scf::IndexSwitchOp, mlir::scf::WhileOp>::Impl>()::Empty>)
ImplicitTypeIDRegistry::lookupOrInsert(mlir::RegionBranchTerminatorOpInterface::Trait<mlir::TypeID::get<mlir::RegionBranchTerminatorOpInterface::Trait>()::Empty>)
ImplicitTypeIDRegistry::lookupOrInsert(mlir::OpTrait::ReturnLike<mlir::TypeID::get<mlir::OpTrait::ReturnLike>()::Empty>)
ImplicitTypeIDRegistry::lookupOrInsert(mlir::OpTrait::IsTerminator<mlir::TypeID::get<mlir::OpTrait::IsTerminator>()::Empty>)
ImplicitTypeIDRegistry::lookupOrInsert(mlir::CastOpInterface::Trait<mlir::TypeID::get<mlir::CastOpInterface::Trait>()::Empty>)
ImplicitTypeIDRegistry::lookupOrInsert(mlir::arith::ArithFastMathInterface::Trait<mlir::TypeID::get<mlir::arith::ArithFastMathInterface::Trait>()::Empty>)
ImplicitTypeIDRegistry::lookupOrInsert(mlir::arith::ArithRoundingModeInterface::Trait<mlir::TypeID::get<mlir::arith::ArithRoundingModeInterface::Trait>()::Empty>)
ImplicitTypeIDRegistry::lookupOrInsert(mlir::OpTrait::AtLeastNOperands<2>::Impl<mlir::TypeID::get<mlir::OpTrait::AtLeastNOperands<2>::Impl>()::Empty>)
ImplicitTypeIDRegistry::lookupOrInsert(mlir::OpTrait::SameLoadStoreOperandsShape<mlir::TypeID::get<mlir::OpTrait::SameLoadStoreOperandsShape>()::Empty>)
ImplicitTypeIDRegistry::lookupOrInsert(mlir::OpTrait::SameLoadStoreOperandsEncoding<mlir::TypeID::get<mlir::OpTrait::SameLoadStoreOperandsEncoding>()::Empty>)
ImplicitTypeIDRegistry::lookupOrInsert(mlir::OpTrait::HasParent<mlir::triton::FuncOp>::Impl<mlir::TypeID::get<mlir::OpTrait::HasParent<mlir::triton::FuncOp>::Impl>()::Empty>)
ImplicitTypeIDRegistry::lookupOrInsert(mlir::ValueSemantics<mlir::TypeID::get<mlir::ValueSemantics>()::Empty>)
ImplicitTypeIDRegistry::lookupOrInsert(mlir::ShapedType::Trait<mlir::TypeID::get<mlir::ShapedType::Trait>()::Empty>)
Load new dialect in Context triton_gpu
Load new dialect in Context gpu
ImplicitTypeIDRegistry::lookupOrInsert(mlir::gpu::AsyncTokenType)
ImplicitTypeIDRegistry::lookupOrInsert(mlir::gpu::MMAMatrixType)
ImplicitTypeIDRegistry::lookupOrInsert(mlir::gpu::SparseDnTensorHandleType)
ImplicitTypeIDRegistry::lookupOrInsert(mlir::gpu::SparseSpMatHandleType)
ImplicitTypeIDRegistry::lookupOrInsert(mlir::gpu::SparseSpGEMMOpHandleType)
ImplicitTypeIDRegistry::lookupOrInsert(mlir::gpu::AsyncOpInterface)
ImplicitTypeIDRegistry::lookupOrInsert(mlir::DataLayoutOpInterface)
ImplicitTypeIDRegistry::lookupOrInsert(mlir::DeviceMappingAttrInterface)
Load new dialect in Context tensor
Load new dialect in Context affine
Load new dialect in Context ub
ImplicitTypeIDRegistry::lookupOrInsert(mlir::ub::PoisonAttrInterface)
ImplicitTypeIDRegistry::lookupOrInsert(mlir::affine::AffineMapAccessInterface)
ImplicitTypeIDRegistry::lookupOrInsert(mlir::affine::AffineDmaStartOp)
ImplicitTypeIDRegistry::lookupOrInsert(mlir::affine::AffineDmaWaitOp)
ImplicitTypeIDRegistry::lookupOrInsert(mlir::affine::AffineReadOpInterface)
ImplicitTypeIDRegistry::lookupOrInsert(mlir::affine::AffineWriteOpInterface)
Load new dialect in Context complex
ImplicitTypeIDRegistry::lookupOrInsert(mlir::ReifyRankedShapedTypeOpInterface)
ImplicitTypeIDRegistry::lookupOrInsert(mlir::ShapedDimOpInterface)
ImplicitTypeIDRegistry::lookupOrInsert(mlir::OffsetSizeAndStrideOpInterface)
ImplicitTypeIDRegistry::lookupOrInsert(mlir::transform::FindPayloadReplacementOpInterface)
ImplicitTypeIDRegistry::lookupOrInsert(mlir::SubsetOpInterface)
ImplicitTypeIDRegistry::lookupOrInsert(mlir::SubsetInsertionOpInterface)
ImplicitTypeIDRegistry::lookupOrInsert(mlir::SubsetExtractionOpInterface)
ImplicitTypeIDRegistry::lookupOrInsert(mlir::TilingInterface)
ImplicitTypeIDRegistry::lookupOrInsert(mlir::triton::gpu::TritonGPU_AttrTrait)
ImplicitTypeIDRegistry::lookupOrInsert(mlir::triton::gpu::DistributedEncodingTrait)
ImplicitTypeIDRegistry::lookupOrInsert(mlir::triton::gpu::MmaEncodingTrait)
ImplicitTypeIDRegistry::lookupOrInsert(mlir::triton::DialectInferLayoutInterface)
ImplicitTypeIDRegistry::lookupOrInsert(mlir::detail::OpToOpPassAdaptor)
ImplicitTypeIDRegistry::lookupOrInsert(mlir::VerifiableTensorEncoding)

//===-------------------------------------------===//
Legalizing operation : 'builtin.module'(0x555d5bea1220) {
  * Fold {
ImplicitTypeIDRegistry::lookupOrInsert(mlir::DialectFoldInterface)
  } -> FAILURE : unable to fold
} -> FAILURE : no matched legalization pattern
//===-------------------------------------------===//

//===-------------------------------------------===//
Legalizing operation : 'tt.func'(0x555d5be9ac40) {
} -> SUCCESS : operation marked legal by the target
//===-------------------------------------------===//

//===-------------------------------------------===//
Legalizing operation : 'arith.constant'(0x555d5be8d620) {
  %0 = "arith.constant"() <{value = 31 : i32}> : () -> i32

} -> SUCCESS : operation marked legal by the target
//===-------------------------------------------===//

//===-------------------------------------------===//
Legalizing operation : 'arith.constant'(0x555d5be8fc20) {
  %1 = "arith.constant"() <{value = dense<0.000000e+00> : tensor<32xf16>}> : () -> tensor<32xf16>

  * Fold {
  } -> FAILURE : unable to fold

  * Pattern : 'arith.constant -> ()' {
Trying to match "{anonymous}::ArithConstantPattern"
    ** Insert  : 'arith.constant'(0x555d5becd390)
    ** Replace : 'arith.constant'(0x555d5be8fc20)
"{anonymous}::ArithConstantPattern" result 1

    //===-------------------------------------------===//
    Legalizing operation : 'arith.constant'(0x555d5becd390) {
      %1 = "arith.constant"() <{value = dense<0.000000e+00> : tensor<32xf16, #triton_gpu.blocked<{sizePerThread = [1], threadsPerWarp = [32], warpsPerCTA = [4], order = [0]}>>}> : () -> tensor<32xf16, #triton_gpu.blocked<{sizePerThread = [1], threadsPerWarp = [32], warpsPerCTA = [4], order = [0]}>>

    } -> SUCCESS : operation marked legal by the target
    //===-------------------------------------------===//
  } -> SUCCESS : pattern applied successfully
// *** IR Dump After Pattern Application ***
tt.func public @addmm_kernel(%arg0: !tt.ptr<f16> {tt.divisibility = 16 : i32}, %arg1: !tt.ptr<f16> {tt.divisibility = 16 : i32}, %arg2: !tt.ptr<f16> {tt.divisibility = 16 : i32}, %arg3: !tt.ptr<f16> {tt.divisibility = 16 : i32}, %arg4: i32, %arg5: i32, %arg6: i32 {tt.divisibility = 16 : i32}, %arg7: i32 {tt.divisibility = 16 : i32}, %arg8: i32 {tt.divisibility = 16 : i32}, %arg9: i32 {tt.divisibility = 16 : i32}, %arg10: i32 {tt.divisibility = 16 : i32}, %arg11: i32 {tt.divisibility = 16 : i32}) attributes {noinline = false} {
  %c31_i32 = arith.constant 31 : i32
  %cst = arith.constant dense<0.000000e+00> : tensor<32xf16, #triton_gpu.blocked<{sizePerThread = [1], threadsPerWarp = [32], warpsPerCTA = [4], order = [0]}>>
  %cst_0 = arith.constant dense<0.000000e+00> : tensor<32xf16>
  %cst_1 = arith.constant dense<0.000000e+00> : tensor<32x32xf16>
  %c1_i32 = arith.constant 1 : i32
  %c0_i32 = arith.constant 0 : i32
  %cst_2 = arith.constant dense<32> : tensor<32x32xi32>
  %cst_3 = arith.constant dense<0.000000e+00> : tensor<32x32xf32>
  %c32_i32 = arith.constant 32 : i32
  %0 = tt.get_program_id x : i32
  %1 = tt.get_program_id y : i32
  %2 = arith.muli %0, %c32_i32 : i32
  %3 = tt.make_range {end = 32 : i32, start = 0 : i32} : tensor<32xi32>
  %4 = tt.splat %2 : i32 -> tensor<32xi32>
  %5 = arith.addi %4, %3 : tensor<32xi32>
  %6 = arith.muli %1, %c32_i32 : i32
  %7 = tt.splat %6 : i32 -> tensor<32xi32>
  %8 = arith.addi %7, %3 : tensor<32xi32>
  %9 = tt.expand_dims %5 {axis = 1 : i32} : tensor<32xi32> -> tensor<32x1xi32>
  %10 = tt.splat %arg9 : i32 -> tensor<32x1xi32>
  %11 = arith.muli %9, %10 : tensor<32x1xi32>
  %12 = tt.expand_dims %3 {axis = 0 : i32} : tensor<32xi32> -> tensor<1x32xi32>
  %13 = tt.broadcast %11 : tensor<32x1xi32> -> tensor<32x32xi32>
  %14 = tt.broadcast %12 : tensor<1x32xi32> -> tensor<32x32xi32>
  %15 = arith.addi %13, %14 : tensor<32x32xi32>
  %16 = tt.splat %arg0 : !tt.ptr<f16> -> tensor<32x32x!tt.ptr<f16>>
  %17 = tt.addptr %16, %15 : tensor<32x32x!tt.ptr<f16>>, tensor<32x32xi32>
  %18 = tt.expand_dims %3 {axis = 1 : i32} : tensor<32xi32> -> tensor<32x1xi32>
  %19 = tt.splat %arg10 : i32 -> tensor<32x1xi32>
  %20 = arith.muli %18, %19 : tensor<32x1xi32>
  %21 = tt.expand_dims %8 {axis = 0 : i32} : tensor<32xi32> -> tensor<1x32xi32>
  %22 = tt.broadcast %20 : tensor<32x1xi32> -> tensor<32x32xi32>
  %23 = tt.broadcast %21 : tensor<1x32xi32> -> tensor<32x32xi32>
  %24 = arith.addi %22, %23 : tensor<32x32xi32>
  %25 = tt.splat %arg1 : !tt.ptr<f16> -> tensor<32x32x!tt.ptr<f16>>
  %26 = tt.addptr %25, %24 : tensor<32x32x!tt.ptr<f16>>, tensor<32x32xi32>
  %27 = tt.splat %arg2 : !tt.ptr<f16> -> tensor<32x!tt.ptr<f16>>
  %28 = tt.addptr %27, %8 : tensor<32x!tt.ptr<f16>>, tensor<32xi32>
  %29 = arith.addi %arg8, %c31_i32 : i32
  %30 = arith.divsi %29, %c32_i32 : i32
  %31 = tt.splat %arg6 : i32 -> tensor<32x1xi32>
  %32 = arith.cmpi slt, %9, %31 : tensor<32x1xi32>
  %33 = tt.broadcast %32 : tensor<32x1xi1> -> tensor<32x32xi1>
  %34 = tt.splat %arg7 : i32 -> tensor<1x32xi32>
  %35 = arith.cmpi slt, %21, %34 : tensor<1x32xi32>
  %36 = tt.broadcast %35 : tensor<1x32xi1> -> tensor<32x32xi1>
  %37 = arith.muli %arg10, %c32_i32 : i32
  %38 = tt.splat %37 : i32 -> tensor<32x32xi32>
  %39:3 = scf.for %arg12 = %c0_i32 to %30 step %c1_i32 iter_args(%arg13 = %cst_3, %arg14 = %17, %arg15 = %26) -> (tensor<32x32xf32>, tensor<32x32x!tt.ptr<f16>>, tensor<32x32x!tt.ptr<f16>>)  : i32 {
    %67 = arith.muli %arg12, %c32_i32 : i32
    %68 = arith.subi %arg8, %67 : i32
    %69 = tt.splat %68 : i32 -> tensor<1x32xi32>
    %70 = arith.cmpi slt, %12, %69 : tensor<1x32xi32>
    %71 = tt.broadcast %70 : tensor<1x32xi1> -> tensor<32x32xi1>
    %72 = arith.andi %33, %71 : tensor<32x32xi1>
    %73 = tt.load %arg14, %72, %cst_1 : tensor<32x32x!tt.ptr<f16>>
    %74 = tt.splat %68 : i32 -> tensor<32x1xi32>
    %75 = arith.cmpi slt, %18, %74 : tensor<32x1xi32>
    %76 = tt.broadcast %75 : tensor<32x1xi1> -> tensor<32x32xi1>
    %77 = arith.andi %76, %36 : tensor<32x32xi1>
    %78 = tt.load %arg15, %77, %cst_1 : tensor<32x32x!tt.ptr<f16>>
    %79 = tt.dot %73, %78, %arg13 : tensor<32x32xf16> * tensor<32x32xf16> -> tensor<32x32xf32>
    %80 = tt.addptr %arg14, %cst_2 : tensor<32x32x!tt.ptr<f16>>, tensor<32x32xi32>
    %81 = tt.addptr %arg15, %38 : tensor<32x32x!tt.ptr<f16>>, tensor<32x32xi32>
    scf.yield %79, %80, %81 : tensor<32x32xf32>, tensor<32x32x!tt.ptr<f16>>, tensor<32x32x!tt.ptr<f16>>
  }
  %40 = tt.splat %arg7 : i32 -> tensor<32xi32>
  %41 = arith.cmpi slt, %8, %40 : tensor<32xi32>
  %42 = tt.load %28, %41, %cst_0 : tensor<32x!tt.ptr<f16>>
  %43 = arith.sitofp %arg4 : i32 to f32
  %44 = tt.splat %43 : f32 -> tensor<32x32xf32>
  %45 = arith.mulf %39#0, %44 : tensor<32x32xf32>
  %46 = arith.sitofp %arg5 : i32 to f16
  %47 = tt.splat %46 : f16 -> tensor<32xf16>
  %48 = arith.mulf %42, %47 : tensor<32xf16>
  %49 = tt.expand_dims %48 {axis = 0 : i32} : tensor<32xf16> -> tensor<1x32xf16>
  %50 = arith.extf %49 : tensor<1x32xf16> to tensor<1x32xf32>
  %51 = tt.broadcast %50 : tensor<1x32xf32> -> tensor<32x32xf32>
  %52 = arith.addf %45, %51 : tensor<32x32xf32>
  %53 = arith.truncf %52 : tensor<32x32xf32> to tensor<32x32xf16>
  %54 = tt.splat %arg11 : i32 -> tensor<32x1xi32>
  %55 = arith.muli %54, %9 : tensor<32x1xi32>
  %56 = tt.splat %arg3 : !tt.ptr<f16> -> tensor<32x1x!tt.ptr<f16>>
  %57 = tt.addptr %56, %55 : tensor<32x1x!tt.ptr<f16>>, tensor<32x1xi32>
  %58 = tt.broadcast %57 : tensor<32x1x!tt.ptr<f16>> -> tensor<32x32x!tt.ptr<f16>>
  %59 = tt.addptr %58, %23 : tensor<32x32x!tt.ptr<f16>>, tensor<32x32xi32>
  %60 = tt.splat %arg6 : i32 -> tensor<32x1xi32>
  %61 = arith.cmpi slt, %9, %60 : tensor<32x1xi32>
  %62 = tt.splat %arg7 : i32 -> tensor<1x32xi32>
  %63 = arith.cmpi slt, %21, %62 : tensor<1x32xi32>
  %64 = tt.broadcast %61 : tensor<32x1xi1> -> tensor<32x32xi1>
  %65 = tt.broadcast %63 : tensor<1x32xi1> -> tensor<32x32xi1>
  %66 = arith.andi %64, %65 : tensor<32x32xi1>
  tt.store %59, %53, %66 : tensor<32x32x!tt.ptr<f16>>
  tt.return
}


} -> SUCCESS
//===-------------------------------------------===//

//===-------------------------------------------===//
Legalizing operation : 'arith.constant'(0x555d5be90a40) {
  %3 = "arith.constant"() <{value = dense<0.000000e+00> : tensor<32x32xf16>}> : () -> tensor<32x32xf16>

  * Fold {
  } -> FAILURE : unable to fold

  * Pattern : 'arith.constant -> ()' {
Trying to match "{anonymous}::ArithConstantPattern"
    ** Insert  : 'arith.constant'(0x555d5bed34d0)
    ** Replace : 'arith.constant'(0x555d5be90a40)
"{anonymous}::ArithConstantPattern" result 1

    //===-------------------------------------------===//
    Legalizing operation : 'arith.constant'(0x555d5bed34d0) {
      %3 = "arith.constant"() <{value = dense<0.000000e+00> : tensor<32x32xf16, #triton_gpu.blocked<{sizePerThread = [1, 1], threadsPerWarp = [1, 32], warpsPerCTA = [4, 1], order = [1, 0]}>>}> : () -> tensor<32x32xf16, #triton_gpu.blocked<{sizePerThread = [1, 1], threadsPerWarp = [1, 32], warpsPerCTA = [4, 1], order = [1, 0]}>>

    } -> SUCCESS : operation marked legal by the target
    //===-------------------------------------------===//
  } -> SUCCESS : pattern applied successfully
// *** IR Dump After Pattern Application ***
tt.func public @addmm_kernel(%arg0: !tt.ptr<f16> {tt.divisibility = 16 : i32}, %arg1: !tt.ptr<f16> {tt.divisibility = 16 : i32}, %arg2: !tt.ptr<f16> {tt.divisibility = 16 : i32}, %arg3: !tt.ptr<f16> {tt.divisibility = 16 : i32}, %arg4: i32, %arg5: i32, %arg6: i32 {tt.divisibility = 16 : i32}, %arg7: i32 {tt.divisibility = 16 : i32}, %arg8: i32 {tt.divisibility = 16 : i32}, %arg9: i32 {tt.divisibility = 16 : i32}, %arg10: i32 {tt.divisibility = 16 : i32}, %arg11: i32 {tt.divisibility = 16 : i32}) attributes {noinline = false} {
  %c31_i32 = arith.constant 31 : i32
  %cst = arith.constant dense<0.000000e+00> : tensor<32xf16, #triton_gpu.blocked<{sizePerThread = [1], threadsPerWarp = [32], warpsPerCTA = [4], order = [0]}>>
  %cst_0 = arith.constant dense<0.000000e+00> : tensor<32xf16>
  %cst_1 = arith.constant dense<0.000000e+00> : tensor<32x32xf16, #triton_gpu.blocked<{sizePerThread = [1, 1], threadsPerWarp = [1, 32], warpsPerCTA = [4, 1], order = [1, 0]}>>
  %cst_2 = arith.constant dense<0.000000e+00> : tensor<32x32xf16>
  %c1_i32 = arith.constant 1 : i32
  %c0_i32 = arith.constant 0 : i32
  %cst_3 = arith.constant dense<32> : tensor<32x32xi32>
  %cst_4 = arith.constant dense<0.000000e+00> : tensor<32x32xf32>
  %c32_i32 = arith.constant 32 : i32
  %0 = tt.get_program_id x : i32
  %1 = tt.get_program_id y : i32
  %2 = arith.muli %0, %c32_i32 : i32
  %3 = tt.make_range {end = 32 : i32, start = 0 : i32} : tensor<32xi32>
  %4 = tt.splat %2 : i32 -> tensor<32xi32>
  %5 = arith.addi %4, %3 : tensor<32xi32>
  %6 = arith.muli %1, %c32_i32 : i32
  %7 = tt.splat %6 : i32 -> tensor<32xi32>
  %8 = arith.addi %7, %3 : tensor<32xi32>
  %9 = tt.expand_dims %5 {axis = 1 : i32} : tensor<32xi32> -> tensor<32x1xi32>
  %10 = tt.splat %arg9 : i32 -> tensor<32x1xi32>
  %11 = arith.muli %9, %10 : tensor<32x1xi32>
  %12 = tt.expand_dims %3 {axis = 0 : i32} : tensor<32xi32> -> tensor<1x32xi32>
  %13 = tt.broadcast %11 : tensor<32x1xi32> -> tensor<32x32xi32>
  %14 = tt.broadcast %12 : tensor<1x32xi32> -> tensor<32x32xi32>
  %15 = arith.addi %13, %14 : tensor<32x32xi32>
  %16 = tt.splat %arg0 : !tt.ptr<f16> -> tensor<32x32x!tt.ptr<f16>>
  %17 = tt.addptr %16, %15 : tensor<32x32x!tt.ptr<f16>>, tensor<32x32xi32>
  %18 = tt.expand_dims %3 {axis = 1 : i32} : tensor<32xi32> -> tensor<32x1xi32>
  %19 = tt.splat %arg10 : i32 -> tensor<32x1xi32>
  %20 = arith.muli %18, %19 : tensor<32x1xi32>
  %21 = tt.expand_dims %8 {axis = 0 : i32} : tensor<32xi32> -> tensor<1x32xi32>
  %22 = tt.broadcast %20 : tensor<32x1xi32> -> tensor<32x32xi32>
  %23 = tt.broadcast %21 : tensor<1x32xi32> -> tensor<32x32xi32>
  %24 = arith.addi %22, %23 : tensor<32x32xi32>
  %25 = tt.splat %arg1 : !tt.ptr<f16> -> tensor<32x32x!tt.ptr<f16>>
  %26 = tt.addptr %25, %24 : tensor<32x32x!tt.ptr<f16>>, tensor<32x32xi32>
  %27 = tt.splat %arg2 : !tt.ptr<f16> -> tensor<32x!tt.ptr<f16>>
  %28 = tt.addptr %27, %8 : tensor<32x!tt.ptr<f16>>, tensor<32xi32>
  %29 = arith.addi %arg8, %c31_i32 : i32
  %30 = arith.divsi %29, %c32_i32 : i32
  %31 = tt.splat %arg6 : i32 -> tensor<32x1xi32>
  %32 = arith.cmpi slt, %9, %31 : tensor<32x1xi32>
  %33 = tt.broadcast %32 : tensor<32x1xi1> -> tensor<32x32xi1>
  %34 = tt.splat %arg7 : i32 -> tensor<1x32xi32>
  %35 = arith.cmpi slt, %21, %34 : tensor<1x32xi32>
  %36 = tt.broadcast %35 : tensor<1x32xi1> -> tensor<32x32xi1>
  %37 = arith.muli %arg10, %c32_i32 : i32
  %38 = tt.splat %37 : i32 -> tensor<32x32xi32>
  %39:3 = scf.for %arg12 = %c0_i32 to %30 step %c1_i32 iter_args(%arg13 = %cst_4, %arg14 = %17, %arg15 = %26) -> (tensor<32x32xf32>, tensor<32x32x!tt.ptr<f16>>, tensor<32x32x!tt.ptr<f16>>)  : i32 {
    %67 = arith.muli %arg12, %c32_i32 : i32
    %68 = arith.subi %arg8, %67 : i32
    %69 = tt.splat %68 : i32 -> tensor<1x32xi32>
    %70 = arith.cmpi slt, %12, %69 : tensor<1x32xi32>
    %71 = tt.broadcast %70 : tensor<1x32xi1> -> tensor<32x32xi1>
    %72 = arith.andi %33, %71 : tensor<32x32xi1>
    %73 = tt.load %arg14, %72, %cst_2 : tensor<32x32x!tt.ptr<f16>>
    %74 = tt.splat %68 : i32 -> tensor<32x1xi32>
    %75 = arith.cmpi slt, %18, %74 : tensor<32x1xi32>
    %76 = tt.broadcast %75 : tensor<32x1xi1> -> tensor<32x32xi1>
    %77 = arith.andi %76, %36 : tensor<32x32xi1>
    %78 = tt.load %arg15, %77, %cst_2 : tensor<32x32x!tt.ptr<f16>>
    %79 = tt.dot %73, %78, %arg13 : tensor<32x32xf16> * tensor<32x32xf16> -> tensor<32x32xf32>
    %80 = tt.addptr %arg14, %cst_3 : tensor<32x32x!tt.ptr<f16>>, tensor<32x32xi32>
    %81 = tt.addptr %arg15, %38 : tensor<32x32x!tt.ptr<f16>>, tensor<32x32xi32>
    scf.yield %79, %80, %81 : tensor<32x32xf32>, tensor<32x32x!tt.ptr<f16>>, tensor<32x32x!tt.ptr<f16>>
  }
  %40 = tt.splat %arg7 : i32 -> tensor<32xi32>
  %41 = arith.cmpi slt, %8, %40 : tensor<32xi32>
  %42 = tt.load %28, %41, %cst_0 : tensor<32x!tt.ptr<f16>>
  %43 = arith.sitofp %arg4 : i32 to f32
  %44 = tt.splat %43 : f32 -> tensor<32x32xf32>
  %45 = arith.mulf %39#0, %44 : tensor<32x32xf32>
  %46 = arith.sitofp %arg5 : i32 to f16
  %47 = tt.splat %46 : f16 -> tensor<32xf16>
  %48 = arith.mulf %42, %47 : tensor<32xf16>
  %49 = tt.expand_dims %48 {axis = 0 : i32} : tensor<32xf16> -> tensor<1x32xf16>
  %50 = arith.extf %49 : tensor<1x32xf16> to tensor<1x32xf32>
  %51 = tt.broadcast %50 : tensor<1x32xf32> -> tensor<32x32xf32>
  %52 = arith.addf %45, %51 : tensor<32x32xf32>
  %53 = arith.truncf %52 : tensor<32x32xf32> to tensor<32x32xf16>
  %54 = tt.splat %arg11 : i32 -> tensor<32x1xi32>
  %55 = arith.muli %54, %9 : tensor<32x1xi32>
  %56 = tt.splat %arg3 : !tt.ptr<f16> -> tensor<32x1x!tt.ptr<f16>>
  %57 = tt.addptr %56, %55 : tensor<32x1x!tt.ptr<f16>>, tensor<32x1xi32>
  %58 = tt.broadcast %57 : tensor<32x1x!tt.ptr<f16>> -> tensor<32x32x!tt.ptr<f16>>
  %59 = tt.addptr %58, %23 : tensor<32x32x!tt.ptr<f16>>, tensor<32x32xi32>
  %60 = tt.splat %arg6 : i32 -> tensor<32x1xi32>
  %61 = arith.cmpi slt, %9, %60 : tensor<32x1xi32>
  %62 = tt.splat %arg7 : i32 -> tensor<1x32xi32>
  %63 = arith.cmpi slt, %21, %62 : tensor<1x32xi32>
  %64 = tt.broadcast %61 : tensor<32x1xi1> -> tensor<32x32xi1>
  %65 = tt.broadcast %63 : tensor<1x32xi1> -> tensor<32x32xi1>
  %66 = arith.andi %64, %65 : tensor<32x32xi1>
  tt.store %59, %53, %66 : tensor<32x32x!tt.ptr<f16>>
  tt.return
}


} -> SUCCESS
//===-------------------------------------------===//

//===-------------------------------------------===//
Legalizing operation : 'arith.constant'(0x555d5be918c0) {
  %5 = "arith.constant"() <{value = 1 : i32}> : () -> i32

} -> SUCCESS : operation marked legal by the target
//===-------------------------------------------===//

//===-------------------------------------------===//
Legalizing operation : 'arith.constant'(0x555d5be91e10) {
  %6 = "arith.constant"() <{value = 0 : i32}> : () -> i32

} -> SUCCESS : operation marked legal by the target
//===-------------------------------------------===//

//===-------------------------------------------===//
Legalizing operation : 'arith.constant'(0x555d5be92860) {
  %7 = "arith.constant"() <{value = dense<32> : tensor<32x32xi32>}> : () -> tensor<32x32xi32>

  * Fold {
  } -> FAILURE : unable to fold

  * Pattern : 'arith.constant -> ()' {
Trying to match "{anonymous}::ArithConstantPattern"
    ** Insert  : 'arith.constant'(0x555d5bed3320)
    ** Replace : 'arith.constant'(0x555d5be92860)
"{anonymous}::ArithConstantPattern" result 1

    //===-------------------------------------------===//
    Legalizing operation : 'arith.constant'(0x555d5bed3320) {
      %7 = "arith.constant"() <{value = dense<32> : tensor<32x32xi32, #triton_gpu.blocked<{sizePerThread = [1, 1], threadsPerWarp = [1, 32], warpsPerCTA = [4, 1], order = [1, 0]}>>}> : () -> tensor<32x32xi32, #triton_gpu.blocked<{sizePerThread = [1, 1], threadsPerWarp = [1, 32], warpsPerCTA = [4, 1], order = [1, 0]}>>

    } -> SUCCESS : operation marked legal by the target
    //===-------------------------------------------===//
  } -> SUCCESS : pattern applied successfully
// *** IR Dump After Pattern Application ***
tt.func public @addmm_kernel(%arg0: !tt.ptr<f16> {tt.divisibility = 16 : i32}, %arg1: !tt.ptr<f16> {tt.divisibility = 16 : i32}, %arg2: !tt.ptr<f16> {tt.divisibility = 16 : i32}, %arg3: !tt.ptr<f16> {tt.divisibility = 16 : i32}, %arg4: i32, %arg5: i32, %arg6: i32 {tt.divisibility = 16 : i32}, %arg7: i32 {tt.divisibility = 16 : i32}, %arg8: i32 {tt.divisibility = 16 : i32}, %arg9: i32 {tt.divisibility = 16 : i32}, %arg10: i32 {tt.divisibility = 16 : i32}, %arg11: i32 {tt.divisibility = 16 : i32}) attributes {noinline = false} {
  %c31_i32 = arith.constant 31 : i32
  %cst = arith.constant dense<0.000000e+00> : tensor<32xf16, #triton_gpu.blocked<{sizePerThread = [1], threadsPerWarp = [32], warpsPerCTA = [4], order = [0]}>>
  %cst_0 = arith.constant dense<0.000000e+00> : tensor<32xf16>
  %cst_1 = arith.constant dense<0.000000e+00> : tensor<32x32xf16, #triton_gpu.blocked<{sizePerThread = [1, 1], threadsPerWarp = [1, 32], warpsPerCTA = [4, 1], order = [1, 0]}>>
  %cst_2 = arith.constant dense<0.000000e+00> : tensor<32x32xf16>
  %c1_i32 = arith.constant 1 : i32
  %c0_i32 = arith.constant 0 : i32
  %cst_3 = arith.constant dense<32> : tensor<32x32xi32, #triton_gpu.blocked<{sizePerThread = [1, 1], threadsPerWarp = [1, 32], warpsPerCTA = [4, 1], order = [1, 0]}>>
  %cst_4 = arith.constant dense<32> : tensor<32x32xi32>
  %cst_5 = arith.constant dense<0.000000e+00> : tensor<32x32xf32>
  %c32_i32 = arith.constant 32 : i32
  %0 = tt.get_program_id x : i32
  %1 = tt.get_program_id y : i32
  %2 = arith.muli %0, %c32_i32 : i32
  %3 = tt.make_range {end = 32 : i32, start = 0 : i32} : tensor<32xi32>
  %4 = tt.splat %2 : i32 -> tensor<32xi32>
  %5 = arith.addi %4, %3 : tensor<32xi32>
  %6 = arith.muli %1, %c32_i32 : i32
  %7 = tt.splat %6 : i32 -> tensor<32xi32>
  %8 = arith.addi %7, %3 : tensor<32xi32>
  %9 = tt.expand_dims %5 {axis = 1 : i32} : tensor<32xi32> -> tensor<32x1xi32>
  %10 = tt.splat %arg9 : i32 -> tensor<32x1xi32>
  %11 = arith.muli %9, %10 : tensor<32x1xi32>
  %12 = tt.expand_dims %3 {axis = 0 : i32} : tensor<32xi32> -> tensor<1x32xi32>
  %13 = tt.broadcast %11 : tensor<32x1xi32> -> tensor<32x32xi32>
  %14 = tt.broadcast %12 : tensor<1x32xi32> -> tensor<32x32xi32>
  %15 = arith.addi %13, %14 : tensor<32x32xi32>
  %16 = tt.splat %arg0 : !tt.ptr<f16> -> tensor<32x32x!tt.ptr<f16>>
  %17 = tt.addptr %16, %15 : tensor<32x32x!tt.ptr<f16>>, tensor<32x32xi32>
  %18 = tt.expand_dims %3 {axis = 1 : i32} : tensor<32xi32> -> tensor<32x1xi32>
  %19 = tt.splat %arg10 : i32 -> tensor<32x1xi32>
  %20 = arith.muli %18, %19 : tensor<32x1xi32>
  %21 = tt.expand_dims %8 {axis = 0 : i32} : tensor<32xi32> -> tensor<1x32xi32>
  %22 = tt.broadcast %20 : tensor<32x1xi32> -> tensor<32x32xi32>
  %23 = tt.broadcast %21 : tensor<1x32xi32> -> tensor<32x32xi32>
  %24 = arith.addi %22, %23 : tensor<32x32xi32>
  %25 = tt.splat %arg1 : !tt.ptr<f16> -> tensor<32x32x!tt.ptr<f16>>
  %26 = tt.addptr %25, %24 : tensor<32x32x!tt.ptr<f16>>, tensor<32x32xi32>
  %27 = tt.splat %arg2 : !tt.ptr<f16> -> tensor<32x!tt.ptr<f16>>
  %28 = tt.addptr %27, %8 : tensor<32x!tt.ptr<f16>>, tensor<32xi32>
  %29 = arith.addi %arg8, %c31_i32 : i32
  %30 = arith.divsi %29, %c32_i32 : i32
  %31 = tt.splat %arg6 : i32 -> tensor<32x1xi32>
  %32 = arith.cmpi slt, %9, %31 : tensor<32x1xi32>
  %33 = tt.broadcast %32 : tensor<32x1xi1> -> tensor<32x32xi1>
  %34 = tt.splat %arg7 : i32 -> tensor<1x32xi32>
  %35 = arith.cmpi slt, %21, %34 : tensor<1x32xi32>
  %36 = tt.broadcast %35 : tensor<1x32xi1> -> tensor<32x32xi1>
  %37 = arith.muli %arg10, %c32_i32 : i32
  %38 = tt.splat %37 : i32 -> tensor<32x32xi32>
  %39:3 = scf.for %arg12 = %c0_i32 to %30 step %c1_i32 iter_args(%arg13 = %cst_5, %arg14 = %17, %arg15 = %26) -> (tensor<32x32xf32>, tensor<32x32x!tt.ptr<f16>>, tensor<32x32x!tt.ptr<f16>>)  : i32 {
    %67 = arith.muli %arg12, %c32_i32 : i32
    %68 = arith.subi %arg8, %67 : i32
    %69 = tt.splat %68 : i32 -> tensor<1x32xi32>
    %70 = arith.cmpi slt, %12, %69 : tensor<1x32xi32>
    %71 = tt.broadcast %70 : tensor<1x32xi1> -> tensor<32x32xi1>
    %72 = arith.andi %33, %71 : tensor<32x32xi1>
    %73 = tt.load %arg14, %72, %cst_2 : tensor<32x32x!tt.ptr<f16>>
    %74 = tt.splat %68 : i32 -> tensor<32x1xi32>
    %75 = arith.cmpi slt, %18, %74 : tensor<32x1xi32>
    %76 = tt.broadcast %75 : tensor<32x1xi1> -> tensor<32x32xi1>
    %77 = arith.andi %76, %36 : tensor<32x32xi1>
    %78 = tt.load %arg15, %77, %cst_2 : tensor<32x32x!tt.ptr<f16>>
    %79 = tt.dot %73, %78, %arg13 : tensor<32x32xf16> * tensor<32x32xf16> -> tensor<32x32xf32>
    %80 = tt.addptr %arg14, %cst_4 : tensor<32x32x!tt.ptr<f16>>, tensor<32x32xi32>
    %81 = tt.addptr %arg15, %38 : tensor<32x32x!tt.ptr<f16>>, tensor<32x32xi32>
    scf.yield %79, %80, %81 : tensor<32x32xf32>, tensor<32x32x!tt.ptr<f16>>, tensor<32x32x!tt.ptr<f16>>
  }
  %40 = tt.splat %arg7 : i32 -> tensor<32xi32>
  %41 = arith.cmpi slt, %8, %40 : tensor<32xi32>
  %42 = tt.load %28, %41, %cst_0 : tensor<32x!tt.ptr<f16>>
  %43 = arith.sitofp %arg4 : i32 to f32
  %44 = tt.splat %43 : f32 -> tensor<32x32xf32>
  %45 = arith.mulf %39#0, %44 : tensor<32x32xf32>
  %46 = arith.sitofp %arg5 : i32 to f16
  %47 = tt.splat %46 : f16 -> tensor<32xf16>
  %48 = arith.mulf %42, %47 : tensor<32xf16>
  %49 = tt.expand_dims %48 {axis = 0 : i32} : tensor<32xf16> -> tensor<1x32xf16>
  %50 = arith.extf %49 : tensor<1x32xf16> to tensor<1x32xf32>
  %51 = tt.broadcast %50 : tensor<1x32xf32> -> tensor<32x32xf32>
  %52 = arith.addf %45, %51 : tensor<32x32xf32>
  %53 = arith.truncf %52 : tensor<32x32xf32> to tensor<32x32xf16>
  %54 = tt.splat %arg11 : i32 -> tensor<32x1xi32>
  %55 = arith.muli %54, %9 : tensor<32x1xi32>
  %56 = tt.splat %arg3 : !tt.ptr<f16> -> tensor<32x1x!tt.ptr<f16>>
  %57 = tt.addptr %56, %55 : tensor<32x1x!tt.ptr<f16>>, tensor<32x1xi32>
  %58 = tt.broadcast %57 : tensor<32x1x!tt.ptr<f16>> -> tensor<32x32x!tt.ptr<f16>>
  %59 = tt.addptr %58, %23 : tensor<32x32x!tt.ptr<f16>>, tensor<32x32xi32>
  %60 = tt.splat %arg6 : i32 -> tensor<32x1xi32>
  %61 = arith.cmpi slt, %9, %60 : tensor<32x1xi32>
  %62 = tt.splat %arg7 : i32 -> tensor<1x32xi32>
  %63 = arith.cmpi slt, %21, %62 : tensor<1x32xi32>
  %64 = tt.broadcast %61 : tensor<32x1xi1> -> tensor<32x32xi1>
  %65 = tt.broadcast %63 : tensor<1x32xi1> -> tensor<32x32xi1>
  %66 = arith.andi %64, %65 : tensor<32x32xi1>
  tt.store %59, %53, %66 : tensor<32x32x!tt.ptr<f16>>
  tt.return
}


} -> SUCCESS
//===-------------------------------------------===//

//===-------------------------------------------===//
Legalizing operation : 'arith.constant'(0x555d5be94220) {
  %9 = "arith.constant"() <{value = dense<0.000000e+00> : tensor<32x32xf32>}> : () -> tensor<32x32xf32>

  * Fold {
  } -> FAILURE : unable to fold

  * Pattern : 'arith.constant -> ()' {
Trying to match "{anonymous}::ArithConstantPattern"
    ** Insert  : 'arith.constant'(0x555d5bed3290)
    ** Replace : 'arith.constant'(0x555d5be94220)
"{anonymous}::ArithConstantPattern" result 1

    //===-------------------------------------------===//
    Legalizing operation : 'arith.constant'(0x555d5bed3290) {
      %9 = "arith.constant"() <{value = dense<0.000000e+00> : tensor<32x32xf32, #triton_gpu.blocked<{sizePerThread = [1, 1], threadsPerWarp = [1, 32], warpsPerCTA = [4, 1], order = [1, 0]}>>}> : () -> tensor<32x32xf32, #triton_gpu.blocked<{sizePerThread = [1, 1], threadsPerWarp = [1, 32], warpsPerCTA = [4, 1], order = [1, 0]}>>

    } -> SUCCESS : operation marked legal by the target
    //===-------------------------------------------===//
  } -> SUCCESS : pattern applied successfully
// *** IR Dump After Pattern Application ***
tt.func public @addmm_kernel(%arg0: !tt.ptr<f16> {tt.divisibility = 16 : i32}, %arg1: !tt.ptr<f16> {tt.divisibility = 16 : i32}, %arg2: !tt.ptr<f16> {tt.divisibility = 16 : i32}, %arg3: !tt.ptr<f16> {tt.divisibility = 16 : i32}, %arg4: i32, %arg5: i32, %arg6: i32 {tt.divisibility = 16 : i32}, %arg7: i32 {tt.divisibility = 16 : i32}, %arg8: i32 {tt.divisibility = 16 : i32}, %arg9: i32 {tt.divisibility = 16 : i32}, %arg10: i32 {tt.divisibility = 16 : i32}, %arg11: i32 {tt.divisibility = 16 : i32}) attributes {noinline = false} {
  %c31_i32 = arith.constant 31 : i32
  %cst = arith.constant dense<0.000000e+00> : tensor<32xf16, #triton_gpu.blocked<{sizePerThread = [1], threadsPerWarp = [32], warpsPerCTA = [4], order = [0]}>>
  %cst_0 = arith.constant dense<0.000000e+00> : tensor<32xf16>
  %cst_1 = arith.constant dense<0.000000e+00> : tensor<32x32xf16, #triton_gpu.blocked<{sizePerThread = [1, 1], threadsPerWarp = [1, 32], warpsPerCTA = [4, 1], order = [1, 0]}>>
  %cst_2 = arith.constant dense<0.000000e+00> : tensor<32x32xf16>
  %c1_i32 = arith.constant 1 : i32
  %c0_i32 = arith.constant 0 : i32
  %cst_3 = arith.constant dense<32> : tensor<32x32xi32, #triton_gpu.blocked<{sizePerThread = [1, 1], threadsPerWarp = [1, 32], warpsPerCTA = [4, 1], order = [1, 0]}>>
  %cst_4 = arith.constant dense<32> : tensor<32x32xi32>
  %cst_5 = arith.constant dense<0.000000e+00> : tensor<32x32xf32, #triton_gpu.blocked<{sizePerThread = [1, 1], threadsPerWarp = [1, 32], warpsPerCTA = [4, 1], order = [1, 0]}>>
  %cst_6 = arith.constant dense<0.000000e+00> : tensor<32x32xf32>
  %c32_i32 = arith.constant 32 : i32
  %0 = tt.get_program_id x : i32
  %1 = tt.get_program_id y : i32
  %2 = arith.muli %0, %c32_i32 : i32
  %3 = tt.make_range {end = 32 : i32, start = 0 : i32} : tensor<32xi32>
  %4 = tt.splat %2 : i32 -> tensor<32xi32>
  %5 = arith.addi %4, %3 : tensor<32xi32>
  %6 = arith.muli %1, %c32_i32 : i32
  %7 = tt.splat %6 : i32 -> tensor<32xi32>
  %8 = arith.addi %7, %3 : tensor<32xi32>
  %9 = tt.expand_dims %5 {axis = 1 : i32} : tensor<32xi32> -> tensor<32x1xi32>
  %10 = tt.splat %arg9 : i32 -> tensor<32x1xi32>
  %11 = arith.muli %9, %10 : tensor<32x1xi32>
  %12 = tt.expand_dims %3 {axis = 0 : i32} : tensor<32xi32> -> tensor<1x32xi32>
  %13 = tt.broadcast %11 : tensor<32x1xi32> -> tensor<32x32xi32>
  %14 = tt.broadcast %12 : tensor<1x32xi32> -> tensor<32x32xi32>
  %15 = arith.addi %13, %14 : tensor<32x32xi32>
  %16 = tt.splat %arg0 : !tt.ptr<f16> -> tensor<32x32x!tt.ptr<f16>>
  %17 = tt.addptr %16, %15 : tensor<32x32x!tt.ptr<f16>>, tensor<32x32xi32>
  %18 = tt.expand_dims %3 {axis = 1 : i32} : tensor<32xi32> -> tensor<32x1xi32>
  %19 = tt.splat %arg10 : i32 -> tensor<32x1xi32>
  %20 = arith.muli %18, %19 : tensor<32x1xi32>
  %21 = tt.expand_dims %8 {axis = 0 : i32} : tensor<32xi32> -> tensor<1x32xi32>
  %22 = tt.broadcast %20 : tensor<32x1xi32> -> tensor<32x32xi32>
  %23 = tt.broadcast %21 : tensor<1x32xi32> -> tensor<32x32xi32>
  %24 = arith.addi %22, %23 : tensor<32x32xi32>
  %25 = tt.splat %arg1 : !tt.ptr<f16> -> tensor<32x32x!tt.ptr<f16>>
  %26 = tt.addptr %25, %24 : tensor<32x32x!tt.ptr<f16>>, tensor<32x32xi32>
  %27 = tt.splat %arg2 : !tt.ptr<f16> -> tensor<32x!tt.ptr<f16>>
  %28 = tt.addptr %27, %8 : tensor<32x!tt.ptr<f16>>, tensor<32xi32>
  %29 = arith.addi %arg8, %c31_i32 : i32
  %30 = arith.divsi %29, %c32_i32 : i32
  %31 = tt.splat %arg6 : i32 -> tensor<32x1xi32>
  %32 = arith.cmpi slt, %9, %31 : tensor<32x1xi32>
  %33 = tt.broadcast %32 : tensor<32x1xi1> -> tensor<32x32xi1>
  %34 = tt.splat %arg7 : i32 -> tensor<1x32xi32>
  %35 = arith.cmpi slt, %21, %34 : tensor<1x32xi32>
  %36 = tt.broadcast %35 : tensor<1x32xi1> -> tensor<32x32xi1>
  %37 = arith.muli %arg10, %c32_i32 : i32
  %38 = tt.splat %37 : i32 -> tensor<32x32xi32>
  %39:3 = scf.for %arg12 = %c0_i32 to %30 step %c1_i32 iter_args(%arg13 = %cst_6, %arg14 = %17, %arg15 = %26) -> (tensor<32x32xf32>, tensor<32x32x!tt.ptr<f16>>, tensor<32x32x!tt.ptr<f16>>)  : i32 {
    %67 = arith.muli %arg12, %c32_i32 : i32
    %68 = arith.subi %arg8, %67 : i32
    %69 = tt.splat %68 : i32 -> tensor<1x32xi32>
    %70 = arith.cmpi slt, %12, %69 : tensor<1x32xi32>
    %71 = tt.broadcast %70 : tensor<1x32xi1> -> tensor<32x32xi1>
    %72 = arith.andi %33, %71 : tensor<32x32xi1>
    %73 = tt.load %arg14, %72, %cst_2 : tensor<32x32x!tt.ptr<f16>>
    %74 = tt.splat %68 : i32 -> tensor<32x1xi32>
    %75 = arith.cmpi slt, %18, %74 : tensor<32x1xi32>
    %76 = tt.broadcast %75 : tensor<32x1xi1> -> tensor<32x32xi1>
    %77 = arith.andi %76, %36 : tensor<32x32xi1>
    %78 = tt.load %arg15, %77, %cst_2 : tensor<32x32x!tt.ptr<f16>>
    %79 = tt.dot %73, %78, %arg13 : tensor<32x32xf16> * tensor<32x32xf16> -> tensor<32x32xf32>
    %80 = tt.addptr %arg14, %cst_4 : tensor<32x32x!tt.ptr<f16>>, tensor<32x32xi32>
    %81 = tt.addptr %arg15, %38 : tensor<32x32x!tt.ptr<f16>>, tensor<32x32xi32>
    scf.yield %79, %80, %81 : tensor<32x32xf32>, tensor<32x32x!tt.ptr<f16>>, tensor<32x32x!tt.ptr<f16>>
  }
  %40 = tt.splat %arg7 : i32 -> tensor<32xi32>
  %41 = arith.cmpi slt, %8, %40 : tensor<32xi32>
  %42 = tt.load %28, %41, %cst_0 : tensor<32x!tt.ptr<f16>>
  %43 = arith.sitofp %arg4 : i32 to f32
  %44 = tt.splat %43 : f32 -> tensor<32x32xf32>
  %45 = arith.mulf %39#0, %44 : tensor<32x32xf32>
  %46 = arith.sitofp %arg5 : i32 to f16
  %47 = tt.splat %46 : f16 -> tensor<32xf16>
  %48 = arith.mulf %42, %47 : tensor<32xf16>
  %49 = tt.expand_dims %48 {axis = 0 : i32} : tensor<32xf16> -> tensor<1x32xf16>
  %50 = arith.extf %49 : tensor<1x32xf16> to tensor<1x32xf32>
  %51 = tt.broadcast %50 : tensor<1x32xf32> -> tensor<32x32xf32>
  %52 = arith.addf %45, %51 : tensor<32x32xf32>
  %53 = arith.truncf %52 : tensor<32x32xf32> to tensor<32x32xf16>
  %54 = tt.splat %arg11 : i32 -> tensor<32x1xi32>
  %55 = arith.muli %54, %9 : tensor<32x1xi32>
  %56 = tt.splat %arg3 : !tt.ptr<f16> -> tensor<32x1x!tt.ptr<f16>>
  %57 = tt.addptr %56, %55 : tensor<32x1x!tt.ptr<f16>>, tensor<32x1xi32>
  %58 = tt.broadcast %57 : tensor<32x1x!tt.ptr<f16>> -> tensor<32x32x!tt.ptr<f16>>
  %59 = tt.addptr %58, %23 : tensor<32x32x!tt.ptr<f16>>, tensor<32x32xi32>
  %60 = tt.splat %arg6 : i32 -> tensor<32x1xi32>
  %61 = arith.cmpi slt, %9, %60 : tensor<32x1xi32>
  %62 = tt.splat %arg7 : i32 -> tensor<1x32xi32>
  %63 = arith.cmpi slt, %21, %62 : tensor<1x32xi32>
  %64 = tt.broadcast %61 : tensor<32x1xi1> -> tensor<32x32xi1>
  %65 = tt.broadcast %63 : tensor<1x32xi1> -> tensor<32x32xi1>
  %66 = arith.andi %64, %65 : tensor<32x32xi1>
  tt.store %59, %53, %66 : tensor<32x32x!tt.ptr<f16>>
  tt.return
}


} -> SUCCESS
//===-------------------------------------------===//

//===-------------------------------------------===//
Legalizing operation : 'arith.constant'(0x555d5be94bf0) {
  %11 = "arith.constant"() <{value = 32 : i32}> : () -> i32

} -> SUCCESS : operation marked legal by the target
//===-------------------------------------------===//

//===-------------------------------------------===//
Legalizing operation : 'tt.get_program_id'(0x555d5be78240) {
  %12 = "tt.get_program_id"() <{axis = 0 : i32}> : () -> i32

} -> SUCCESS : operation marked legal by the target
//===-------------------------------------------===//

//===-------------------------------------------===//
Legalizing operation : 'tt.get_program_id'(0x555d5be81530) {
  %13 = "tt.get_program_id"() <{axis = 1 : i32}> : () -> i32

} -> SUCCESS : operation marked legal by the target
//===-------------------------------------------===//

//===-------------------------------------------===//
Legalizing operation : 'arith.muli'(0x555d5be951e0) {
  %14 = "arith.muli"(%12, %11) <{overflowFlags = #arith.overflow<none>}> : (i32, i32) -> i32

} -> SUCCESS : operation marked legal by the target
//===-------------------------------------------===//

//===-------------------------------------------===//
Legalizing operation : 'tt.make_range'(0x555d5be96070) {
  %15 = "tt.make_range"() <{end = 32 : i32, start = 0 : i32}> : () -> tensor<32xi32>

  * Fold {
  } -> FAILURE : unable to fold

  * Pattern : 'tt.make_range -> ()' {
Trying to match "{anonymous}::GenericOpPattern<mlir::triton::MakeRangeOp>"
ImplicitTypeIDRegistry::lookupOrInsert(mlir::triton::detail::MakeRangeOpGenericAdaptorBase::Properties)
    ** Insert  : 'tt.make_range'(0x555d5bed2870)
    ** Replace : 'tt.make_range'(0x555d5be96070)
"{anonymous}::GenericOpPattern<mlir::triton::MakeRangeOp>" result 1

    //===-------------------------------------------===//
    Legalizing operation : 'tt.make_range'(0x555d5bed2870) {
      %15 = "tt.make_range"() <{end = 32 : i32, start = 0 : i32}> : () -> tensor<32xi32, #triton_gpu.blocked<{sizePerThread = [1], threadsPerWarp = [32], warpsPerCTA = [4], order = [0]}>>

    } -> SUCCESS : operation marked legal by the target
    //===-------------------------------------------===//
  } -> SUCCESS : pattern applied successfully
// *** IR Dump After Pattern Application ***
tt.func public @addmm_kernel(%arg0: !tt.ptr<f16> {tt.divisibility = 16 : i32}, %arg1: !tt.ptr<f16> {tt.divisibility = 16 : i32}, %arg2: !tt.ptr<f16> {tt.divisibility = 16 : i32}, %arg3: !tt.ptr<f16> {tt.divisibility = 16 : i32}, %arg4: i32, %arg5: i32, %arg6: i32 {tt.divisibility = 16 : i32}, %arg7: i32 {tt.divisibility = 16 : i32}, %arg8: i32 {tt.divisibility = 16 : i32}, %arg9: i32 {tt.divisibility = 16 : i32}, %arg10: i32 {tt.divisibility = 16 : i32}, %arg11: i32 {tt.divisibility = 16 : i32}) attributes {noinline = false} {
  %c31_i32 = arith.constant 31 : i32
  %cst = arith.constant dense<0.000000e+00> : tensor<32xf16, #triton_gpu.blocked<{sizePerThread = [1], threadsPerWarp = [32], warpsPerCTA = [4], order = [0]}>>
  %cst_0 = arith.constant dense<0.000000e+00> : tensor<32xf16>
  %cst_1 = arith.constant dense<0.000000e+00> : tensor<32x32xf16, #triton_gpu.blocked<{sizePerThread = [1, 1], threadsPerWarp = [1, 32], warpsPerCTA = [4, 1], order = [1, 0]}>>
  %cst_2 = arith.constant dense<0.000000e+00> : tensor<32x32xf16>
  %c1_i32 = arith.constant 1 : i32
  %c0_i32 = arith.constant 0 : i32
  %cst_3 = arith.constant dense<32> : tensor<32x32xi32, #triton_gpu.blocked<{sizePerThread = [1, 1], threadsPerWarp = [1, 32], warpsPerCTA = [4, 1], order = [1, 0]}>>
  %cst_4 = arith.constant dense<32> : tensor<32x32xi32>
  %cst_5 = arith.constant dense<0.000000e+00> : tensor<32x32xf32, #triton_gpu.blocked<{sizePerThread = [1, 1], threadsPerWarp = [1, 32], warpsPerCTA = [4, 1], order = [1, 0]}>>
  %cst_6 = arith.constant dense<0.000000e+00> : tensor<32x32xf32>
  %c32_i32 = arith.constant 32 : i32
  %0 = tt.get_program_id x : i32
  %1 = tt.get_program_id y : i32
  %2 = arith.muli %0, %c32_i32 : i32
  %3 = tt.make_range {end = 32 : i32, start = 0 : i32} : tensor<32xi32, #triton_gpu.blocked<{sizePerThread = [1], threadsPerWarp = [32], warpsPerCTA = [4], order = [0]}>>
  %4 = tt.make_range {end = 32 : i32, start = 0 : i32} : tensor<32xi32>
  %5 = tt.splat %2 : i32 -> tensor<32xi32>
  %6 = arith.addi %5, %4 : tensor<32xi32>
  %7 = arith.muli %1, %c32_i32 : i32
  %8 = tt.splat %7 : i32 -> tensor<32xi32>
  %9 = arith.addi %8, %4 : tensor<32xi32>
  %10 = tt.expand_dims %6 {axis = 1 : i32} : tensor<32xi32> -> tensor<32x1xi32>
  %11 = tt.splat %arg9 : i32 -> tensor<32x1xi32>
  %12 = arith.muli %10, %11 : tensor<32x1xi32>
  %13 = tt.expand_dims %4 {axis = 0 : i32} : tensor<32xi32> -> tensor<1x32xi32>
  %14 = tt.broadcast %12 : tensor<32x1xi32> -> tensor<32x32xi32>
  %15 = tt.broadcast %13 : tensor<1x32xi32> -> tensor<32x32xi32>
  %16 = arith.addi %14, %15 : tensor<32x32xi32>
  %17 = tt.splat %arg0 : !tt.ptr<f16> -> tensor<32x32x!tt.ptr<f16>>
  %18 = tt.addptr %17, %16 : tensor<32x32x!tt.ptr<f16>>, tensor<32x32xi32>
  %19 = tt.expand_dims %4 {axis = 1 : i32} : tensor<32xi32> -> tensor<32x1xi32>
  %20 = tt.splat %arg10 : i32 -> tensor<32x1xi32>
  %21 = arith.muli %19, %20 : tensor<32x1xi32>
  %22 = tt.expand_dims %9 {axis = 0 : i32} : tensor<32xi32> -> tensor<1x32xi32>
  %23 = tt.broadcast %21 : tensor<32x1xi32> -> tensor<32x32xi32>
  %24 = tt.broadcast %22 : tensor<1x32xi32> -> tensor<32x32xi32>
  %25 = arith.addi %23, %24 : tensor<32x32xi32>
  %26 = tt.splat %arg1 : !tt.ptr<f16> -> tensor<32x32x!tt.ptr<f16>>
  %27 = tt.addptr %26, %25 : tensor<32x32x!tt.ptr<f16>>, tensor<32x32xi32>
  %28 = tt.splat %arg2 : !tt.ptr<f16> -> tensor<32x!tt.ptr<f16>>
  %29 = tt.addptr %28, %9 : tensor<32x!tt.ptr<f16>>, tensor<32xi32>
  %30 = arith.addi %arg8, %c31_i32 : i32
  %31 = arith.divsi %30, %c32_i32 : i32
  %32 = tt.splat %arg6 : i32 -> tensor<32x1xi32>
  %33 = arith.cmpi slt, %10, %32 : tensor<32x1xi32>
  %34 = tt.broadcast %33 : tensor<32x1xi1> -> tensor<32x32xi1>
  %35 = tt.splat %arg7 : i32 -> tensor<1x32xi32>
  %36 = arith.cmpi slt, %22, %35 : tensor<1x32xi32>
  %37 = tt.broadcast %36 : tensor<1x32xi1> -> tensor<32x32xi1>
  %38 = arith.muli %arg10, %c32_i32 : i32
  %39 = tt.splat %38 : i32 -> tensor<32x32xi32>
  %40:3 = scf.for %arg12 = %c0_i32 to %31 step %c1_i32 iter_args(%arg13 = %cst_6, %arg14 = %18, %arg15 = %27) -> (tensor<32x32xf32>, tensor<32x32x!tt.ptr<f16>>, tensor<32x32x!tt.ptr<f16>>)  : i32 {
    %68 = arith.muli %arg12, %c32_i32 : i32
    %69 = arith.subi %arg8, %68 : i32
    %70 = tt.splat %69 : i32 -> tensor<1x32xi32>
    %71 = arith.cmpi slt, %13, %70 : tensor<1x32xi32>
    %72 = tt.broadcast %71 : tensor<1x32xi1> -> tensor<32x32xi1>
    %73 = arith.andi %34, %72 : tensor<32x32xi1>
    %74 = tt.load %arg14, %73, %cst_2 : tensor<32x32x!tt.ptr<f16>>
    %75 = tt.splat %69 : i32 -> tensor<32x1xi32>
    %76 = arith.cmpi slt, %19, %75 : tensor<32x1xi32>
    %77 = tt.broadcast %76 : tensor<32x1xi1> -> tensor<32x32xi1>
    %78 = arith.andi %77, %37 : tensor<32x32xi1>
    %79 = tt.load %arg15, %78, %cst_2 : tensor<32x32x!tt.ptr<f16>>
    %80 = tt.dot %74, %79, %arg13 : tensor<32x32xf16> * tensor<32x32xf16> -> tensor<32x32xf32>
    %81 = tt.addptr %arg14, %cst_4 : tensor<32x32x!tt.ptr<f16>>, tensor<32x32xi32>
    %82 = tt.addptr %arg15, %39 : tensor<32x32x!tt.ptr<f16>>, tensor<32x32xi32>
    scf.yield %80, %81, %82 : tensor<32x32xf32>, tensor<32x32x!tt.ptr<f16>>, tensor<32x32x!tt.ptr<f16>>
  }
  %41 = tt.splat %arg7 : i32 -> tensor<32xi32>
  %42 = arith.cmpi slt, %9, %41 : tensor<32xi32>
  %43 = tt.load %29, %42, %cst_0 : tensor<32x!tt.ptr<f16>>
  %44 = arith.sitofp %arg4 : i32 to f32
  %45 = tt.splat %44 : f32 -> tensor<32x32xf32>
  %46 = arith.mulf %40#0, %45 : tensor<32x32xf32>
  %47 = arith.sitofp %arg5 : i32 to f16
  %48 = tt.splat %47 : f16 -> tensor<32xf16>
  %49 = arith.mulf %43, %48 : tensor<32xf16>
  %50 = tt.expand_dims %49 {axis = 0 : i32} : tensor<32xf16> -> tensor<1x32xf16>
  %51 = arith.extf %50 : tensor<1x32xf16> to tensor<1x32xf32>
  %52 = tt.broadcast %51 : tensor<1x32xf32> -> tensor<32x32xf32>
  %53 = arith.addf %46, %52 : tensor<32x32xf32>
  %54 = arith.truncf %53 : tensor<32x32xf32> to tensor<32x32xf16>
  %55 = tt.splat %arg11 : i32 -> tensor<32x1xi32>
  %56 = arith.muli %55, %10 : tensor<32x1xi32>
  %57 = tt.splat %arg3 : !tt.ptr<f16> -> tensor<32x1x!tt.ptr<f16>>
  %58 = tt.addptr %57, %56 : tensor<32x1x!tt.ptr<f16>>, tensor<32x1xi32>
  %59 = tt.broadcast %58 : tensor<32x1x!tt.ptr<f16>> -> tensor<32x32x!tt.ptr<f16>>
  %60 = tt.addptr %59, %24 : tensor<32x32x!tt.ptr<f16>>, tensor<32x32xi32>
  %61 = tt.splat %arg6 : i32 -> tensor<32x1xi32>
  %62 = arith.cmpi slt, %10, %61 : tensor<32x1xi32>
  %63 = tt.splat %arg7 : i32 -> tensor<1x32xi32>
  %64 = arith.cmpi slt, %22, %63 : tensor<1x32xi32>
  %65 = tt.broadcast %62 : tensor<32x1xi1> -> tensor<32x32xi1>
  %66 = tt.broadcast %64 : tensor<1x32xi1> -> tensor<32x32xi1>
  %67 = arith.andi %65, %66 : tensor<32x32xi1>
  tt.store %60, %54, %67 : tensor<32x32x!tt.ptr<f16>>
  tt.return
}


} -> SUCCESS
//===-------------------------------------------===//

//===-------------------------------------------===//
Legalizing operation : 'tt.splat'(0x555d5be96a40) {
  %17 = "tt.splat"(%14) : (i32) -> tensor<32xi32>

  * Fold {
  } -> FAILURE : unable to fold

  * Pattern : 'tt.splat -> ()' {
Trying to match "{anonymous}::GenericOpPattern<mlir::triton::SplatOp>"
    ** Insert  : 'tt.splat'(0x555d5bebfac0)
    ** Replace : 'tt.splat'(0x555d5be96a40)
"{anonymous}::GenericOpPattern<mlir::triton::SplatOp>" result 1

    //===-------------------------------------------===//
    Legalizing operation : 'tt.splat'(0x555d5bebfac0) {
      %17 = "tt.splat"(%14) : (i32) -> tensor<32xi32, #triton_gpu.blocked<{sizePerThread = [1], threadsPerWarp = [32], warpsPerCTA = [4], order = [0]}>>

    } -> SUCCESS : operation marked legal by the target
    //===-------------------------------------------===//
  } -> SUCCESS : pattern applied successfully
// *** IR Dump After Pattern Application ***
tt.func public @addmm_kernel(%arg0: !tt.ptr<f16> {tt.divisibility = 16 : i32}, %arg1: !tt.ptr<f16> {tt.divisibility = 16 : i32}, %arg2: !tt.ptr<f16> {tt.divisibility = 16 : i32}, %arg3: !tt.ptr<f16> {tt.divisibility = 16 : i32}, %arg4: i32, %arg5: i32, %arg6: i32 {tt.divisibility = 16 : i32}, %arg7: i32 {tt.divisibility = 16 : i32}, %arg8: i32 {tt.divisibility = 16 : i32}, %arg9: i32 {tt.divisibility = 16 : i32}, %arg10: i32 {tt.divisibility = 16 : i32}, %arg11: i32 {tt.divisibility = 16 : i32}) attributes {noinline = false} {
  %c31_i32 = arith.constant 31 : i32
  %cst = arith.constant dense<0.000000e+00> : tensor<32xf16, #triton_gpu.blocked<{sizePerThread = [1], threadsPerWarp = [32], warpsPerCTA = [4], order = [0]}>>
  %cst_0 = arith.constant dense<0.000000e+00> : tensor<32xf16>
  %cst_1 = arith.constant dense<0.000000e+00> : tensor<32x32xf16, #triton_gpu.blocked<{sizePerThread = [1, 1], threadsPerWarp = [1, 32], warpsPerCTA = [4, 1], order = [1, 0]}>>
  %cst_2 = arith.constant dense<0.000000e+00> : tensor<32x32xf16>
  %c1_i32 = arith.constant 1 : i32
  %c0_i32 = arith.constant 0 : i32
  %cst_3 = arith.constant dense<32> : tensor<32x32xi32, #triton_gpu.blocked<{sizePerThread = [1, 1], threadsPerWarp = [1, 32], warpsPerCTA = [4, 1], order = [1, 0]}>>
  %cst_4 = arith.constant dense<32> : tensor<32x32xi32>
  %cst_5 = arith.constant dense<0.000000e+00> : tensor<32x32xf32, #triton_gpu.blocked<{sizePerThread = [1, 1], threadsPerWarp = [1, 32], warpsPerCTA = [4, 1], order = [1, 0]}>>
  %cst_6 = arith.constant dense<0.000000e+00> : tensor<32x32xf32>
  %c32_i32 = arith.constant 32 : i32
  %0 = tt.get_program_id x : i32
  %1 = tt.get_program_id y : i32
  %2 = arith.muli %0, %c32_i32 : i32
  %3 = tt.make_range {end = 32 : i32, start = 0 : i32} : tensor<32xi32, #triton_gpu.blocked<{sizePerThread = [1], threadsPerWarp = [32], warpsPerCTA = [4], order = [0]}>>
  %4 = tt.make_range {end = 32 : i32, start = 0 : i32} : tensor<32xi32>
  %5 = tt.splat %2 : i32 -> tensor<32xi32, #triton_gpu.blocked<{sizePerThread = [1], threadsPerWarp = [32], warpsPerCTA = [4], order = [0]}>>
  %6 = tt.splat %2 : i32 -> tensor<32xi32>
  %7 = arith.addi %6, %4 : tensor<32xi32>
  %8 = arith.muli %1, %c32_i32 : i32
  %9 = tt.splat %8 : i32 -> tensor<32xi32>
  %10 = arith.addi %9, %4 : tensor<32xi32>
  %11 = tt.expand_dims %7 {axis = 1 : i32} : tensor<32xi32> -> tensor<32x1xi32>
  %12 = tt.splat %arg9 : i32 -> tensor<32x1xi32>
  %13 = arith.muli %11, %12 : tensor<32x1xi32>
  %14 = tt.expand_dims %4 {axis = 0 : i32} : tensor<32xi32> -> tensor<1x32xi32>
  %15 = tt.broadcast %13 : tensor<32x1xi32> -> tensor<32x32xi32>
  %16 = tt.broadcast %14 : tensor<1x32xi32> -> tensor<32x32xi32>
  %17 = arith.addi %15, %16 : tensor<32x32xi32>
  %18 = tt.splat %arg0 : !tt.ptr<f16> -> tensor<32x32x!tt.ptr<f16>>
  %19 = tt.addptr %18, %17 : tensor<32x32x!tt.ptr<f16>>, tensor<32x32xi32>
  %20 = tt.expand_dims %4 {axis = 1 : i32} : tensor<32xi32> -> tensor<32x1xi32>
  %21 = tt.splat %arg10 : i32 -> tensor<32x1xi32>
  %22 = arith.muli %20, %21 : tensor<32x1xi32>
  %23 = tt.expand_dims %10 {axis = 0 : i32} : tensor<32xi32> -> tensor<1x32xi32>
  %24 = tt.broadcast %22 : tensor<32x1xi32> -> tensor<32x32xi32>
  %25 = tt.broadcast %23 : tensor<1x32xi32> -> tensor<32x32xi32>
  %26 = arith.addi %24, %25 : tensor<32x32xi32>
  %27 = tt.splat %arg1 : !tt.ptr<f16> -> tensor<32x32x!tt.ptr<f16>>
  %28 = tt.addptr %27, %26 : tensor<32x32x!tt.ptr<f16>>, tensor<32x32xi32>
  %29 = tt.splat %arg2 : !tt.ptr<f16> -> tensor<32x!tt.ptr<f16>>
  %30 = tt.addptr %29, %10 : tensor<32x!tt.ptr<f16>>, tensor<32xi32>
  %31 = arith.addi %arg8, %c31_i32 : i32
  %32 = arith.divsi %31, %c32_i32 : i32
  %33 = tt.splat %arg6 : i32 -> tensor<32x1xi32>
  %34 = arith.cmpi slt, %11, %33 : tensor<32x1xi32>
  %35 = tt.broadcast %34 : tensor<32x1xi1> -> tensor<32x32xi1>
  %36 = tt.splat %arg7 : i32 -> tensor<1x32xi32>
  %37 = arith.cmpi slt, %23, %36 : tensor<1x32xi32>
  %38 = tt.broadcast %37 : tensor<1x32xi1> -> tensor<32x32xi1>
  %39 = arith.muli %arg10, %c32_i32 : i32
  %40 = tt.splat %39 : i32 -> tensor<32x32xi32>
  %41:3 = scf.for %arg12 = %c0_i32 to %32 step %c1_i32 iter_args(%arg13 = %cst_6, %arg14 = %19, %arg15 = %28) -> (tensor<32x32xf32>, tensor<32x32x!tt.ptr<f16>>, tensor<32x32x!tt.ptr<f16>>)  : i32 {
    %69 = arith.muli %arg12, %c32_i32 : i32
    %70 = arith.subi %arg8, %69 : i32
    %71 = tt.splat %70 : i32 -> tensor<1x32xi32>
    %72 = arith.cmpi slt, %14, %71 : tensor<1x32xi32>
    %73 = tt.broadcast %72 : tensor<1x32xi1> -> tensor<32x32xi1>
    %74 = arith.andi %35, %73 : tensor<32x32xi1>
    %75 = tt.load %arg14, %74, %cst_2 : tensor<32x32x!tt.ptr<f16>>
    %76 = tt.splat %70 : i32 -> tensor<32x1xi32>
    %77 = arith.cmpi slt, %20, %76 : tensor<32x1xi32>
    %78 = tt.broadcast %77 : tensor<32x1xi1> -> tensor<32x32xi1>
    %79 = arith.andi %78, %38 : tensor<32x32xi1>
    %80 = tt.load %arg15, %79, %cst_2 : tensor<32x32x!tt.ptr<f16>>
    %81 = tt.dot %75, %80, %arg13 : tensor<32x32xf16> * tensor<32x32xf16> -> tensor<32x32xf32>
    %82 = tt.addptr %arg14, %cst_4 : tensor<32x32x!tt.ptr<f16>>, tensor<32x32xi32>
    %83 = tt.addptr %arg15, %40 : tensor<32x32x!tt.ptr<f16>>, tensor<32x32xi32>
    scf.yield %81, %82, %83 : tensor<32x32xf32>, tensor<32x32x!tt.ptr<f16>>, tensor<32x32x!tt.ptr<f16>>
  }
  %42 = tt.splat %arg7 : i32 -> tensor<32xi32>
  %43 = arith.cmpi slt, %10, %42 : tensor<32xi32>
  %44 = tt.load %30, %43, %cst_0 : tensor<32x!tt.ptr<f16>>
  %45 = arith.sitofp %arg4 : i32 to f32
  %46 = tt.splat %45 : f32 -> tensor<32x32xf32>
  %47 = arith.mulf %41#0, %46 : tensor<32x32xf32>
  %48 = arith.sitofp %arg5 : i32 to f16
  %49 = tt.splat %48 : f16 -> tensor<32xf16>
  %50 = arith.mulf %44, %49 : tensor<32xf16>
  %51 = tt.expand_dims %50 {axis = 0 : i32} : tensor<32xf16> -> tensor<1x32xf16>
  %52 = arith.extf %51 : tensor<1x32xf16> to tensor<1x32xf32>
  %53 = tt.broadcast %52 : tensor<1x32xf32> -> tensor<32x32xf32>
  %54 = arith.addf %47, %53 : tensor<32x32xf32>
  %55 = arith.truncf %54 : tensor<32x32xf32> to tensor<32x32xf16>
  %56 = tt.splat %arg11 : i32 -> tensor<32x1xi32>
  %57 = arith.muli %56, %11 : tensor<32x1xi32>
  %58 = tt.splat %arg3 : !tt.ptr<f16> -> tensor<32x1x!tt.ptr<f16>>
  %59 = tt.addptr %58, %57 : tensor<32x1x!tt.ptr<f16>>, tensor<32x1xi32>
  %60 = tt.broadcast %59 : tensor<32x1x!tt.ptr<f16>> -> tensor<32x32x!tt.ptr<f16>>
  %61 = tt.addptr %60, %25 : tensor<32x32x!tt.ptr<f16>>, tensor<32x32xi32>
  %62 = tt.splat %arg6 : i32 -> tensor<32x1xi32>
  %63 = arith.cmpi slt, %11, %62 : tensor<32x1xi32>
  %64 = tt.splat %arg7 : i32 -> tensor<1x32xi32>
  %65 = arith.cmpi slt, %23, %64 : tensor<1x32xi32>
  %66 = tt.broadcast %63 : tensor<32x1xi1> -> tensor<32x32xi1>
  %67 = tt.broadcast %65 : tensor<1x32xi1> -> tensor<32x32xi1>
  %68 = arith.andi %66, %67 : tensor<32x32xi1>
  tt.store %61, %55, %68 : tensor<32x32x!tt.ptr<f16>>
  tt.return
}


} -> SUCCESS
//===-------------------------------------------===//

//===-------------------------------------------===//
Legalizing operation : 'arith.addi'(0x555d5be8f0e0) {
  %19 = "arith.addi"(%18, %16) <{overflowFlags = #arith.overflow<none>}> : (tensor<32xi32>, tensor<32xi32>) -> tensor<32xi32>

  * Fold {
  } -> FAILURE : unable to fold

  * Pattern : 'arith.addi -> ()' {
Trying to match "{anonymous}::GenericOpPattern<mlir::arith::AddIOp>"
ImplicitTypeIDRegistry::lookupOrInsert(mlir::arith::detail::AddIOpGenericAdaptorBase::Properties)
    ** Insert  : 'arith.addi'(0x555d5be8dbd0)
    ** Replace : 'arith.addi'(0x555d5be8f0e0)
"{anonymous}::GenericOpPattern<mlir::arith::AddIOp>" result 1

    //===-------------------------------------------===//
    Legalizing operation : 'arith.addi'(0x555d5be8dbd0) {
      %19 = "arith.addi"(%17, %15) <{overflowFlags = #arith.overflow<none>}> : (tensor<32xi32, #triton_gpu.blocked<{sizePerThread = [1], threadsPerWarp = [32], warpsPerCTA = [4], order = [0]}>>, tensor<32xi32, #triton_gpu.blocked<{sizePerThread = [1], threadsPerWarp = [32], warpsPerCTA = [4], order = [0]}>>) -> tensor<32xi32, #triton_gpu.blocked<{sizePerThread = [1], threadsPerWarp = [32], warpsPerCTA = [4], order = [0]}>>

    } -> SUCCESS : operation marked legal by the target
    //===-------------------------------------------===//
  } -> SUCCESS : pattern applied successfully
// *** IR Dump After Pattern Application ***
tt.func public @addmm_kernel(%arg0: !tt.ptr<f16> {tt.divisibility = 16 : i32}, %arg1: !tt.ptr<f16> {tt.divisibility = 16 : i32}, %arg2: !tt.ptr<f16> {tt.divisibility = 16 : i32}, %arg3: !tt.ptr<f16> {tt.divisibility = 16 : i32}, %arg4: i32, %arg5: i32, %arg6: i32 {tt.divisibility = 16 : i32}, %arg7: i32 {tt.divisibility = 16 : i32}, %arg8: i32 {tt.divisibility = 16 : i32}, %arg9: i32 {tt.divisibility = 16 : i32}, %arg10: i32 {tt.divisibility = 16 : i32}, %arg11: i32 {tt.divisibility = 16 : i32}) attributes {noinline = false} {
  %c31_i32 = arith.constant 31 : i32
  %cst = arith.constant dense<0.000000e+00> : tensor<32xf16, #triton_gpu.blocked<{sizePerThread = [1], threadsPerWarp = [32], warpsPerCTA = [4], order = [0]}>>
  %cst_0 = arith.constant dense<0.000000e+00> : tensor<32xf16>
  %cst_1 = arith.constant dense<0.000000e+00> : tensor<32x32xf16, #triton_gpu.blocked<{sizePerThread = [1, 1], threadsPerWarp = [1, 32], warpsPerCTA = [4, 1], order = [1, 0]}>>
  %cst_2 = arith.constant dense<0.000000e+00> : tensor<32x32xf16>
  %c1_i32 = arith.constant 1 : i32
  %c0_i32 = arith.constant 0 : i32
  %cst_3 = arith.constant dense<32> : tensor<32x32xi32, #triton_gpu.blocked<{sizePerThread = [1, 1], threadsPerWarp = [1, 32], warpsPerCTA = [4, 1], order = [1, 0]}>>
  %cst_4 = arith.constant dense<32> : tensor<32x32xi32>
  %cst_5 = arith.constant dense<0.000000e+00> : tensor<32x32xf32, #triton_gpu.blocked<{sizePerThread = [1, 1], threadsPerWarp = [1, 32], warpsPerCTA = [4, 1], order = [1, 0]}>>
  %cst_6 = arith.constant dense<0.000000e+00> : tensor<32x32xf32>
  %c32_i32 = arith.constant 32 : i32
  %0 = tt.get_program_id x : i32
  %1 = tt.get_program_id y : i32
  %2 = arith.muli %0, %c32_i32 : i32
  %3 = tt.make_range {end = 32 : i32, start = 0 : i32} : tensor<32xi32, #triton_gpu.blocked<{sizePerThread = [1], threadsPerWarp = [32], warpsPerCTA = [4], order = [0]}>>
  %4 = tt.make_range {end = 32 : i32, start = 0 : i32} : tensor<32xi32>
  %5 = tt.splat %2 : i32 -> tensor<32xi32, #triton_gpu.blocked<{sizePerThread = [1], threadsPerWarp = [32], warpsPerCTA = [4], order = [0]}>>
  %6 = tt.splat %2 : i32 -> tensor<32xi32>
  %7 = arith.addi %5, %3 : tensor<32xi32, #triton_gpu.blocked<{sizePerThread = [1], threadsPerWarp = [32], warpsPerCTA = [4], order = [0]}>>
  %8 = arith.addi %6, %4 : tensor<32xi32>
  %9 = arith.muli %1, %c32_i32 : i32
  %10 = tt.splat %9 : i32 -> tensor<32xi32>
  %11 = arith.addi %10, %4 : tensor<32xi32>
  %12 = tt.expand_dims %8 {axis = 1 : i32} : tensor<32xi32> -> tensor<32x1xi32>
  %13 = tt.splat %arg9 : i32 -> tensor<32x1xi32>
  %14 = arith.muli %12, %13 : tensor<32x1xi32>
  %15 = tt.expand_dims %4 {axis = 0 : i32} : tensor<32xi32> -> tensor<1x32xi32>
  %16 = tt.broadcast %14 : tensor<32x1xi32> -> tensor<32x32xi32>
  %17 = tt.broadcast %15 : tensor<1x32xi32> -> tensor<32x32xi32>
  %18 = arith.addi %16, %17 : tensor<32x32xi32>
  %19 = tt.splat %arg0 : !tt.ptr<f16> -> tensor<32x32x!tt.ptr<f16>>
  %20 = tt.addptr %19, %18 : tensor<32x32x!tt.ptr<f16>>, tensor<32x32xi32>
  %21 = tt.expand_dims %4 {axis = 1 : i32} : tensor<32xi32> -> tensor<32x1xi32>
  %22 = tt.splat %arg10 : i32 -> tensor<32x1xi32>
  %23 = arith.muli %21, %22 : tensor<32x1xi32>
  %24 = tt.expand_dims %11 {axis = 0 : i32} : tensor<32xi32> -> tensor<1x32xi32>
  %25 = tt.broadcast %23 : tensor<32x1xi32> -> tensor<32x32xi32>
  %26 = tt.broadcast %24 : tensor<1x32xi32> -> tensor<32x32xi32>
  %27 = arith.addi %25, %26 : tensor<32x32xi32>
  %28 = tt.splat %arg1 : !tt.ptr<f16> -> tensor<32x32x!tt.ptr<f16>>
  %29 = tt.addptr %28, %27 : tensor<32x32x!tt.ptr<f16>>, tensor<32x32xi32>
  %30 = tt.splat %arg2 : !tt.ptr<f16> -> tensor<32x!tt.ptr<f16>>
  %31 = tt.addptr %30, %11 : tensor<32x!tt.ptr<f16>>, tensor<32xi32>
  %32 = arith.addi %arg8, %c31_i32 : i32
  %33 = arith.divsi %32, %c32_i32 : i32
  %34 = tt.splat %arg6 : i32 -> tensor<32x1xi32>
  %35 = arith.cmpi slt, %12, %34 : tensor<32x1xi32>
  %36 = tt.broadcast %35 : tensor<32x1xi1> -> tensor<32x32xi1>
  %37 = tt.splat %arg7 : i32 -> tensor<1x32xi32>
  %38 = arith.cmpi slt, %24, %37 : tensor<1x32xi32>
  %39 = tt.broadcast %38 : tensor<1x32xi1> -> tensor<32x32xi1>
  %40 = arith.muli %arg10, %c32_i32 : i32
  %41 = tt.splat %40 : i32 -> tensor<32x32xi32>
  %42:3 = scf.for %arg12 = %c0_i32 to %33 step %c1_i32 iter_args(%arg13 = %cst_6, %arg14 = %20, %arg15 = %29) -> (tensor<32x32xf32>, tensor<32x32x!tt.ptr<f16>>, tensor<32x32x!tt.ptr<f16>>)  : i32 {
    %70 = arith.muli %arg12, %c32_i32 : i32
    %71 = arith.subi %arg8, %70 : i32
    %72 = tt.splat %71 : i32 -> tensor<1x32xi32>
    %73 = arith.cmpi slt, %15, %72 : tensor<1x32xi32>
    %74 = tt.broadcast %73 : tensor<1x32xi1> -> tensor<32x32xi1>
    %75 = arith.andi %36, %74 : tensor<32x32xi1>
    %76 = tt.load %arg14, %75, %cst_2 : tensor<32x32x!tt.ptr<f16>>
    %77 = tt.splat %71 : i32 -> tensor<32x1xi32>
    %78 = arith.cmpi slt, %21, %77 : tensor<32x1xi32>
    %79 = tt.broadcast %78 : tensor<32x1xi1> -> tensor<32x32xi1>
    %80 = arith.andi %79, %39 : tensor<32x32xi1>
    %81 = tt.load %arg15, %80, %cst_2 : tensor<32x32x!tt.ptr<f16>>
    %82 = tt.dot %76, %81, %arg13 : tensor<32x32xf16> * tensor<32x32xf16> -> tensor<32x32xf32>
    %83 = tt.addptr %arg14, %cst_4 : tensor<32x32x!tt.ptr<f16>>, tensor<32x32xi32>
    %84 = tt.addptr %arg15, %41 : tensor<32x32x!tt.ptr<f16>>, tensor<32x32xi32>
    scf.yield %82, %83, %84 : tensor<32x32xf32>, tensor<32x32x!tt.ptr<f16>>, tensor<32x32x!tt.ptr<f16>>
  }
  %43 = tt.splat %arg7 : i32 -> tensor<32xi32>
  %44 = arith.cmpi slt, %11, %43 : tensor<32xi32>
  %45 = tt.load %31, %44, %cst_0 : tensor<32x!tt.ptr<f16>>
  %46 = arith.sitofp %arg4 : i32 to f32
  %47 = tt.splat %46 : f32 -> tensor<32x32xf32>
  %48 = arith.mulf %42#0, %47 : tensor<32x32xf32>
  %49 = arith.sitofp %arg5 : i32 to f16
  %50 = tt.splat %49 : f16 -> tensor<32xf16>
  %51 = arith.mulf %45, %50 : tensor<32xf16>
  %52 = tt.expand_dims %51 {axis = 0 : i32} : tensor<32xf16> -> tensor<1x32xf16>
  %53 = arith.extf %52 : tensor<1x32xf16> to tensor<1x32xf32>
  %54 = tt.broadcast %53 : tensor<1x32xf32> -> tensor<32x32xf32>
  %55 = arith.addf %48, %54 : tensor<32x32xf32>
  %56 = arith.truncf %55 : tensor<32x32xf32> to tensor<32x32xf16>
  %57 = tt.splat %arg11 : i32 -> tensor<32x1xi32>
  %58 = arith.muli %57, %12 : tensor<32x1xi32>
  %59 = tt.splat %arg3 : !tt.ptr<f16> -> tensor<32x1x!tt.ptr<f16>>
  %60 = tt.addptr %59, %58 : tensor<32x1x!tt.ptr<f16>>, tensor<32x1xi32>
  %61 = tt.broadcast %60 : tensor<32x1x!tt.ptr<f16>> -> tensor<32x32x!tt.ptr<f16>>
  %62 = tt.addptr %61, %26 : tensor<32x32x!tt.ptr<f16>>, tensor<32x32xi32>
  %63 = tt.splat %arg6 : i32 -> tensor<32x1xi32>
  %64 = arith.cmpi slt, %12, %63 : tensor<32x1xi32>
  %65 = tt.splat %arg7 : i32 -> tensor<1x32xi32>
  %66 = arith.cmpi slt, %24, %65 : tensor<1x32xi32>
  %67 = tt.broadcast %64 : tensor<32x1xi1> -> tensor<32x32xi1>
  %68 = tt.broadcast %66 : tensor<1x32xi1> -> tensor<32x32xi1>
  %69 = arith.andi %67, %68 : tensor<32x32xi1>
  tt.store %62, %56, %69 : tensor<32x32x!tt.ptr<f16>>
  tt.return
}


} -> SUCCESS
//===-------------------------------------------===//

//===-------------------------------------------===//
Legalizing operation : 'arith.muli'(0x555d5be8f260) {
  %21 = "arith.muli"(%13, %11) <{overflowFlags = #arith.overflow<none>}> : (i32, i32) -> i32

} -> SUCCESS : operation marked legal by the target
//===-------------------------------------------===//

//===-------------------------------------------===//
Legalizing operation : 'tt.splat'(0x555d5be8f370) {
  %22 = "tt.splat"(%21) : (i32) -> tensor<32xi32>

  * Fold {
  } -> FAILURE : unable to fold

  * Pattern : 'tt.splat -> ()' {
Trying to match "{anonymous}::GenericOpPattern<mlir::triton::SplatOp>"
    ** Insert  : 'tt.splat'(0x555d5becc130)
    ** Replace : 'tt.splat'(0x555d5be8f370)
"{anonymous}::GenericOpPattern<mlir::triton::SplatOp>" result 1

    //===-------------------------------------------===//
    Legalizing operation : 'tt.splat'(0x555d5becc130) {
      %22 = "tt.splat"(%21) : (i32) -> tensor<32xi32, #triton_gpu.blocked<{sizePerThread = [1], threadsPerWarp = [32], warpsPerCTA = [4], order = [0]}>>

    } -> SUCCESS : operation marked legal by the target
    //===-------------------------------------------===//
  } -> SUCCESS : pattern applied successfully
// *** IR Dump After Pattern Application ***
tt.func public @addmm_kernel(%arg0: !tt.ptr<f16> {tt.divisibility = 16 : i32}, %arg1: !tt.ptr<f16> {tt.divisibility = 16 : i32}, %arg2: !tt.ptr<f16> {tt.divisibility = 16 : i32}, %arg3: !tt.ptr<f16> {tt.divisibility = 16 : i32}, %arg4: i32, %arg5: i32, %arg6: i32 {tt.divisibility = 16 : i32}, %arg7: i32 {tt.divisibility = 16 : i32}, %arg8: i32 {tt.divisibility = 16 : i32}, %arg9: i32 {tt.divisibility = 16 : i32}, %arg10: i32 {tt.divisibility = 16 : i32}, %arg11: i32 {tt.divisibility = 16 : i32}) attributes {noinline = false} {
  %c31_i32 = arith.constant 31 : i32
  %cst = arith.constant dense<0.000000e+00> : tensor<32xf16, #triton_gpu.blocked<{sizePerThread = [1], threadsPerWarp = [32], warpsPerCTA = [4], order = [0]}>>
  %cst_0 = arith.constant dense<0.000000e+00> : tensor<32xf16>
  %cst_1 = arith.constant dense<0.000000e+00> : tensor<32x32xf16, #triton_gpu.blocked<{sizePerThread = [1, 1], threadsPerWarp = [1, 32], warpsPerCTA = [4, 1], order = [1, 0]}>>
  %cst_2 = arith.constant dense<0.000000e+00> : tensor<32x32xf16>
  %c1_i32 = arith.constant 1 : i32
  %c0_i32 = arith.constant 0 : i32
  %cst_3 = arith.constant dense<32> : tensor<32x32xi32, #triton_gpu.blocked<{sizePerThread = [1, 1], threadsPerWarp = [1, 32], warpsPerCTA = [4, 1], order = [1, 0]}>>
  %cst_4 = arith.constant dense<32> : tensor<32x32xi32>
  %cst_5 = arith.constant dense<0.000000e+00> : tensor<32x32xf32, #triton_gpu.blocked<{sizePerThread = [1, 1], threadsPerWarp = [1, 32], warpsPerCTA = [4, 1], order = [1, 0]}>>
  %cst_6 = arith.constant dense<0.000000e+00> : tensor<32x32xf32>
  %c32_i32 = arith.constant 32 : i32
  %0 = tt.get_program_id x : i32
  %1 = tt.get_program_id y : i32
  %2 = arith.muli %0, %c32_i32 : i32
  %3 = tt.make_range {end = 32 : i32, start = 0 : i32} : tensor<32xi32, #triton_gpu.blocked<{sizePerThread = [1], threadsPerWarp = [32], warpsPerCTA = [4], order = [0]}>>
  %4 = tt.make_range {end = 32 : i32, start = 0 : i32} : tensor<32xi32>
  %5 = tt.splat %2 : i32 -> tensor<32xi32, #triton_gpu.blocked<{sizePerThread = [1], threadsPerWarp = [32], warpsPerCTA = [4], order = [0]}>>
  %6 = tt.splat %2 : i32 -> tensor<32xi32>
  %7 = arith.addi %5, %3 : tensor<32xi32, #triton_gpu.blocked<{sizePerThread = [1], threadsPerWarp = [32], warpsPerCTA = [4], order = [0]}>>
  %8 = arith.addi %6, %4 : tensor<32xi32>
  %9 = arith.muli %1, %c32_i32 : i32
  %10 = tt.splat %9 : i32 -> tensor<32xi32, #triton_gpu.blocked<{sizePerThread = [1], threadsPerWarp = [32], warpsPerCTA = [4], order = [0]}>>
  %11 = tt.splat %9 : i32 -> tensor<32xi32>
  %12 = arith.addi %11, %4 : tensor<32xi32>
  %13 = tt.expand_dims %8 {axis = 1 : i32} : tensor<32xi32> -> tensor<32x1xi32>
  %14 = tt.splat %arg9 : i32 -> tensor<32x1xi32>
  %15 = arith.muli %13, %14 : tensor<32x1xi32>
  %16 = tt.expand_dims %4 {axis = 0 : i32} : tensor<32xi32> -> tensor<1x32xi32>
  %17 = tt.broadcast %15 : tensor<32x1xi32> -> tensor<32x32xi32>
  %18 = tt.broadcast %16 : tensor<1x32xi32> -> tensor<32x32xi32>
  %19 = arith.addi %17, %18 : tensor<32x32xi32>
  %20 = tt.splat %arg0 : !tt.ptr<f16> -> tensor<32x32x!tt.ptr<f16>>
  %21 = tt.addptr %20, %19 : tensor<32x32x!tt.ptr<f16>>, tensor<32x32xi32>
  %22 = tt.expand_dims %4 {axis = 1 : i32} : tensor<32xi32> -> tensor<32x1xi32>
  %23 = tt.splat %arg10 : i32 -> tensor<32x1xi32>
  %24 = arith.muli %22, %23 : tensor<32x1xi32>
  %25 = tt.expand_dims %12 {axis = 0 : i32} : tensor<32xi32> -> tensor<1x32xi32>
  %26 = tt.broadcast %24 : tensor<32x1xi32> -> tensor<32x32xi32>
  %27 = tt.broadcast %25 : tensor<1x32xi32> -> tensor<32x32xi32>
  %28 = arith.addi %26, %27 : tensor<32x32xi32>
  %29 = tt.splat %arg1 : !tt.ptr<f16> -> tensor<32x32x!tt.ptr<f16>>
  %30 = tt.addptr %29, %28 : tensor<32x32x!tt.ptr<f16>>, tensor<32x32xi32>
  %31 = tt.splat %arg2 : !tt.ptr<f16> -> tensor<32x!tt.ptr<f16>>
  %32 = tt.addptr %31, %12 : tensor<32x!tt.ptr<f16>>, tensor<32xi32>
  %33 = arith.addi %arg8, %c31_i32 : i32
  %34 = arith.divsi %33, %c32_i32 : i32
  %35 = tt.splat %arg6 : i32 -> tensor<32x1xi32>
  %36 = arith.cmpi slt, %13, %35 : tensor<32x1xi32>
  %37 = tt.broadcast %36 : tensor<32x1xi1> -> tensor<32x32xi1>
  %38 = tt.splat %arg7 : i32 -> tensor<1x32xi32>
  %39 = arith.cmpi slt, %25, %38 : tensor<1x32xi32>
  %40 = tt.broadcast %39 : tensor<1x32xi1> -> tensor<32x32xi1>
  %41 = arith.muli %arg10, %c32_i32 : i32
  %42 = tt.splat %41 : i32 -> tensor<32x32xi32>
  %43:3 = scf.for %arg12 = %c0_i32 to %34 step %c1_i32 iter_args(%arg13 = %cst_6, %arg14 = %21, %arg15 = %30) -> (tensor<32x32xf32>, tensor<32x32x!tt.ptr<f16>>, tensor<32x32x!tt.ptr<f16>>)  : i32 {
    %71 = arith.muli %arg12, %c32_i32 : i32
    %72 = arith.subi %arg8, %71 : i32
    %73 = tt.splat %72 : i32 -> tensor<1x32xi32>
    %74 = arith.cmpi slt, %16, %73 : tensor<1x32xi32>
    %75 = tt.broadcast %74 : tensor<1x32xi1> -> tensor<32x32xi1>
    %76 = arith.andi %37, %75 : tensor<32x32xi1>
    %77 = tt.load %arg14, %76, %cst_2 : tensor<32x32x!tt.ptr<f16>>
    %78 = tt.splat %72 : i32 -> tensor<32x1xi32>
    %79 = arith.cmpi slt, %22, %78 : tensor<32x1xi32>
    %80 = tt.broadcast %79 : tensor<32x1xi1> -> tensor<32x32xi1>
    %81 = arith.andi %80, %40 : tensor<32x32xi1>
    %82 = tt.load %arg15, %81, %cst_2 : tensor<32x32x!tt.ptr<f16>>
    %83 = tt.dot %77, %82, %arg13 : tensor<32x32xf16> * tensor<32x32xf16> -> tensor<32x32xf32>
    %84 = tt.addptr %arg14, %cst_4 : tensor<32x32x!tt.ptr<f16>>, tensor<32x32xi32>
    %85 = tt.addptr %arg15, %42 : tensor<32x32x!tt.ptr<f16>>, tensor<32x32xi32>
    scf.yield %83, %84, %85 : tensor<32x32xf32>, tensor<32x32x!tt.ptr<f16>>, tensor<32x32x!tt.ptr<f16>>
  }
  %44 = tt.splat %arg7 : i32 -> tensor<32xi32>
  %45 = arith.cmpi slt, %12, %44 : tensor<32xi32>
  %46 = tt.load %32, %45, %cst_0 : tensor<32x!tt.ptr<f16>>
  %47 = arith.sitofp %arg4 : i32 to f32
  %48 = tt.splat %47 : f32 -> tensor<32x32xf32>
  %49 = arith.mulf %43#0, %48 : tensor<32x32xf32>
  %50 = arith.sitofp %arg5 : i32 to f16
  %51 = tt.splat %50 : f16 -> tensor<32xf16>
  %52 = arith.mulf %46, %51 : tensor<32xf16>
  %53 = tt.expand_dims %52 {axis = 0 : i32} : tensor<32xf16> -> tensor<1x32xf16>
  %54 = arith.extf %53 : tensor<1x32xf16> to tensor<1x32xf32>
  %55 = tt.broadcast %54 : tensor<1x32xf32> -> tensor<32x32xf32>
  %56 = arith.addf %49, %55 : tensor<32x32xf32>
  %57 = arith.truncf %56 : tensor<32x32xf32> to tensor<32x32xf16>
  %58 = tt.splat %arg11 : i32 -> tensor<32x1xi32>
  %59 = arith.muli %58, %13 : tensor<32x1xi32>
  %60 = tt.splat %arg3 : !tt.ptr<f16> -> tensor<32x1x!tt.ptr<f16>>
  %61 = tt.addptr %60, %59 : tensor<32x1x!tt.ptr<f16>>, tensor<32x1xi32>
  %62 = tt.broadcast %61 : tensor<32x1x!tt.ptr<f16>> -> tensor<32x32x!tt.ptr<f16>>
  %63 = tt.addptr %62, %27 : tensor<32x32x!tt.ptr<f16>>, tensor<32x32xi32>
  %64 = tt.splat %arg6 : i32 -> tensor<32x1xi32>
  %65 = arith.cmpi slt, %13, %64 : tensor<32x1xi32>
  %66 = tt.splat %arg7 : i32 -> tensor<1x32xi32>
  %67 = arith.cmpi slt, %25, %66 : tensor<1x32xi32>
  %68 = tt.broadcast %65 : tensor<32x1xi1> -> tensor<32x32xi1>
  %69 = tt.broadcast %67 : tensor<1x32xi1> -> tensor<32x32xi1>
  %70 = arith.andi %68, %69 : tensor<32x32xi1>
  tt.store %63, %57, %70 : tensor<32x32x!tt.ptr<f16>>
  tt.return
}


} -> SUCCESS
//===-------------------------------------------===//

//===-------------------------------------------===//
Legalizing operation : 'arith.addi'(0x555d5be975c0) {
  %24 = "arith.addi"(%23, %16) <{overflowFlags = #arith.overflow<none>}> : (tensor<32xi32>, tensor<32xi32>) -> tensor<32xi32>

  * Fold {
  } -> FAILURE : unable to fold

  * Pattern : 'arith.addi -> ()' {
Trying to match "{anonymous}::GenericOpPattern<mlir::arith::AddIOp>"
    ** Insert  : 'arith.addi'(0x555d5be8dc80)
    ** Replace : 'arith.addi'(0x555d5be975c0)
"{anonymous}::GenericOpPattern<mlir::arith::AddIOp>" result 1

    //===-------------------------------------------===//
    Legalizing operation : 'arith.addi'(0x555d5be8dc80) {
      %24 = "arith.addi"(%22, %15) <{overflowFlags = #arith.overflow<none>}> : (tensor<32xi32, #triton_gpu.blocked<{sizePerThread = [1], threadsPerWarp = [32], warpsPerCTA = [4], order = [0]}>>, tensor<32xi32, #triton_gpu.blocked<{sizePerThread = [1], threadsPerWarp = [32], warpsPerCTA = [4], order = [0]}>>) -> tensor<32xi32, #triton_gpu.blocked<{sizePerThread = [1], threadsPerWarp = [32], warpsPerCTA = [4], order = [0]}>>

    } -> SUCCESS : operation marked legal by the target
    //===-------------------------------------------===//
  } -> SUCCESS : pattern applied successfully
// *** IR Dump After Pattern Application ***
tt.func public @addmm_kernel(%arg0: !tt.ptr<f16> {tt.divisibility = 16 : i32}, %arg1: !tt.ptr<f16> {tt.divisibility = 16 : i32}, %arg2: !tt.ptr<f16> {tt.divisibility = 16 : i32}, %arg3: !tt.ptr<f16> {tt.divisibility = 16 : i32}, %arg4: i32, %arg5: i32, %arg6: i32 {tt.divisibility = 16 : i32}, %arg7: i32 {tt.divisibility = 16 : i32}, %arg8: i32 {tt.divisibility = 16 : i32}, %arg9: i32 {tt.divisibility = 16 : i32}, %arg10: i32 {tt.divisibility = 16 : i32}, %arg11: i32 {tt.divisibility = 16 : i32}) attributes {noinline = false} {
  %c31_i32 = arith.constant 31 : i32
  %cst = arith.constant dense<0.000000e+00> : tensor<32xf16, #triton_gpu.blocked<{sizePerThread = [1], threadsPerWarp = [32], warpsPerCTA = [4], order = [0]}>>
  %cst_0 = arith.constant dense<0.000000e+00> : tensor<32xf16>
  %cst_1 = arith.constant dense<0.000000e+00> : tensor<32x32xf16, #triton_gpu.blocked<{sizePerThread = [1, 1], threadsPerWarp = [1, 32], warpsPerCTA = [4, 1], order = [1, 0]}>>
  %cst_2 = arith.constant dense<0.000000e+00> : tensor<32x32xf16>
  %c1_i32 = arith.constant 1 : i32
  %c0_i32 = arith.constant 0 : i32
  %cst_3 = arith.constant dense<32> : tensor<32x32xi32, #triton_gpu.blocked<{sizePerThread = [1, 1], threadsPerWarp = [1, 32], warpsPerCTA = [4, 1], order = [1, 0]}>>
  %cst_4 = arith.constant dense<32> : tensor<32x32xi32>
  %cst_5 = arith.constant dense<0.000000e+00> : tensor<32x32xf32, #triton_gpu.blocked<{sizePerThread = [1, 1], threadsPerWarp = [1, 32], warpsPerCTA = [4, 1], order = [1, 0]}>>
  %cst_6 = arith.constant dense<0.000000e+00> : tensor<32x32xf32>
  %c32_i32 = arith.constant 32 : i32
  %0 = tt.get_program_id x : i32
  %1 = tt.get_program_id y : i32
  %2 = arith.muli %0, %c32_i32 : i32
  %3 = tt.make_range {end = 32 : i32, start = 0 : i32} : tensor<32xi32, #triton_gpu.blocked<{sizePerThread = [1], threadsPerWarp = [32], warpsPerCTA = [4], order = [0]}>>
  %4 = tt.make_range {end = 32 : i32, start = 0 : i32} : tensor<32xi32>
  %5 = tt.splat %2 : i32 -> tensor<32xi32, #triton_gpu.blocked<{sizePerThread = [1], threadsPerWarp = [32], warpsPerCTA = [4], order = [0]}>>
  %6 = tt.splat %2 : i32 -> tensor<32xi32>
  %7 = arith.addi %5, %3 : tensor<32xi32, #triton_gpu.blocked<{sizePerThread = [1], threadsPerWarp = [32], warpsPerCTA = [4], order = [0]}>>
  %8 = arith.addi %6, %4 : tensor<32xi32>
  %9 = arith.muli %1, %c32_i32 : i32
  %10 = tt.splat %9 : i32 -> tensor<32xi32, #triton_gpu.blocked<{sizePerThread = [1], threadsPerWarp = [32], warpsPerCTA = [4], order = [0]}>>
  %11 = tt.splat %9 : i32 -> tensor<32xi32>
  %12 = arith.addi %10, %3 : tensor<32xi32, #triton_gpu.blocked<{sizePerThread = [1], threadsPerWarp = [32], warpsPerCTA = [4], order = [0]}>>
  %13 = arith.addi %11, %4 : tensor<32xi32>
  %14 = tt.expand_dims %8 {axis = 1 : i32} : tensor<32xi32> -> tensor<32x1xi32>
  %15 = tt.splat %arg9 : i32 -> tensor<32x1xi32>
  %16 = arith.muli %14, %15 : tensor<32x1xi32>
  %17 = tt.expand_dims %4 {axis = 0 : i32} : tensor<32xi32> -> tensor<1x32xi32>
  %18 = tt.broadcast %16 : tensor<32x1xi32> -> tensor<32x32xi32>
  %19 = tt.broadcast %17 : tensor<1x32xi32> -> tensor<32x32xi32>
  %20 = arith.addi %18, %19 : tensor<32x32xi32>
  %21 = tt.splat %arg0 : !tt.ptr<f16> -> tensor<32x32x!tt.ptr<f16>>
  %22 = tt.addptr %21, %20 : tensor<32x32x!tt.ptr<f16>>, tensor<32x32xi32>
  %23 = tt.expand_dims %4 {axis = 1 : i32} : tensor<32xi32> -> tensor<32x1xi32>
  %24 = tt.splat %arg10 : i32 -> tensor<32x1xi32>
  %25 = arith.muli %23, %24 : tensor<32x1xi32>
  %26 = tt.expand_dims %13 {axis = 0 : i32} : tensor<32xi32> -> tensor<1x32xi32>
  %27 = tt.broadcast %25 : tensor<32x1xi32> -> tensor<32x32xi32>
  %28 = tt.broadcast %26 : tensor<1x32xi32> -> tensor<32x32xi32>
  %29 = arith.addi %27, %28 : tensor<32x32xi32>
  %30 = tt.splat %arg1 : !tt.ptr<f16> -> tensor<32x32x!tt.ptr<f16>>
  %31 = tt.addptr %30, %29 : tensor<32x32x!tt.ptr<f16>>, tensor<32x32xi32>
  %32 = tt.splat %arg2 : !tt.ptr<f16> -> tensor<32x!tt.ptr<f16>>
  %33 = tt.addptr %32, %13 : tensor<32x!tt.ptr<f16>>, tensor<32xi32>
  %34 = arith.addi %arg8, %c31_i32 : i32
  %35 = arith.divsi %34, %c32_i32 : i32
  %36 = tt.splat %arg6 : i32 -> tensor<32x1xi32>
  %37 = arith.cmpi slt, %14, %36 : tensor<32x1xi32>
  %38 = tt.broadcast %37 : tensor<32x1xi1> -> tensor<32x32xi1>
  %39 = tt.splat %arg7 : i32 -> tensor<1x32xi32>
  %40 = arith.cmpi slt, %26, %39 : tensor<1x32xi32>
  %41 = tt.broadcast %40 : tensor<1x32xi1> -> tensor<32x32xi1>
  %42 = arith.muli %arg10, %c32_i32 : i32
  %43 = tt.splat %42 : i32 -> tensor<32x32xi32>
  %44:3 = scf.for %arg12 = %c0_i32 to %35 step %c1_i32 iter_args(%arg13 = %cst_6, %arg14 = %22, %arg15 = %31) -> (tensor<32x32xf32>, tensor<32x32x!tt.ptr<f16>>, tensor<32x32x!tt.ptr<f16>>)  : i32 {
    %72 = arith.muli %arg12, %c32_i32 : i32
    %73 = arith.subi %arg8, %72 : i32
    %74 = tt.splat %73 : i32 -> tensor<1x32xi32>
    %75 = arith.cmpi slt, %17, %74 : tensor<1x32xi32>
    %76 = tt.broadcast %75 : tensor<1x32xi1> -> tensor<32x32xi1>
    %77 = arith.andi %38, %76 : tensor<32x32xi1>
    %78 = tt.load %arg14, %77, %cst_2 : tensor<32x32x!tt.ptr<f16>>
    %79 = tt.splat %73 : i32 -> tensor<32x1xi32>
    %80 = arith.cmpi slt, %23, %79 : tensor<32x1xi32>
    %81 = tt.broadcast %80 : tensor<32x1xi1> -> tensor<32x32xi1>
    %82 = arith.andi %81, %41 : tensor<32x32xi1>
    %83 = tt.load %arg15, %82, %cst_2 : tensor<32x32x!tt.ptr<f16>>
    %84 = tt.dot %78, %83, %arg13 : tensor<32x32xf16> * tensor<32x32xf16> -> tensor<32x32xf32>
    %85 = tt.addptr %arg14, %cst_4 : tensor<32x32x!tt.ptr<f16>>, tensor<32x32xi32>
    %86 = tt.addptr %arg15, %43 : tensor<32x32x!tt.ptr<f16>>, tensor<32x32xi32>
    scf.yield %84, %85, %86 : tensor<32x32xf32>, tensor<32x32x!tt.ptr<f16>>, tensor<32x32x!tt.ptr<f16>>
  }
  %45 = tt.splat %arg7 : i32 -> tensor<32xi32>
  %46 = arith.cmpi slt, %13, %45 : tensor<32xi32>
  %47 = tt.load %33, %46, %cst_0 : tensor<32x!tt.ptr<f16>>
  %48 = arith.sitofp %arg4 : i32 to f32
  %49 = tt.splat %48 : f32 -> tensor<32x32xf32>
  %50 = arith.mulf %44#0, %49 : tensor<32x32xf32>
  %51 = arith.sitofp %arg5 : i32 to f16
  %52 = tt.splat %51 : f16 -> tensor<32xf16>
  %53 = arith.mulf %47, %52 : tensor<32xf16>
  %54 = tt.expand_dims %53 {axis = 0 : i32} : tensor<32xf16> -> tensor<1x32xf16>
  %55 = arith.extf %54 : tensor<1x32xf16> to tensor<1x32xf32>
  %56 = tt.broadcast %55 : tensor<1x32xf32> -> tensor<32x32xf32>
  %57 = arith.addf %50, %56 : tensor<32x32xf32>
  %58 = arith.truncf %57 : tensor<32x32xf32> to tensor<32x32xf16>
  %59 = tt.splat %arg11 : i32 -> tensor<32x1xi32>
  %60 = arith.muli %59, %14 : tensor<32x1xi32>
  %61 = tt.splat %arg3 : !tt.ptr<f16> -> tensor<32x1x!tt.ptr<f16>>
  %62 = tt.addptr %61, %60 : tensor<32x1x!tt.ptr<f16>>, tensor<32x1xi32>
  %63 = tt.broadcast %62 : tensor<32x1x!tt.ptr<f16>> -> tensor<32x32x!tt.ptr<f16>>
  %64 = tt.addptr %63, %28 : tensor<32x32x!tt.ptr<f16>>, tensor<32x32xi32>
  %65 = tt.splat %arg6 : i32 -> tensor<32x1xi32>
  %66 = arith.cmpi slt, %14, %65 : tensor<32x1xi32>
  %67 = tt.splat %arg7 : i32 -> tensor<1x32xi32>
  %68 = arith.cmpi slt, %26, %67 : tensor<1x32xi32>
  %69 = tt.broadcast %66 : tensor<32x1xi1> -> tensor<32x32xi1>
  %70 = tt.broadcast %68 : tensor<1x32xi1> -> tensor<32x32xi1>
  %71 = arith.andi %69, %70 : tensor<32x32xi1>
  tt.store %64, %58, %71 : tensor<32x32x!tt.ptr<f16>>
  tt.return
}


} -> SUCCESS
//===-------------------------------------------===//

//===-------------------------------------------===//
Legalizing operation : 'tt.expand_dims'(0x555d5be982e0) {
  %26 = "tt.expand_dims"(%20) <{axis = 1 : i32}> : (tensor<32xi32>) -> tensor<32x1xi32>

  * Fold {
  } -> FAILURE : unable to fold

  * Pattern : 'tt.expand_dims -> ()' {
Trying to match "{anonymous}::TritonExpandDimsPattern"
    ** Insert  : 'triton_gpu.convert_layout'(0x555d5bed20e0)
ImplicitTypeIDRegistry::lookupOrInsert(mlir::triton::detail::ExpandDimsOpGenericAdaptorBase::Properties)
    ** Insert  : 'tt.expand_dims'(0x555d5becc1f0)
    ** Replace : 'tt.expand_dims'(0x555d5be982e0)
"{anonymous}::TritonExpandDimsPattern" result 1

    //===-------------------------------------------===//
    Legalizing operation : 'triton_gpu.convert_layout'(0x555d5bed20e0) {
      %26 = "triton_gpu.convert_layout"(%19) : (tensor<32xi32, #triton_gpu.blocked<{sizePerThread = [1], threadsPerWarp = [32], warpsPerCTA = [4], order = [0]}>>) -> tensor<32xi32, #triton_gpu.slice<{dim = 1, parent = #triton_gpu.blocked<{sizePerThread = [1, 1], threadsPerWarp = [32, 1], warpsPerCTA = [4, 1], order = [0, 1]}>}>>

    } -> SUCCESS : operation marked legal by the target
    //===-------------------------------------------===//

    //===-------------------------------------------===//
    Legalizing operation : 'tt.expand_dims'(0x555d5becc1f0) {
      %27 = "tt.expand_dims"(%26) <{axis = 1 : i32}> : (tensor<32xi32, #triton_gpu.slice<{dim = 1, parent = #triton_gpu.blocked<{sizePerThread = [1, 1], threadsPerWarp = [32, 1], warpsPerCTA = [4, 1], order = [0, 1]}>}>>) -> tensor<32x1xi32, #triton_gpu.blocked<{sizePerThread = [1, 1], threadsPerWarp = [32, 1], warpsPerCTA = [4, 1], order = [0, 1]}>>

    } -> SUCCESS : operation marked legal by the target
    //===-------------------------------------------===//
  } -> SUCCESS : pattern applied successfully
// *** IR Dump After Pattern Application ***
tt.func public @addmm_kernel(%arg0: !tt.ptr<f16> {tt.divisibility = 16 : i32}, %arg1: !tt.ptr<f16> {tt.divisibility = 16 : i32}, %arg2: !tt.ptr<f16> {tt.divisibility = 16 : i32}, %arg3: !tt.ptr<f16> {tt.divisibility = 16 : i32}, %arg4: i32, %arg5: i32, %arg6: i32 {tt.divisibility = 16 : i32}, %arg7: i32 {tt.divisibility = 16 : i32}, %arg8: i32 {tt.divisibility = 16 : i32}, %arg9: i32 {tt.divisibility = 16 : i32}, %arg10: i32 {tt.divisibility = 16 : i32}, %arg11: i32 {tt.divisibility = 16 : i32}) attributes {noinline = false} {
  %c31_i32 = arith.constant 31 : i32
  %cst = arith.constant dense<0.000000e+00> : tensor<32xf16, #triton_gpu.blocked<{sizePerThread = [1], threadsPerWarp = [32], warpsPerCTA = [4], order = [0]}>>
  %cst_0 = arith.constant dense<0.000000e+00> : tensor<32xf16>
  %cst_1 = arith.constant dense<0.000000e+00> : tensor<32x32xf16, #triton_gpu.blocked<{sizePerThread = [1, 1], threadsPerWarp = [1, 32], warpsPerCTA = [4, 1], order = [1, 0]}>>
  %cst_2 = arith.constant dense<0.000000e+00> : tensor<32x32xf16>
  %c1_i32 = arith.constant 1 : i32
  %c0_i32 = arith.constant 0 : i32
  %cst_3 = arith.constant dense<32> : tensor<32x32xi32, #triton_gpu.blocked<{sizePerThread = [1, 1], threadsPerWarp = [1, 32], warpsPerCTA = [4, 1], order = [1, 0]}>>
  %cst_4 = arith.constant dense<32> : tensor<32x32xi32>
  %cst_5 = arith.constant dense<0.000000e+00> : tensor<32x32xf32, #triton_gpu.blocked<{sizePerThread = [1, 1], threadsPerWarp = [1, 32], warpsPerCTA = [4, 1], order = [1, 0]}>>
  %cst_6 = arith.constant dense<0.000000e+00> : tensor<32x32xf32>
  %c32_i32 = arith.constant 32 : i32
  %0 = tt.get_program_id x : i32
  %1 = tt.get_program_id y : i32
  %2 = arith.muli %0, %c32_i32 : i32
  %3 = tt.make_range {end = 32 : i32, start = 0 : i32} : tensor<32xi32, #triton_gpu.blocked<{sizePerThread = [1], threadsPerWarp = [32], warpsPerCTA = [4], order = [0]}>>
  %4 = tt.make_range {end = 32 : i32, start = 0 : i32} : tensor<32xi32>
  %5 = tt.splat %2 : i32 -> tensor<32xi32, #triton_gpu.blocked<{sizePerThread = [1], threadsPerWarp = [32], warpsPerCTA = [4], order = [0]}>>
  %6 = tt.splat %2 : i32 -> tensor<32xi32>
  %7 = arith.addi %5, %3 : tensor<32xi32, #triton_gpu.blocked<{sizePerThread = [1], threadsPerWarp = [32], warpsPerCTA = [4], order = [0]}>>
  %8 = arith.addi %6, %4 : tensor<32xi32>
  %9 = arith.muli %1, %c32_i32 : i32
  %10 = tt.splat %9 : i32 -> tensor<32xi32, #triton_gpu.blocked<{sizePerThread = [1], threadsPerWarp = [32], warpsPerCTA = [4], order = [0]}>>
  %11 = tt.splat %9 : i32 -> tensor<32xi32>
  %12 = arith.addi %10, %3 : tensor<32xi32, #triton_gpu.blocked<{sizePerThread = [1], threadsPerWarp = [32], warpsPerCTA = [4], order = [0]}>>
  %13 = arith.addi %11, %4 : tensor<32xi32>
  %14 = triton_gpu.convert_layout %7 : tensor<32xi32, #triton_gpu.blocked<{sizePerThread = [1], threadsPerWarp = [32], warpsPerCTA = [4], order = [0]}>> -> tensor<32xi32, #triton_gpu.slice<{dim = 1, parent = #triton_gpu.blocked<{sizePerThread = [1, 1], threadsPerWarp = [32, 1], warpsPerCTA = [4, 1], order = [0, 1]}>}>>
  %15 = tt.expand_dims %14 {axis = 1 : i32} : tensor<32xi32, #triton_gpu.slice<{dim = 1, parent = #triton_gpu.blocked<{sizePerThread = [1, 1], threadsPerWarp = [32, 1], warpsPerCTA = [4, 1], order = [0, 1]}>}>> -> tensor<32x1xi32, #triton_gpu.blocked<{sizePerThread = [1, 1], threadsPerWarp = [32, 1], warpsPerCTA = [4, 1], order = [0, 1]}>>
  %16 = tt.expand_dims %8 {axis = 1 : i32} : tensor<32xi32> -> tensor<32x1xi32>
  %17 = tt.splat %arg9 : i32 -> tensor<32x1xi32>
  %18 = arith.muli %16, %17 : tensor<32x1xi32>
  %19 = tt.expand_dims %4 {axis = 0 : i32} : tensor<32xi32> -> tensor<1x32xi32>
  %20 = tt.broadcast %18 : tensor<32x1xi32> -> tensor<32x32xi32>
  %21 = tt.broadcast %19 : tensor<1x32xi32> -> tensor<32x32xi32>
  %22 = arith.addi %20, %21 : tensor<32x32xi32>
  %23 = tt.splat %arg0 : !tt.ptr<f16> -> tensor<32x32x!tt.ptr<f16>>
  %24 = tt.addptr %23, %22 : tensor<32x32x!tt.ptr<f16>>, tensor<32x32xi32>
  %25 = tt.expand_dims %4 {axis = 1 : i32} : tensor<32xi32> -> tensor<32x1xi32>
  %26 = tt.splat %arg10 : i32 -> tensor<32x1xi32>
  %27 = arith.muli %25, %26 : tensor<32x1xi32>
  %28 = tt.expand_dims %13 {axis = 0 : i32} : tensor<32xi32> -> tensor<1x32xi32>
  %29 = tt.broadcast %27 : tensor<32x1xi32> -> tensor<32x32xi32>
  %30 = tt.broadcast %28 : tensor<1x32xi32> -> tensor<32x32xi32>
  %31 = arith.addi %29, %30 : tensor<32x32xi32>
  %32 = tt.splat %arg1 : !tt.ptr<f16> -> tensor<32x32x!tt.ptr<f16>>
  %33 = tt.addptr %32, %31 : tensor<32x32x!tt.ptr<f16>>, tensor<32x32xi32>
  %34 = tt.splat %arg2 : !tt.ptr<f16> -> tensor<32x!tt.ptr<f16>>
  %35 = tt.addptr %34, %13 : tensor<32x!tt.ptr<f16>>, tensor<32xi32>
  %36 = arith.addi %arg8, %c31_i32 : i32
  %37 = arith.divsi %36, %c32_i32 : i32
  %38 = tt.splat %arg6 : i32 -> tensor<32x1xi32>
  %39 = arith.cmpi slt, %16, %38 : tensor<32x1xi32>
  %40 = tt.broadcast %39 : tensor<32x1xi1> -> tensor<32x32xi1>
  %41 = tt.splat %arg7 : i32 -> tensor<1x32xi32>
  %42 = arith.cmpi slt, %28, %41 : tensor<1x32xi32>
  %43 = tt.broadcast %42 : tensor<1x32xi1> -> tensor<32x32xi1>
  %44 = arith.muli %arg10, %c32_i32 : i32
  %45 = tt.splat %44 : i32 -> tensor<32x32xi32>
  %46:3 = scf.for %arg12 = %c0_i32 to %37 step %c1_i32 iter_args(%arg13 = %cst_6, %arg14 = %24, %arg15 = %33) -> (tensor<32x32xf32>, tensor<32x32x!tt.ptr<f16>>, tensor<32x32x!tt.ptr<f16>>)  : i32 {
    %74 = arith.muli %arg12, %c32_i32 : i32
    %75 = arith.subi %arg8, %74 : i32
    %76 = tt.splat %75 : i32 -> tensor<1x32xi32>
    %77 = arith.cmpi slt, %19, %76 : tensor<1x32xi32>
    %78 = tt.broadcast %77 : tensor<1x32xi1> -> tensor<32x32xi1>
    %79 = arith.andi %40, %78 : tensor<32x32xi1>
    %80 = tt.load %arg14, %79, %cst_2 : tensor<32x32x!tt.ptr<f16>>
    %81 = tt.splat %75 : i32 -> tensor<32x1xi32>
    %82 = arith.cmpi slt, %25, %81 : tensor<32x1xi32>
    %83 = tt.broadcast %82 : tensor<32x1xi1> -> tensor<32x32xi1>
    %84 = arith.andi %83, %43 : tensor<32x32xi1>
    %85 = tt.load %arg15, %84, %cst_2 : tensor<32x32x!tt.ptr<f16>>
    %86 = tt.dot %80, %85, %arg13 : tensor<32x32xf16> * tensor<32x32xf16> -> tensor<32x32xf32>
    %87 = tt.addptr %arg14, %cst_4 : tensor<32x32x!tt.ptr<f16>>, tensor<32x32xi32>
    %88 = tt.addptr %arg15, %45 : tensor<32x32x!tt.ptr<f16>>, tensor<32x32xi32>
    scf.yield %86, %87, %88 : tensor<32x32xf32>, tensor<32x32x!tt.ptr<f16>>, tensor<32x32x!tt.ptr<f16>>
  }
  %47 = tt.splat %arg7 : i32 -> tensor<32xi32>
  %48 = arith.cmpi slt, %13, %47 : tensor<32xi32>
  %49 = tt.load %35, %48, %cst_0 : tensor<32x!tt.ptr<f16>>
  %50 = arith.sitofp %arg4 : i32 to f32
  %51 = tt.splat %50 : f32 -> tensor<32x32xf32>
  %52 = arith.mulf %46#0, %51 : tensor<32x32xf32>
  %53 = arith.sitofp %arg5 : i32 to f16
  %54 = tt.splat %53 : f16 -> tensor<32xf16>
  %55 = arith.mulf %49, %54 : tensor<32xf16>
  %56 = tt.expand_dims %55 {axis = 0 : i32} : tensor<32xf16> -> tensor<1x32xf16>
  %57 = arith.extf %56 : tensor<1x32xf16> to tensor<1x32xf32>
  %58 = tt.broadcast %57 : tensor<1x32xf32> -> tensor<32x32xf32>
  %59 = arith.addf %52, %58 : tensor<32x32xf32>
  %60 = arith.truncf %59 : tensor<32x32xf32> to tensor<32x32xf16>
  %61 = tt.splat %arg11 : i32 -> tensor<32x1xi32>
  %62 = arith.muli %61, %16 : tensor<32x1xi32>
  %63 = tt.splat %arg3 : !tt.ptr<f16> -> tensor<32x1x!tt.ptr<f16>>
  %64 = tt.addptr %63, %62 : tensor<32x1x!tt.ptr<f16>>, tensor<32x1xi32>
  %65 = tt.broadcast %64 : tensor<32x1x!tt.ptr<f16>> -> tensor<32x32x!tt.ptr<f16>>
  %66 = tt.addptr %65, %30 : tensor<32x32x!tt.ptr<f16>>, tensor<32x32xi32>
  %67 = tt.splat %arg6 : i32 -> tensor<32x1xi32>
  %68 = arith.cmpi slt, %16, %67 : tensor<32x1xi32>
  %69 = tt.splat %arg7 : i32 -> tensor<1x32xi32>
  %70 = arith.cmpi slt, %28, %69 : tensor<1x32xi32>
  %71 = tt.broadcast %68 : tensor<32x1xi1> -> tensor<32x32xi1>
  %72 = tt.broadcast %70 : tensor<1x32xi1> -> tensor<32x32xi1>
  %73 = arith.andi %71, %72 : tensor<32x32xi1>
  tt.store %66, %60, %73 : tensor<32x32x!tt.ptr<f16>>
  tt.return
}


} -> SUCCESS
//===-------------------------------------------===//

//===-------------------------------------------===//
Legalizing operation : 'tt.splat'(0x555d5be983d0) {
  %29 = "tt.splat"(%arg9) : (i32) -> tensor<32x1xi32>

  * Fold {
  } -> FAILURE : unable to fold

  * Pattern : 'tt.splat -> ()' {
Trying to match "{anonymous}::GenericOpPattern<mlir::triton::SplatOp>"
    ** Insert  : 'tt.splat'(0x555d5bed2680)
    ** Replace : 'tt.splat'(0x555d5be983d0)
"{anonymous}::GenericOpPattern<mlir::triton::SplatOp>" result 1

    //===-------------------------------------------===//
    Legalizing operation : 'tt.splat'(0x555d5bed2680) {
      %29 = "tt.splat"(%arg9) : (i32) -> tensor<32x1xi32, #triton_gpu.blocked<{sizePerThread = [1, 1], threadsPerWarp = [32, 1], warpsPerCTA = [4, 1], order = [1, 0]}>>

    } -> SUCCESS : operation marked legal by the target
    //===-------------------------------------------===//
  } -> SUCCESS : pattern applied successfully
// *** IR Dump After Pattern Application ***
tt.func public @addmm_kernel(%arg0: !tt.ptr<f16> {tt.divisibility = 16 : i32}, %arg1: !tt.ptr<f16> {tt.divisibility = 16 : i32}, %arg2: !tt.ptr<f16> {tt.divisibility = 16 : i32}, %arg3: !tt.ptr<f16> {tt.divisibility = 16 : i32}, %arg4: i32, %arg5: i32, %arg6: i32 {tt.divisibility = 16 : i32}, %arg7: i32 {tt.divisibility = 16 : i32}, %arg8: i32 {tt.divisibility = 16 : i32}, %arg9: i32 {tt.divisibility = 16 : i32}, %arg10: i32 {tt.divisibility = 16 : i32}, %arg11: i32 {tt.divisibility = 16 : i32}) attributes {noinline = false} {
  %c31_i32 = arith.constant 31 : i32
  %cst = arith.constant dense<0.000000e+00> : tensor<32xf16, #triton_gpu.blocked<{sizePerThread = [1], threadsPerWarp = [32], warpsPerCTA = [4], order = [0]}>>
  %cst_0 = arith.constant dense<0.000000e+00> : tensor<32xf16>
  %cst_1 = arith.constant dense<0.000000e+00> : tensor<32x32xf16, #triton_gpu.blocked<{sizePerThread = [1, 1], threadsPerWarp = [1, 32], warpsPerCTA = [4, 1], order = [1, 0]}>>
  %cst_2 = arith.constant dense<0.000000e+00> : tensor<32x32xf16>
  %c1_i32 = arith.constant 1 : i32
  %c0_i32 = arith.constant 0 : i32
  %cst_3 = arith.constant dense<32> : tensor<32x32xi32, #triton_gpu.blocked<{sizePerThread = [1, 1], threadsPerWarp = [1, 32], warpsPerCTA = [4, 1], order = [1, 0]}>>
  %cst_4 = arith.constant dense<32> : tensor<32x32xi32>
  %cst_5 = arith.constant dense<0.000000e+00> : tensor<32x32xf32, #triton_gpu.blocked<{sizePerThread = [1, 1], threadsPerWarp = [1, 32], warpsPerCTA = [4, 1], order = [1, 0]}>>
  %cst_6 = arith.constant dense<0.000000e+00> : tensor<32x32xf32>
  %c32_i32 = arith.constant 32 : i32
  %0 = tt.get_program_id x : i32
  %1 = tt.get_program_id y : i32
  %2 = arith.muli %0, %c32_i32 : i32
  %3 = tt.make_range {end = 32 : i32, start = 0 : i32} : tensor<32xi32, #triton_gpu.blocked<{sizePerThread = [1], threadsPerWarp = [32], warpsPerCTA = [4], order = [0]}>>
  %4 = tt.make_range {end = 32 : i32, start = 0 : i32} : tensor<32xi32>
  %5 = tt.splat %2 : i32 -> tensor<32xi32, #triton_gpu.blocked<{sizePerThread = [1], threadsPerWarp = [32], warpsPerCTA = [4], order = [0]}>>
  %6 = tt.splat %2 : i32 -> tensor<32xi32>
  %7 = arith.addi %5, %3 : tensor<32xi32, #triton_gpu.blocked<{sizePerThread = [1], threadsPerWarp = [32], warpsPerCTA = [4], order = [0]}>>
  %8 = arith.addi %6, %4 : tensor<32xi32>
  %9 = arith.muli %1, %c32_i32 : i32
  %10 = tt.splat %9 : i32 -> tensor<32xi32, #triton_gpu.blocked<{sizePerThread = [1], threadsPerWarp = [32], warpsPerCTA = [4], order = [0]}>>
  %11 = tt.splat %9 : i32 -> tensor<32xi32>
  %12 = arith.addi %10, %3 : tensor<32xi32, #triton_gpu.blocked<{sizePerThread = [1], threadsPerWarp = [32], warpsPerCTA = [4], order = [0]}>>
  %13 = arith.addi %11, %4 : tensor<32xi32>
  %14 = triton_gpu.convert_layout %7 : tensor<32xi32, #triton_gpu.blocked<{sizePerThread = [1], threadsPerWarp = [32], warpsPerCTA = [4], order = [0]}>> -> tensor<32xi32, #triton_gpu.slice<{dim = 1, parent = #triton_gpu.blocked<{sizePerThread = [1, 1], threadsPerWarp = [32, 1], warpsPerCTA = [4, 1], order = [0, 1]}>}>>
  %15 = tt.expand_dims %14 {axis = 1 : i32} : tensor<32xi32, #triton_gpu.slice<{dim = 1, parent = #triton_gpu.blocked<{sizePerThread = [1, 1], threadsPerWarp = [32, 1], warpsPerCTA = [4, 1], order = [0, 1]}>}>> -> tensor<32x1xi32, #triton_gpu.blocked<{sizePerThread = [1, 1], threadsPerWarp = [32, 1], warpsPerCTA = [4, 1], order = [0, 1]}>>
  %16 = tt.expand_dims %8 {axis = 1 : i32} : tensor<32xi32> -> tensor<32x1xi32>
  %17 = tt.splat %arg9 : i32 -> tensor<32x1xi32, #triton_gpu.blocked<{sizePerThread = [1, 1], threadsPerWarp = [32, 1], warpsPerCTA = [4, 1], order = [1, 0]}>>
  %18 = tt.splat %arg9 : i32 -> tensor<32x1xi32>
  %19 = arith.muli %16, %18 : tensor<32x1xi32>
  %20 = tt.expand_dims %4 {axis = 0 : i32} : tensor<32xi32> -> tensor<1x32xi32>
  %21 = tt.broadcast %19 : tensor<32x1xi32> -> tensor<32x32xi32>
  %22 = tt.broadcast %20 : tensor<1x32xi32> -> tensor<32x32xi32>
  %23 = arith.addi %21, %22 : tensor<32x32xi32>
  %24 = tt.splat %arg0 : !tt.ptr<f16> -> tensor<32x32x!tt.ptr<f16>>
  %25 = tt.addptr %24, %23 : tensor<32x32x!tt.ptr<f16>>, tensor<32x32xi32>
  %26 = tt.expand_dims %4 {axis = 1 : i32} : tensor<32xi32> -> tensor<32x1xi32>
  %27 = tt.splat %arg10 : i32 -> tensor<32x1xi32>
  %28 = arith.muli %26, %27 : tensor<32x1xi32>
  %29 = tt.expand_dims %13 {axis = 0 : i32} : tensor<32xi32> -> tensor<1x32xi32>
  %30 = tt.broadcast %28 : tensor<32x1xi32> -> tensor<32x32xi32>
  %31 = tt.broadcast %29 : tensor<1x32xi32> -> tensor<32x32xi32>
  %32 = arith.addi %30, %31 : tensor<32x32xi32>
  %33 = tt.splat %arg1 : !tt.ptr<f16> -> tensor<32x32x!tt.ptr<f16>>
  %34 = tt.addptr %33, %32 : tensor<32x32x!tt.ptr<f16>>, tensor<32x32xi32>
  %35 = tt.splat %arg2 : !tt.ptr<f16> -> tensor<32x!tt.ptr<f16>>
  %36 = tt.addptr %35, %13 : tensor<32x!tt.ptr<f16>>, tensor<32xi32>
  %37 = arith.addi %arg8, %c31_i32 : i32
  %38 = arith.divsi %37, %c32_i32 : i32
  %39 = tt.splat %arg6 : i32 -> tensor<32x1xi32>
  %40 = arith.cmpi slt, %16, %39 : tensor<32x1xi32>
  %41 = tt.broadcast %40 : tensor<32x1xi1> -> tensor<32x32xi1>
  %42 = tt.splat %arg7 : i32 -> tensor<1x32xi32>
  %43 = arith.cmpi slt, %29, %42 : tensor<1x32xi32>
  %44 = tt.broadcast %43 : tensor<1x32xi1> -> tensor<32x32xi1>
  %45 = arith.muli %arg10, %c32_i32 : i32
  %46 = tt.splat %45 : i32 -> tensor<32x32xi32>
  %47:3 = scf.for %arg12 = %c0_i32 to %38 step %c1_i32 iter_args(%arg13 = %cst_6, %arg14 = %25, %arg15 = %34) -> (tensor<32x32xf32>, tensor<32x32x!tt.ptr<f16>>, tensor<32x32x!tt.ptr<f16>>)  : i32 {
    %75 = arith.muli %arg12, %c32_i32 : i32
    %76 = arith.subi %arg8, %75 : i32
    %77 = tt.splat %76 : i32 -> tensor<1x32xi32>
    %78 = arith.cmpi slt, %20, %77 : tensor<1x32xi32>
    %79 = tt.broadcast %78 : tensor<1x32xi1> -> tensor<32x32xi1>
    %80 = arith.andi %41, %79 : tensor<32x32xi1>
    %81 = tt.load %arg14, %80, %cst_2 : tensor<32x32x!tt.ptr<f16>>
    %82 = tt.splat %76 : i32 -> tensor<32x1xi32>
    %83 = arith.cmpi slt, %26, %82 : tensor<32x1xi32>
    %84 = tt.broadcast %83 : tensor<32x1xi1> -> tensor<32x32xi1>
    %85 = arith.andi %84, %44 : tensor<32x32xi1>
    %86 = tt.load %arg15, %85, %cst_2 : tensor<32x32x!tt.ptr<f16>>
    %87 = tt.dot %81, %86, %arg13 : tensor<32x32xf16> * tensor<32x32xf16> -> tensor<32x32xf32>
    %88 = tt.addptr %arg14, %cst_4 : tensor<32x32x!tt.ptr<f16>>, tensor<32x32xi32>
    %89 = tt.addptr %arg15, %46 : tensor<32x32x!tt.ptr<f16>>, tensor<32x32xi32>
    scf.yield %87, %88, %89 : tensor<32x32xf32>, tensor<32x32x!tt.ptr<f16>>, tensor<32x32x!tt.ptr<f16>>
  }
  %48 = tt.splat %arg7 : i32 -> tensor<32xi32>
  %49 = arith.cmpi slt, %13, %48 : tensor<32xi32>
  %50 = tt.load %36, %49, %cst_0 : tensor<32x!tt.ptr<f16>>
  %51 = arith.sitofp %arg4 : i32 to f32
  %52 = tt.splat %51 : f32 -> tensor<32x32xf32>
  %53 = arith.mulf %47#0, %52 : tensor<32x32xf32>
  %54 = arith.sitofp %arg5 : i32 to f16
  %55 = tt.splat %54 : f16 -> tensor<32xf16>
  %56 = arith.mulf %50, %55 : tensor<32xf16>
  %57 = tt.expand_dims %56 {axis = 0 : i32} : tensor<32xf16> -> tensor<1x32xf16>
  %58 = arith.extf %57 : tensor<1x32xf16> to tensor<1x32xf32>
  %59 = tt.broadcast %58 : tensor<1x32xf32> -> tensor<32x32xf32>
  %60 = arith.addf %53, %59 : tensor<32x32xf32>
  %61 = arith.truncf %60 : tensor<32x32xf32> to tensor<32x32xf16>
  %62 = tt.splat %arg11 : i32 -> tensor<32x1xi32>
  %63 = arith.muli %62, %16 : tensor<32x1xi32>
  %64 = tt.splat %arg3 : !tt.ptr<f16> -> tensor<32x1x!tt.ptr<f16>>
  %65 = tt.addptr %64, %63 : tensor<32x1x!tt.ptr<f16>>, tensor<32x1xi32>
  %66 = tt.broadcast %65 : tensor<32x1x!tt.ptr<f16>> -> tensor<32x32x!tt.ptr<f16>>
  %67 = tt.addptr %66, %31 : tensor<32x32x!tt.ptr<f16>>, tensor<32x32xi32>
  %68 = tt.splat %arg6 : i32 -> tensor<32x1xi32>
  %69 = arith.cmpi slt, %16, %68 : tensor<32x1xi32>
  %70 = tt.splat %arg7 : i32 -> tensor<1x32xi32>
  %71 = arith.cmpi slt, %29, %70 : tensor<1x32xi32>
  %72 = tt.broadcast %69 : tensor<32x1xi1> -> tensor<32x32xi1>
  %73 = tt.broadcast %71 : tensor<1x32xi1> -> tensor<32x32xi1>
  %74 = arith.andi %72, %73 : tensor<32x32xi1>
  tt.store %67, %61, %74 : tensor<32x32x!tt.ptr<f16>>
  tt.return
}


} -> SUCCESS
//===-------------------------------------------===//

//===-------------------------------------------===//
Legalizing operation : 'arith.muli'(0x555d5be984c0) {
  %31 = "arith.muli"(%28, %30) <{overflowFlags = #arith.overflow<none>}> : (tensor<32x1xi32>, tensor<32x1xi32>) -> tensor<32x1xi32>

  * Fold {
  } -> FAILURE : unable to fold

  * Pattern : 'arith.muli -> ()' {
Trying to match "{anonymous}::GenericOpPattern<mlir::arith::MulIOp>"
ImplicitTypeIDRegistry::lookupOrInsert(mlir::arith::detail::MulIOpGenericAdaptorBase::Properties)
    ** Insert  : 'arith.muli'(0x555d5bed6e40)
    ** Replace : 'arith.muli'(0x555d5be984c0)
"{anonymous}::GenericOpPattern<mlir::arith::MulIOp>" result 1

    //===-------------------------------------------===//
    Legalizing operation : 'arith.muli'(0x555d5bed6e40) {
      %32 = "arith.muli"(%28, %30) <{overflowFlags = #arith.overflow<none>}> : (tensor<32x1xi32, #triton_gpu.blocked<{sizePerThread = [1, 1], threadsPerWarp = [32, 1], warpsPerCTA = [4, 1], order = [1, 0]}>>, tensor<32x1xi32, #triton_gpu.blocked<{sizePerThread = [1, 1], threadsPerWarp = [32, 1], warpsPerCTA = [4, 1], order = [1, 0]}>>) -> tensor<32x1xi32, #triton_gpu.blocked<{sizePerThread = [1, 1], threadsPerWarp = [32, 1], warpsPerCTA = [4, 1], order = [1, 0]}>>

    } -> SUCCESS : operation marked legal by the target
    //===-------------------------------------------===//
  } -> SUCCESS : pattern applied successfully
// *** IR Dump After Pattern Application ***
tt.func public @addmm_kernel(%arg0: !tt.ptr<f16> {tt.divisibility = 16 : i32}, %arg1: !tt.ptr<f16> {tt.divisibility = 16 : i32}, %arg2: !tt.ptr<f16> {tt.divisibility = 16 : i32}, %arg3: !tt.ptr<f16> {tt.divisibility = 16 : i32}, %arg4: i32, %arg5: i32, %arg6: i32 {tt.divisibility = 16 : i32}, %arg7: i32 {tt.divisibility = 16 : i32}, %arg8: i32 {tt.divisibility = 16 : i32}, %arg9: i32 {tt.divisibility = 16 : i32}, %arg10: i32 {tt.divisibility = 16 : i32}, %arg11: i32 {tt.divisibility = 16 : i32}) attributes {noinline = false} {
  %c31_i32 = arith.constant 31 : i32
  %cst = arith.constant dense<0.000000e+00> : tensor<32xf16, #triton_gpu.blocked<{sizePerThread = [1], threadsPerWarp = [32], warpsPerCTA = [4], order = [0]}>>
  %cst_0 = arith.constant dense<0.000000e+00> : tensor<32xf16>
  %cst_1 = arith.constant dense<0.000000e+00> : tensor<32x32xf16, #triton_gpu.blocked<{sizePerThread = [1, 1], threadsPerWarp = [1, 32], warpsPerCTA = [4, 1], order = [1, 0]}>>
  %cst_2 = arith.constant dense<0.000000e+00> : tensor<32x32xf16>
  %c1_i32 = arith.constant 1 : i32
  %c0_i32 = arith.constant 0 : i32
  %cst_3 = arith.constant dense<32> : tensor<32x32xi32, #triton_gpu.blocked<{sizePerThread = [1, 1], threadsPerWarp = [1, 32], warpsPerCTA = [4, 1], order = [1, 0]}>>
  %cst_4 = arith.constant dense<32> : tensor<32x32xi32>
  %cst_5 = arith.constant dense<0.000000e+00> : tensor<32x32xf32, #triton_gpu.blocked<{sizePerThread = [1, 1], threadsPerWarp = [1, 32], warpsPerCTA = [4, 1], order = [1, 0]}>>
  %cst_6 = arith.constant dense<0.000000e+00> : tensor<32x32xf32>
  %c32_i32 = arith.constant 32 : i32
  %0 = tt.get_program_id x : i32
  %1 = tt.get_program_id y : i32
  %2 = arith.muli %0, %c32_i32 : i32
  %3 = tt.make_range {end = 32 : i32, start = 0 : i32} : tensor<32xi32, #triton_gpu.blocked<{sizePerThread = [1], threadsPerWarp = [32], warpsPerCTA = [4], order = [0]}>>
  %4 = tt.make_range {end = 32 : i32, start = 0 : i32} : tensor<32xi32>
  %5 = tt.splat %2 : i32 -> tensor<32xi32, #triton_gpu.blocked<{sizePerThread = [1], threadsPerWarp = [32], warpsPerCTA = [4], order = [0]}>>
  %6 = tt.splat %2 : i32 -> tensor<32xi32>
  %7 = arith.addi %5, %3 : tensor<32xi32, #triton_gpu.blocked<{sizePerThread = [1], threadsPerWarp = [32], warpsPerCTA = [4], order = [0]}>>
  %8 = arith.addi %6, %4 : tensor<32xi32>
  %9 = arith.muli %1, %c32_i32 : i32
  %10 = tt.splat %9 : i32 -> tensor<32xi32, #triton_gpu.blocked<{sizePerThread = [1], threadsPerWarp = [32], warpsPerCTA = [4], order = [0]}>>
  %11 = tt.splat %9 : i32 -> tensor<32xi32>
  %12 = arith.addi %10, %3 : tensor<32xi32, #triton_gpu.blocked<{sizePerThread = [1], threadsPerWarp = [32], warpsPerCTA = [4], order = [0]}>>
  %13 = arith.addi %11, %4 : tensor<32xi32>
  %14 = triton_gpu.convert_layout %7 : tensor<32xi32, #triton_gpu.blocked<{sizePerThread = [1], threadsPerWarp = [32], warpsPerCTA = [4], order = [0]}>> -> tensor<32xi32, #triton_gpu.slice<{dim = 1, parent = #triton_gpu.blocked<{sizePerThread = [1, 1], threadsPerWarp = [32, 1], warpsPerCTA = [4, 1], order = [0, 1]}>}>>
  %15 = tt.expand_dims %14 {axis = 1 : i32} : tensor<32xi32, #triton_gpu.slice<{dim = 1, parent = #triton_gpu.blocked<{sizePerThread = [1, 1], threadsPerWarp = [32, 1], warpsPerCTA = [4, 1], order = [0, 1]}>}>> -> tensor<32x1xi32, #triton_gpu.blocked<{sizePerThread = [1, 1], threadsPerWarp = [32, 1], warpsPerCTA = [4, 1], order = [0, 1]}>>
  %16 = builtin.unrealized_conversion_cast %15 : tensor<32x1xi32, #triton_gpu.blocked<{sizePerThread = [1, 1], threadsPerWarp = [32, 1], warpsPerCTA = [4, 1], order = [0, 1]}>> to tensor<32x1xi32, #triton_gpu.blocked<{sizePerThread = [1, 1], threadsPerWarp = [32, 1], warpsPerCTA = [4, 1], order = [1, 0]}>>
  %17 = tt.expand_dims %8 {axis = 1 : i32} : tensor<32xi32> -> tensor<32x1xi32>
  %18 = tt.splat %arg9 : i32 -> tensor<32x1xi32, #triton_gpu.blocked<{sizePerThread = [1, 1], threadsPerWarp = [32, 1], warpsPerCTA = [4, 1], order = [1, 0]}>>
  %19 = tt.splat %arg9 : i32 -> tensor<32x1xi32>
  %20 = arith.muli %16, %18 : tensor<32x1xi32, #triton_gpu.blocked<{sizePerThread = [1, 1], threadsPerWarp = [32, 1], warpsPerCTA = [4, 1], order = [1, 0]}>>
  %21 = arith.muli %17, %19 : tensor<32x1xi32>
  %22 = tt.expand_dims %4 {axis = 0 : i32} : tensor<32xi32> -> tensor<1x32xi32>
  %23 = tt.broadcast %21 : tensor<32x1xi32> -> tensor<32x32xi32>
  %24 = tt.broadcast %22 : tensor<1x32xi32> -> tensor<32x32xi32>
  %25 = arith.addi %23, %24 : tensor<32x32xi32>
  %26 = tt.splat %arg0 : !tt.ptr<f16> -> tensor<32x32x!tt.ptr<f16>>
  %27 = tt.addptr %26, %25 : tensor<32x32x!tt.ptr<f16>>, tensor<32x32xi32>
  %28 = tt.expand_dims %4 {axis = 1 : i32} : tensor<32xi32> -> tensor<32x1xi32>
  %29 = tt.splat %arg10 : i32 -> tensor<32x1xi32>
  %30 = arith.muli %28, %29 : tensor<32x1xi32>
  %31 = tt.expand_dims %13 {axis = 0 : i32} : tensor<32xi32> -> tensor<1x32xi32>
  %32 = tt.broadcast %30 : tensor<32x1xi32> -> tensor<32x32xi32>
  %33 = tt.broadcast %31 : tensor<1x32xi32> -> tensor<32x32xi32>
  %34 = arith.addi %32, %33 : tensor<32x32xi32>
  %35 = tt.splat %arg1 : !tt.ptr<f16> -> tensor<32x32x!tt.ptr<f16>>
  %36 = tt.addptr %35, %34 : tensor<32x32x!tt.ptr<f16>>, tensor<32x32xi32>
  %37 = tt.splat %arg2 : !tt.ptr<f16> -> tensor<32x!tt.ptr<f16>>
  %38 = tt.addptr %37, %13 : tensor<32x!tt.ptr<f16>>, tensor<32xi32>
  %39 = arith.addi %arg8, %c31_i32 : i32
  %40 = arith.divsi %39, %c32_i32 : i32
  %41 = tt.splat %arg6 : i32 -> tensor<32x1xi32>
  %42 = arith.cmpi slt, %17, %41 : tensor<32x1xi32>
  %43 = tt.broadcast %42 : tensor<32x1xi1> -> tensor<32x32xi1>
  %44 = tt.splat %arg7 : i32 -> tensor<1x32xi32>
  %45 = arith.cmpi slt, %31, %44 : tensor<1x32xi32>
  %46 = tt.broadcast %45 : tensor<1x32xi1> -> tensor<32x32xi1>
  %47 = arith.muli %arg10, %c32_i32 : i32
  %48 = tt.splat %47 : i32 -> tensor<32x32xi32>
  %49:3 = scf.for %arg12 = %c0_i32 to %40 step %c1_i32 iter_args(%arg13 = %cst_6, %arg14 = %27, %arg15 = %36) -> (tensor<32x32xf32>, tensor<32x32x!tt.ptr<f16>>, tensor<32x32x!tt.ptr<f16>>)  : i32 {
    %77 = arith.muli %arg12, %c32_i32 : i32
    %78 = arith.subi %arg8, %77 : i32
    %79 = tt.splat %78 : i32 -> tensor<1x32xi32>
    %80 = arith.cmpi slt, %22, %79 : tensor<1x32xi32>
    %81 = tt.broadcast %80 : tensor<1x32xi1> -> tensor<32x32xi1>
    %82 = arith.andi %43, %81 : tensor<32x32xi1>
    %83 = tt.load %arg14, %82, %cst_2 : tensor<32x32x!tt.ptr<f16>>
    %84 = tt.splat %78 : i32 -> tensor<32x1xi32>
    %85 = arith.cmpi slt, %28, %84 : tensor<32x1xi32>
    %86 = tt.broadcast %85 : tensor<32x1xi1> -> tensor<32x32xi1>
    %87 = arith.andi %86, %46 : tensor<32x32xi1>
    %88 = tt.load %arg15, %87, %cst_2 : tensor<32x32x!tt.ptr<f16>>
    %89 = tt.dot %83, %88, %arg13 : tensor<32x32xf16> * tensor<32x32xf16> -> tensor<32x32xf32>
    %90 = tt.addptr %arg14, %cst_4 : tensor<32x32x!tt.ptr<f16>>, tensor<32x32xi32>
    %91 = tt.addptr %arg15, %48 : tensor<32x32x!tt.ptr<f16>>, tensor<32x32xi32>
    scf.yield %89, %90, %91 : tensor<32x32xf32>, tensor<32x32x!tt.ptr<f16>>, tensor<32x32x!tt.ptr<f16>>
  }
  %50 = tt.splat %arg7 : i32 -> tensor<32xi32>
  %51 = arith.cmpi slt, %13, %50 : tensor<32xi32>
  %52 = tt.load %38, %51, %cst_0 : tensor<32x!tt.ptr<f16>>
  %53 = arith.sitofp %arg4 : i32 to f32
  %54 = tt.splat %53 : f32 -> tensor<32x32xf32>
  %55 = arith.mulf %49#0, %54 : tensor<32x32xf32>
  %56 = arith.sitofp %arg5 : i32 to f16
  %57 = tt.splat %56 : f16 -> tensor<32xf16>
  %58 = arith.mulf %52, %57 : tensor<32xf16>
  %59 = tt.expand_dims %58 {axis = 0 : i32} : tensor<32xf16> -> tensor<1x32xf16>
  %60 = arith.extf %59 : tensor<1x32xf16> to tensor<1x32xf32>
  %61 = tt.broadcast %60 : tensor<1x32xf32> -> tensor<32x32xf32>
  %62 = arith.addf %55, %61 : tensor<32x32xf32>
  %63 = arith.truncf %62 : tensor<32x32xf32> to tensor<32x32xf16>
  %64 = tt.splat %arg11 : i32 -> tensor<32x1xi32>
  %65 = arith.muli %64, %17 : tensor<32x1xi32>
  %66 = tt.splat %arg3 : !tt.ptr<f16> -> tensor<32x1x!tt.ptr<f16>>
  %67 = tt.addptr %66, %65 : tensor<32x1x!tt.ptr<f16>>, tensor<32x1xi32>
  %68 = tt.broadcast %67 : tensor<32x1x!tt.ptr<f16>> -> tensor<32x32x!tt.ptr<f16>>
  %69 = tt.addptr %68, %33 : tensor<32x32x!tt.ptr<f16>>, tensor<32x32xi32>
  %70 = tt.splat %arg6 : i32 -> tensor<32x1xi32>
  %71 = arith.cmpi slt, %17, %70 : tensor<32x1xi32>
  %72 = tt.splat %arg7 : i32 -> tensor<1x32xi32>
  %73 = arith.cmpi slt, %31, %72 : tensor<1x32xi32>
  %74 = tt.broadcast %71 : tensor<32x1xi1> -> tensor<32x32xi1>
  %75 = tt.broadcast %73 : tensor<1x32xi1> -> tensor<32x32xi1>
  %76 = arith.andi %74, %75 : tensor<32x32xi1>
  tt.store %69, %63, %76 : tensor<32x32x!tt.ptr<f16>>
  tt.return
}


} -> SUCCESS
//===-------------------------------------------===//

//===-------------------------------------------===//
Legalizing operation : 'tt.expand_dims'(0x555d5be98a50) {
  %34 = "tt.expand_dims"(%16) <{axis = 0 : i32}> : (tensor<32xi32>) -> tensor<1x32xi32>

  * Fold {
  } -> FAILURE : unable to fold

  * Pattern : 'tt.expand_dims -> ()' {
Trying to match "{anonymous}::TritonExpandDimsPattern"
    ** Insert  : 'triton_gpu.convert_layout'(0x555d5bed6ff0)
    ** Insert  : 'tt.expand_dims'(0x555d5bed71d0)
    ** Replace : 'tt.expand_dims'(0x555d5be98a50)
"{anonymous}::TritonExpandDimsPattern" result 1

    //===-------------------------------------------===//
    Legalizing operation : 'triton_gpu.convert_layout'(0x555d5bed6ff0) {
      %34 = "triton_gpu.convert_layout"(%15) : (tensor<32xi32, #triton_gpu.blocked<{sizePerThread = [1], threadsPerWarp = [32], warpsPerCTA = [4], order = [0]}>>) -> tensor<32xi32, #triton_gpu.slice<{dim = 0, parent = #triton_gpu.blocked<{sizePerThread = [1, 1], threadsPerWarp = [1, 32], warpsPerCTA = [1, 4], order = [0, 1]}>}>>

    } -> SUCCESS : operation marked legal by the target
    //===-------------------------------------------===//

    //===-------------------------------------------===//
    Legalizing operation : 'tt.expand_dims'(0x555d5bed71d0) {
      %35 = "tt.expand_dims"(%34) <{axis = 0 : i32}> : (tensor<32xi32, #triton_gpu.slice<{dim = 0, parent = #triton_gpu.blocked<{sizePerThread = [1, 1], threadsPerWarp = [1, 32], warpsPerCTA = [1, 4], order = [0, 1]}>}>>) -> tensor<1x32xi32, #triton_gpu.blocked<{sizePerThread = [1, 1], threadsPerWarp = [1, 32], warpsPerCTA = [1, 4], order = [0, 1]}>>

    } -> SUCCESS : operation marked legal by the target
    //===-------------------------------------------===//
  } -> SUCCESS : pattern applied successfully
// *** IR Dump After Pattern Application ***
tt.func public @addmm_kernel(%arg0: !tt.ptr<f16> {tt.divisibility = 16 : i32}, %arg1: !tt.ptr<f16> {tt.divisibility = 16 : i32}, %arg2: !tt.ptr<f16> {tt.divisibility = 16 : i32}, %arg3: !tt.ptr<f16> {tt.divisibility = 16 : i32}, %arg4: i32, %arg5: i32, %arg6: i32 {tt.divisibility = 16 : i32}, %arg7: i32 {tt.divisibility = 16 : i32}, %arg8: i32 {tt.divisibility = 16 : i32}, %arg9: i32 {tt.divisibility = 16 : i32}, %arg10: i32 {tt.divisibility = 16 : i32}, %arg11: i32 {tt.divisibility = 16 : i32}) attributes {noinline = false} {
  %c31_i32 = arith.constant 31 : i32
  %cst = arith.constant dense<0.000000e+00> : tensor<32xf16, #triton_gpu.blocked<{sizePerThread = [1], threadsPerWarp = [32], warpsPerCTA = [4], order = [0]}>>
  %cst_0 = arith.constant dense<0.000000e+00> : tensor<32xf16>
  %cst_1 = arith.constant dense<0.000000e+00> : tensor<32x32xf16, #triton_gpu.blocked<{sizePerThread = [1, 1], threadsPerWarp = [1, 32], warpsPerCTA = [4, 1], order = [1, 0]}>>
  %cst_2 = arith.constant dense<0.000000e+00> : tensor<32x32xf16>
  %c1_i32 = arith.constant 1 : i32
  %c0_i32 = arith.constant 0 : i32
  %cst_3 = arith.constant dense<32> : tensor<32x32xi32, #triton_gpu.blocked<{sizePerThread = [1, 1], threadsPerWarp = [1, 32], warpsPerCTA = [4, 1], order = [1, 0]}>>
  %cst_4 = arith.constant dense<32> : tensor<32x32xi32>
  %cst_5 = arith.constant dense<0.000000e+00> : tensor<32x32xf32, #triton_gpu.blocked<{sizePerThread = [1, 1], threadsPerWarp = [1, 32], warpsPerCTA = [4, 1], order = [1, 0]}>>
  %cst_6 = arith.constant dense<0.000000e+00> : tensor<32x32xf32>
  %c32_i32 = arith.constant 32 : i32
  %0 = tt.get_program_id x : i32
  %1 = tt.get_program_id y : i32
  %2 = arith.muli %0, %c32_i32 : i32
  %3 = tt.make_range {end = 32 : i32, start = 0 : i32} : tensor<32xi32, #triton_gpu.blocked<{sizePerThread = [1], threadsPerWarp = [32], warpsPerCTA = [4], order = [0]}>>
  %4 = tt.make_range {end = 32 : i32, start = 0 : i32} : tensor<32xi32>
  %5 = tt.splat %2 : i32 -> tensor<32xi32, #triton_gpu.blocked<{sizePerThread = [1], threadsPerWarp = [32], warpsPerCTA = [4], order = [0]}>>
  %6 = tt.splat %2 : i32 -> tensor<32xi32>
  %7 = arith.addi %5, %3 : tensor<32xi32, #triton_gpu.blocked<{sizePerThread = [1], threadsPerWarp = [32], warpsPerCTA = [4], order = [0]}>>
  %8 = arith.addi %6, %4 : tensor<32xi32>
  %9 = arith.muli %1, %c32_i32 : i32
  %10 = tt.splat %9 : i32 -> tensor<32xi32, #triton_gpu.blocked<{sizePerThread = [1], threadsPerWarp = [32], warpsPerCTA = [4], order = [0]}>>
  %11 = tt.splat %9 : i32 -> tensor<32xi32>
  %12 = arith.addi %10, %3 : tensor<32xi32, #triton_gpu.blocked<{sizePerThread = [1], threadsPerWarp = [32], warpsPerCTA = [4], order = [0]}>>
  %13 = arith.addi %11, %4 : tensor<32xi32>
  %14 = triton_gpu.convert_layout %7 : tensor<32xi32, #triton_gpu.blocked<{sizePerThread = [1], threadsPerWarp = [32], warpsPerCTA = [4], order = [0]}>> -> tensor<32xi32, #triton_gpu.slice<{dim = 1, parent = #triton_gpu.blocked<{sizePerThread = [1, 1], threadsPerWarp = [32, 1], warpsPerCTA = [4, 1], order = [0, 1]}>}>>
  %15 = tt.expand_dims %14 {axis = 1 : i32} : tensor<32xi32, #triton_gpu.slice<{dim = 1, parent = #triton_gpu.blocked<{sizePerThread = [1, 1], threadsPerWarp = [32, 1], warpsPerCTA = [4, 1], order = [0, 1]}>}>> -> tensor<32x1xi32, #triton_gpu.blocked<{sizePerThread = [1, 1], threadsPerWarp = [32, 1], warpsPerCTA = [4, 1], order = [0, 1]}>>
  %16 = builtin.unrealized_conversion_cast %15 : tensor<32x1xi32, #triton_gpu.blocked<{sizePerThread = [1, 1], threadsPerWarp = [32, 1], warpsPerCTA = [4, 1], order = [0, 1]}>> to tensor<32x1xi32, #triton_gpu.blocked<{sizePerThread = [1, 1], threadsPerWarp = [32, 1], warpsPerCTA = [4, 1], order = [1, 0]}>>
  %17 = tt.expand_dims %8 {axis = 1 : i32} : tensor<32xi32> -> tensor<32x1xi32>
  %18 = tt.splat %arg9 : i32 -> tensor<32x1xi32, #triton_gpu.blocked<{sizePerThread = [1, 1], threadsPerWarp = [32, 1], warpsPerCTA = [4, 1], order = [1, 0]}>>
  %19 = tt.splat %arg9 : i32 -> tensor<32x1xi32>
  %20 = arith.muli %16, %18 : tensor<32x1xi32, #triton_gpu.blocked<{sizePerThread = [1, 1], threadsPerWarp = [32, 1], warpsPerCTA = [4, 1], order = [1, 0]}>>
  %21 = arith.muli %17, %19 : tensor<32x1xi32>
  %22 = triton_gpu.convert_layout %3 : tensor<32xi32, #triton_gpu.blocked<{sizePerThread = [1], threadsPerWarp = [32], warpsPerCTA = [4], order = [0]}>> -> tensor<32xi32, #triton_gpu.slice<{dim = 0, parent = #triton_gpu.blocked<{sizePerThread = [1, 1], threadsPerWarp = [1, 32], warpsPerCTA = [1, 4], order = [0, 1]}>}>>
  %23 = tt.expand_dims %22 {axis = 0 : i32} : tensor<32xi32, #triton_gpu.slice<{dim = 0, parent = #triton_gpu.blocked<{sizePerThread = [1, 1], threadsPerWarp = [1, 32], warpsPerCTA = [1, 4], order = [0, 1]}>}>> -> tensor<1x32xi32, #triton_gpu.blocked<{sizePerThread = [1, 1], threadsPerWarp = [1, 32], warpsPerCTA = [1, 4], order = [0, 1]}>>
  %24 = tt.expand_dims %4 {axis = 0 : i32} : tensor<32xi32> -> tensor<1x32xi32>
  %25 = tt.broadcast %21 : tensor<32x1xi32> -> tensor<32x32xi32>
  %26 = tt.broadcast %24 : tensor<1x32xi32> -> tensor<32x32xi32>
  %27 = arith.addi %25, %26 : tensor<32x32xi32>
  %28 = tt.splat %arg0 : !tt.ptr<f16> -> tensor<32x32x!tt.ptr<f16>>
  %29 = tt.addptr %28, %27 : tensor<32x32x!tt.ptr<f16>>, tensor<32x32xi32>
  %30 = tt.expand_dims %4 {axis = 1 : i32} : tensor<32xi32> -> tensor<32x1xi32>
  %31 = tt.splat %arg10 : i32 -> tensor<32x1xi32>
  %32 = arith.muli %30, %31 : tensor<32x1xi32>
  %33 = tt.expand_dims %13 {axis = 0 : i32} : tensor<32xi32> -> tensor<1x32xi32>
  %34 = tt.broadcast %32 : tensor<32x1xi32> -> tensor<32x32xi32>
  %35 = tt.broadcast %33 : tensor<1x32xi32> -> tensor<32x32xi32>
  %36 = arith.addi %34, %35 : tensor<32x32xi32>
  %37 = tt.splat %arg1 : !tt.ptr<f16> -> tensor<32x32x!tt.ptr<f16>>
  %38 = tt.addptr %37, %36 : tensor<32x32x!tt.ptr<f16>>, tensor<32x32xi32>
  %39 = tt.splat %arg2 : !tt.ptr<f16> -> tensor<32x!tt.ptr<f16>>
  %40 = tt.addptr %39, %13 : tensor<32x!tt.ptr<f16>>, tensor<32xi32>
  %41 = arith.addi %arg8, %c31_i32 : i32
  %42 = arith.divsi %41, %c32_i32 : i32
  %43 = tt.splat %arg6 : i32 -> tensor<32x1xi32>
  %44 = arith.cmpi slt, %17, %43 : tensor<32x1xi32>
  %45 = tt.broadcast %44 : tensor<32x1xi1> -> tensor<32x32xi1>
  %46 = tt.splat %arg7 : i32 -> tensor<1x32xi32>
  %47 = arith.cmpi slt, %33, %46 : tensor<1x32xi32>
  %48 = tt.broadcast %47 : tensor<1x32xi1> -> tensor<32x32xi1>
  %49 = arith.muli %arg10, %c32_i32 : i32
  %50 = tt.splat %49 : i32 -> tensor<32x32xi32>
  %51:3 = scf.for %arg12 = %c0_i32 to %42 step %c1_i32 iter_args(%arg13 = %cst_6, %arg14 = %29, %arg15 = %38) -> (tensor<32x32xf32>, tensor<32x32x!tt.ptr<f16>>, tensor<32x32x!tt.ptr<f16>>)  : i32 {
    %79 = arith.muli %arg12, %c32_i32 : i32
    %80 = arith.subi %arg8, %79 : i32
    %81 = tt.splat %80 : i32 -> tensor<1x32xi32>
    %82 = arith.cmpi slt, %24, %81 : tensor<1x32xi32>
    %83 = tt.broadcast %82 : tensor<1x32xi1> -> tensor<32x32xi1>
    %84 = arith.andi %45, %83 : tensor<32x32xi1>
    %85 = tt.load %arg14, %84, %cst_2 : tensor<32x32x!tt.ptr<f16>>
    %86 = tt.splat %80 : i32 -> tensor<32x1xi32>
    %87 = arith.cmpi slt, %30, %86 : tensor<32x1xi32>
    %88 = tt.broadcast %87 : tensor<32x1xi1> -> tensor<32x32xi1>
    %89 = arith.andi %88, %48 : tensor<32x32xi1>
    %90 = tt.load %arg15, %89, %cst_2 : tensor<32x32x!tt.ptr<f16>>
    %91 = tt.dot %85, %90, %arg13 : tensor<32x32xf16> * tensor<32x32xf16> -> tensor<32x32xf32>
    %92 = tt.addptr %arg14, %cst_4 : tensor<32x32x!tt.ptr<f16>>, tensor<32x32xi32>
    %93 = tt.addptr %arg15, %50 : tensor<32x32x!tt.ptr<f16>>, tensor<32x32xi32>
    scf.yield %91, %92, %93 : tensor<32x32xf32>, tensor<32x32x!tt.ptr<f16>>, tensor<32x32x!tt.ptr<f16>>
  }
  %52 = tt.splat %arg7 : i32 -> tensor<32xi32>
  %53 = arith.cmpi slt, %13, %52 : tensor<32xi32>
  %54 = tt.load %40, %53, %cst_0 : tensor<32x!tt.ptr<f16>>
  %55 = arith.sitofp %arg4 : i32 to f32
  %56 = tt.splat %55 : f32 -> tensor<32x32xf32>
  %57 = arith.mulf %51#0, %56 : tensor<32x32xf32>
  %58 = arith.sitofp %arg5 : i32 to f16
  %59 = tt.splat %58 : f16 -> tensor<32xf16>
  %60 = arith.mulf %54, %59 : tensor<32xf16>
  %61 = tt.expand_dims %60 {axis = 0 : i32} : tensor<32xf16> -> tensor<1x32xf16>
  %62 = arith.extf %61 : tensor<1x32xf16> to tensor<1x32xf32>
  %63 = tt.broadcast %62 : tensor<1x32xf32> -> tensor<32x32xf32>
  %64 = arith.addf %57, %63 : tensor<32x32xf32>
  %65 = arith.truncf %64 : tensor<32x32xf32> to tensor<32x32xf16>
  %66 = tt.splat %arg11 : i32 -> tensor<32x1xi32>
  %67 = arith.muli %66, %17 : tensor<32x1xi32>
  %68 = tt.splat %arg3 : !tt.ptr<f16> -> tensor<32x1x!tt.ptr<f16>>
  %69 = tt.addptr %68, %67 : tensor<32x1x!tt.ptr<f16>>, tensor<32x1xi32>
  %70 = tt.broadcast %69 : tensor<32x1x!tt.ptr<f16>> -> tensor<32x32x!tt.ptr<f16>>
  %71 = tt.addptr %70, %35 : tensor<32x32x!tt.ptr<f16>>, tensor<32x32xi32>
  %72 = tt.splat %arg6 : i32 -> tensor<32x1xi32>
  %73 = arith.cmpi slt, %17, %72 : tensor<32x1xi32>
  %74 = tt.splat %arg7 : i32 -> tensor<1x32xi32>
  %75 = arith.cmpi slt, %33, %74 : tensor<1x32xi32>
  %76 = tt.broadcast %73 : tensor<32x1xi1> -> tensor<32x32xi1>
  %77 = tt.broadcast %75 : tensor<1x32xi1> -> tensor<32x32xi1>
  %78 = arith.andi %76, %77 : tensor<32x32xi1>
  tt.store %71, %65, %78 : tensor<32x32x!tt.ptr<f16>>
  tt.return
}


} -> SUCCESS
//===-------------------------------------------===//

//===-------------------------------------------===//
Legalizing operation : 'tt.broadcast'(0x555d5be98b40) {
  %37 = "tt.broadcast"(%33) : (tensor<32x1xi32>) -> tensor<32x32xi32>

  * Fold {
  } -> FAILURE : unable to fold

  * Pattern : 'tt.broadcast -> ()' {
Trying to match "{anonymous}::TritonBroadcastPattern"
    ** Insert  : 'tt.broadcast'(0x555d5bed69f0)
    ** Replace : 'tt.broadcast'(0x555d5be98b40)
"{anonymous}::TritonBroadcastPattern" result 1

    //===-------------------------------------------===//
    Legalizing operation : 'tt.broadcast'(0x555d5bed69f0) {
      %37 = "tt.broadcast"(%32) : (tensor<32x1xi32, #triton_gpu.blocked<{sizePerThread = [1, 1], threadsPerWarp = [32, 1], warpsPerCTA = [4, 1], order = [1, 0]}>>) -> tensor<32x32xi32, #triton_gpu.blocked<{sizePerThread = [1, 1], threadsPerWarp = [32, 1], warpsPerCTA = [4, 1], order = [1, 0]}>>

    } -> SUCCESS : operation marked legal by the target
    //===-------------------------------------------===//
  } -> SUCCESS : pattern applied successfully
// *** IR Dump After Pattern Application ***
tt.func public @addmm_kernel(%arg0: !tt.ptr<f16> {tt.divisibility = 16 : i32}, %arg1: !tt.ptr<f16> {tt.divisibility = 16 : i32}, %arg2: !tt.ptr<f16> {tt.divisibility = 16 : i32}, %arg3: !tt.ptr<f16> {tt.divisibility = 16 : i32}, %arg4: i32, %arg5: i32, %arg6: i32 {tt.divisibility = 16 : i32}, %arg7: i32 {tt.divisibility = 16 : i32}, %arg8: i32 {tt.divisibility = 16 : i32}, %arg9: i32 {tt.divisibility = 16 : i32}, %arg10: i32 {tt.divisibility = 16 : i32}, %arg11: i32 {tt.divisibility = 16 : i32}) attributes {noinline = false} {
  %c31_i32 = arith.constant 31 : i32
  %cst = arith.constant dense<0.000000e+00> : tensor<32xf16, #triton_gpu.blocked<{sizePerThread = [1], threadsPerWarp = [32], warpsPerCTA = [4], order = [0]}>>
  %cst_0 = arith.constant dense<0.000000e+00> : tensor<32xf16>
  %cst_1 = arith.constant dense<0.000000e+00> : tensor<32x32xf16, #triton_gpu.blocked<{sizePerThread = [1, 1], threadsPerWarp = [1, 32], warpsPerCTA = [4, 1], order = [1, 0]}>>
  %cst_2 = arith.constant dense<0.000000e+00> : tensor<32x32xf16>
  %c1_i32 = arith.constant 1 : i32
  %c0_i32 = arith.constant 0 : i32
  %cst_3 = arith.constant dense<32> : tensor<32x32xi32, #triton_gpu.blocked<{sizePerThread = [1, 1], threadsPerWarp = [1, 32], warpsPerCTA = [4, 1], order = [1, 0]}>>
  %cst_4 = arith.constant dense<32> : tensor<32x32xi32>
  %cst_5 = arith.constant dense<0.000000e+00> : tensor<32x32xf32, #triton_gpu.blocked<{sizePerThread = [1, 1], threadsPerWarp = [1, 32], warpsPerCTA = [4, 1], order = [1, 0]}>>
  %cst_6 = arith.constant dense<0.000000e+00> : tensor<32x32xf32>
  %c32_i32 = arith.constant 32 : i32
  %0 = tt.get_program_id x : i32
  %1 = tt.get_program_id y : i32
  %2 = arith.muli %0, %c32_i32 : i32
  %3 = tt.make_range {end = 32 : i32, start = 0 : i32} : tensor<32xi32, #triton_gpu.blocked<{sizePerThread = [1], threadsPerWarp = [32], warpsPerCTA = [4], order = [0]}>>
  %4 = tt.make_range {end = 32 : i32, start = 0 : i32} : tensor<32xi32>
  %5 = tt.splat %2 : i32 -> tensor<32xi32, #triton_gpu.blocked<{sizePerThread = [1], threadsPerWarp = [32], warpsPerCTA = [4], order = [0]}>>
  %6 = tt.splat %2 : i32 -> tensor<32xi32>
  %7 = arith.addi %5, %3 : tensor<32xi32, #triton_gpu.blocked<{sizePerThread = [1], threadsPerWarp = [32], warpsPerCTA = [4], order = [0]}>>
  %8 = arith.addi %6, %4 : tensor<32xi32>
  %9 = arith.muli %1, %c32_i32 : i32
  %10 = tt.splat %9 : i32 -> tensor<32xi32, #triton_gpu.blocked<{sizePerThread = [1], threadsPerWarp = [32], warpsPerCTA = [4], order = [0]}>>
  %11 = tt.splat %9 : i32 -> tensor<32xi32>
  %12 = arith.addi %10, %3 : tensor<32xi32, #triton_gpu.blocked<{sizePerThread = [1], threadsPerWarp = [32], warpsPerCTA = [4], order = [0]}>>
  %13 = arith.addi %11, %4 : tensor<32xi32>
  %14 = triton_gpu.convert_layout %7 : tensor<32xi32, #triton_gpu.blocked<{sizePerThread = [1], threadsPerWarp = [32], warpsPerCTA = [4], order = [0]}>> -> tensor<32xi32, #triton_gpu.slice<{dim = 1, parent = #triton_gpu.blocked<{sizePerThread = [1, 1], threadsPerWarp = [32, 1], warpsPerCTA = [4, 1], order = [0, 1]}>}>>
  %15 = tt.expand_dims %14 {axis = 1 : i32} : tensor<32xi32, #triton_gpu.slice<{dim = 1, parent = #triton_gpu.blocked<{sizePerThread = [1, 1], threadsPerWarp = [32, 1], warpsPerCTA = [4, 1], order = [0, 1]}>}>> -> tensor<32x1xi32, #triton_gpu.blocked<{sizePerThread = [1, 1], threadsPerWarp = [32, 1], warpsPerCTA = [4, 1], order = [0, 1]}>>
  %16 = builtin.unrealized_conversion_cast %15 : tensor<32x1xi32, #triton_gpu.blocked<{sizePerThread = [1, 1], threadsPerWarp = [32, 1], warpsPerCTA = [4, 1], order = [0, 1]}>> to tensor<32x1xi32, #triton_gpu.blocked<{sizePerThread = [1, 1], threadsPerWarp = [32, 1], warpsPerCTA = [4, 1], order = [1, 0]}>>
  %17 = tt.expand_dims %8 {axis = 1 : i32} : tensor<32xi32> -> tensor<32x1xi32>
  %18 = tt.splat %arg9 : i32 -> tensor<32x1xi32, #triton_gpu.blocked<{sizePerThread = [1, 1], threadsPerWarp = [32, 1], warpsPerCTA = [4, 1], order = [1, 0]}>>
  %19 = tt.splat %arg9 : i32 -> tensor<32x1xi32>
  %20 = arith.muli %16, %18 : tensor<32x1xi32, #triton_gpu.blocked<{sizePerThread = [1, 1], threadsPerWarp = [32, 1], warpsPerCTA = [4, 1], order = [1, 0]}>>
  %21 = arith.muli %17, %19 : tensor<32x1xi32>
  %22 = triton_gpu.convert_layout %3 : tensor<32xi32, #triton_gpu.blocked<{sizePerThread = [1], threadsPerWarp = [32], warpsPerCTA = [4], order = [0]}>> -> tensor<32xi32, #triton_gpu.slice<{dim = 0, parent = #triton_gpu.blocked<{sizePerThread = [1, 1], threadsPerWarp = [1, 32], warpsPerCTA = [1, 4], order = [0, 1]}>}>>
  %23 = tt.expand_dims %22 {axis = 0 : i32} : tensor<32xi32, #triton_gpu.slice<{dim = 0, parent = #triton_gpu.blocked<{sizePerThread = [1, 1], threadsPerWarp = [1, 32], warpsPerCTA = [1, 4], order = [0, 1]}>}>> -> tensor<1x32xi32, #triton_gpu.blocked<{sizePerThread = [1, 1], threadsPerWarp = [1, 32], warpsPerCTA = [1, 4], order = [0, 1]}>>
  %24 = tt.expand_dims %4 {axis = 0 : i32} : tensor<32xi32> -> tensor<1x32xi32>
  %25 = tt.broadcast %20 : tensor<32x1xi32, #triton_gpu.blocked<{sizePerThread = [1, 1], threadsPerWarp = [32, 1], warpsPerCTA = [4, 1], order = [1, 0]}>> -> tensor<32x32xi32, #triton_gpu.blocked<{sizePerThread = [1, 1], threadsPerWarp = [32, 1], warpsPerCTA = [4, 1], order = [1, 0]}>>
  %26 = tt.broadcast %21 : tensor<32x1xi32> -> tensor<32x32xi32>
  %27 = tt.broadcast %24 : tensor<1x32xi32> -> tensor<32x32xi32>
  %28 = arith.addi %26, %27 : tensor<32x32xi32>
  %29 = tt.splat %arg0 : !tt.ptr<f16> -> tensor<32x32x!tt.ptr<f16>>
  %30 = tt.addptr %29, %28 : tensor<32x32x!tt.ptr<f16>>, tensor<32x32xi32>
  %31 = tt.expand_dims %4 {axis = 1 : i32} : tensor<32xi32> -> tensor<32x1xi32>
  %32 = tt.splat %arg10 : i32 -> tensor<32x1xi32>
  %33 = arith.muli %31, %32 : tensor<32x1xi32>
  %34 = tt.expand_dims %13 {axis = 0 : i32} : tensor<32xi32> -> tensor<1x32xi32>
  %35 = tt.broadcast %33 : tensor<32x1xi32> -> tensor<32x32xi32>
  %36 = tt.broadcast %34 : tensor<1x32xi32> -> tensor<32x32xi32>
  %37 = arith.addi %35, %36 : tensor<32x32xi32>
  %38 = tt.splat %arg1 : !tt.ptr<f16> -> tensor<32x32x!tt.ptr<f16>>
  %39 = tt.addptr %38, %37 : tensor<32x32x!tt.ptr<f16>>, tensor<32x32xi32>
  %40 = tt.splat %arg2 : !tt.ptr<f16> -> tensor<32x!tt.ptr<f16>>
  %41 = tt.addptr %40, %13 : tensor<32x!tt.ptr<f16>>, tensor<32xi32>
  %42 = arith.addi %arg8, %c31_i32 : i32
  %43 = arith.divsi %42, %c32_i32 : i32
  %44 = tt.splat %arg6 : i32 -> tensor<32x1xi32>
  %45 = arith.cmpi slt, %17, %44 : tensor<32x1xi32>
  %46 = tt.broadcast %45 : tensor<32x1xi1> -> tensor<32x32xi1>
  %47 = tt.splat %arg7 : i32 -> tensor<1x32xi32>
  %48 = arith.cmpi slt, %34, %47 : tensor<1x32xi32>
  %49 = tt.broadcast %48 : tensor<1x32xi1> -> tensor<32x32xi1>
  %50 = arith.muli %arg10, %c32_i32 : i32
  %51 = tt.splat %50 : i32 -> tensor<32x32xi32>
  %52:3 = scf.for %arg12 = %c0_i32 to %43 step %c1_i32 iter_args(%arg13 = %cst_6, %arg14 = %30, %arg15 = %39) -> (tensor<32x32xf32>, tensor<32x32x!tt.ptr<f16>>, tensor<32x32x!tt.ptr<f16>>)  : i32 {
    %80 = arith.muli %arg12, %c32_i32 : i32
    %81 = arith.subi %arg8, %80 : i32
    %82 = tt.splat %81 : i32 -> tensor<1x32xi32>
    %83 = arith.cmpi slt, %24, %82 : tensor<1x32xi32>
    %84 = tt.broadcast %83 : tensor<1x32xi1> -> tensor<32x32xi1>
    %85 = arith.andi %46, %84 : tensor<32x32xi1>
    %86 = tt.load %arg14, %85, %cst_2 : tensor<32x32x!tt.ptr<f16>>
    %87 = tt.splat %81 : i32 -> tensor<32x1xi32>
    %88 = arith.cmpi slt, %31, %87 : tensor<32x1xi32>
    %89 = tt.broadcast %88 : tensor<32x1xi1> -> tensor<32x32xi1>
    %90 = arith.andi %89, %49 : tensor<32x32xi1>
    %91 = tt.load %arg15, %90, %cst_2 : tensor<32x32x!tt.ptr<f16>>
    %92 = tt.dot %86, %91, %arg13 : tensor<32x32xf16> * tensor<32x32xf16> -> tensor<32x32xf32>
    %93 = tt.addptr %arg14, %cst_4 : tensor<32x32x!tt.ptr<f16>>, tensor<32x32xi32>
    %94 = tt.addptr %arg15, %51 : tensor<32x32x!tt.ptr<f16>>, tensor<32x32xi32>
    scf.yield %92, %93, %94 : tensor<32x32xf32>, tensor<32x32x!tt.ptr<f16>>, tensor<32x32x!tt.ptr<f16>>
  }
  %53 = tt.splat %arg7 : i32 -> tensor<32xi32>
  %54 = arith.cmpi slt, %13, %53 : tensor<32xi32>
  %55 = tt.load %41, %54, %cst_0 : tensor<32x!tt.ptr<f16>>
  %56 = arith.sitofp %arg4 : i32 to f32
  %57 = tt.splat %56 : f32 -> tensor<32x32xf32>
  %58 = arith.mulf %52#0, %57 : tensor<32x32xf32>
  %59 = arith.sitofp %arg5 : i32 to f16
  %60 = tt.splat %59 : f16 -> tensor<32xf16>
  %61 = arith.mulf %55, %60 : tensor<32xf16>
  %62 = tt.expand_dims %61 {axis = 0 : i32} : tensor<32xf16> -> tensor<1x32xf16>
  %63 = arith.extf %62 : tensor<1x32xf16> to tensor<1x32xf32>
  %64 = tt.broadcast %63 : tensor<1x32xf32> -> tensor<32x32xf32>
  %65 = arith.addf %58, %64 : tensor<32x32xf32>
  %66 = arith.truncf %65 : tensor<32x32xf32> to tensor<32x32xf16>
  %67 = tt.splat %arg11 : i32 -> tensor<32x1xi32>
  %68 = arith.muli %67, %17 : tensor<32x1xi32>
  %69 = tt.splat %arg3 : !tt.ptr<f16> -> tensor<32x1x!tt.ptr<f16>>
  %70 = tt.addptr %69, %68 : tensor<32x1x!tt.ptr<f16>>, tensor<32x1xi32>
  %71 = tt.broadcast %70 : tensor<32x1x!tt.ptr<f16>> -> tensor<32x32x!tt.ptr<f16>>
  %72 = tt.addptr %71, %36 : tensor<32x32x!tt.ptr<f16>>, tensor<32x32xi32>
  %73 = tt.splat %arg6 : i32 -> tensor<32x1xi32>
  %74 = arith.cmpi slt, %17, %73 : tensor<32x1xi32>
  %75 = tt.splat %arg7 : i32 -> tensor<1x32xi32>
  %76 = arith.cmpi slt, %34, %75 : tensor<1x32xi32>
  %77 = tt.broadcast %74 : tensor<32x1xi1> -> tensor<32x32xi1>
  %78 = tt.broadcast %76 : tensor<1x32xi1> -> tensor<32x32xi1>
  %79 = arith.andi %77, %78 : tensor<32x32xi1>
  tt.store %72, %66, %79 : tensor<32x32x!tt.ptr<f16>>
  tt.return
}


} -> SUCCESS
//===-------------------------------------------===//

//===-------------------------------------------===//
Legalizing operation : 'tt.broadcast'(0x555d5be98c30) {
  %39 = "tt.broadcast"(%36) : (tensor<1x32xi32>) -> tensor<32x32xi32>

  * Fold {
  } -> FAILURE : unable to fold

  * Pattern : 'tt.broadcast -> ()' {
Trying to match "{anonymous}::TritonBroadcastPattern"
    ** Insert  : 'tt.broadcast'(0x555d5bed7ee0)
    ** Replace : 'tt.broadcast'(0x555d5be98c30)
"{anonymous}::TritonBroadcastPattern" result 1

    //===-------------------------------------------===//
    Legalizing operation : 'tt.broadcast'(0x555d5bed7ee0) {
      %40 = "tt.broadcast"(%36) : (tensor<1x32xi32, #triton_gpu.blocked<{sizePerThread = [1, 1], threadsPerWarp = [1, 32], warpsPerCTA = [4, 1], order = [1, 0]}>>) -> tensor<32x32xi32, #triton_gpu.blocked<{sizePerThread = [1, 1], threadsPerWarp = [1, 32], warpsPerCTA = [4, 1], order = [1, 0]}>>

    } -> SUCCESS : operation marked legal by the target
    //===-------------------------------------------===//
  } -> SUCCESS : pattern applied successfully
// *** IR Dump After Pattern Application ***
tt.func public @addmm_kernel(%arg0: !tt.ptr<f16> {tt.divisibility = 16 : i32}, %arg1: !tt.ptr<f16> {tt.divisibility = 16 : i32}, %arg2: !tt.ptr<f16> {tt.divisibility = 16 : i32}, %arg3: !tt.ptr<f16> {tt.divisibility = 16 : i32}, %arg4: i32, %arg5: i32, %arg6: i32 {tt.divisibility = 16 : i32}, %arg7: i32 {tt.divisibility = 16 : i32}, %arg8: i32 {tt.divisibility = 16 : i32}, %arg9: i32 {tt.divisibility = 16 : i32}, %arg10: i32 {tt.divisibility = 16 : i32}, %arg11: i32 {tt.divisibility = 16 : i32}) attributes {noinline = false} {
  %c31_i32 = arith.constant 31 : i32
  %cst = arith.constant dense<0.000000e+00> : tensor<32xf16, #triton_gpu.blocked<{sizePerThread = [1], threadsPerWarp = [32], warpsPerCTA = [4], order = [0]}>>
  %cst_0 = arith.constant dense<0.000000e+00> : tensor<32xf16>
  %cst_1 = arith.constant dense<0.000000e+00> : tensor<32x32xf16, #triton_gpu.blocked<{sizePerThread = [1, 1], threadsPerWarp = [1, 32], warpsPerCTA = [4, 1], order = [1, 0]}>>
  %cst_2 = arith.constant dense<0.000000e+00> : tensor<32x32xf16>
  %c1_i32 = arith.constant 1 : i32
  %c0_i32 = arith.constant 0 : i32
  %cst_3 = arith.constant dense<32> : tensor<32x32xi32, #triton_gpu.blocked<{sizePerThread = [1, 1], threadsPerWarp = [1, 32], warpsPerCTA = [4, 1], order = [1, 0]}>>
  %cst_4 = arith.constant dense<32> : tensor<32x32xi32>
  %cst_5 = arith.constant dense<0.000000e+00> : tensor<32x32xf32, #triton_gpu.blocked<{sizePerThread = [1, 1], threadsPerWarp = [1, 32], warpsPerCTA = [4, 1], order = [1, 0]}>>
  %cst_6 = arith.constant dense<0.000000e+00> : tensor<32x32xf32>
  %c32_i32 = arith.constant 32 : i32
  %0 = tt.get_program_id x : i32
  %1 = tt.get_program_id y : i32
  %2 = arith.muli %0, %c32_i32 : i32
  %3 = tt.make_range {end = 32 : i32, start = 0 : i32} : tensor<32xi32, #triton_gpu.blocked<{sizePerThread = [1], threadsPerWarp = [32], warpsPerCTA = [4], order = [0]}>>
  %4 = tt.make_range {end = 32 : i32, start = 0 : i32} : tensor<32xi32>
  %5 = tt.splat %2 : i32 -> tensor<32xi32, #triton_gpu.blocked<{sizePerThread = [1], threadsPerWarp = [32], warpsPerCTA = [4], order = [0]}>>
  %6 = tt.splat %2 : i32 -> tensor<32xi32>
  %7 = arith.addi %5, %3 : tensor<32xi32, #triton_gpu.blocked<{sizePerThread = [1], threadsPerWarp = [32], warpsPerCTA = [4], order = [0]}>>
  %8 = arith.addi %6, %4 : tensor<32xi32>
  %9 = arith.muli %1, %c32_i32 : i32
  %10 = tt.splat %9 : i32 -> tensor<32xi32, #triton_gpu.blocked<{sizePerThread = [1], threadsPerWarp = [32], warpsPerCTA = [4], order = [0]}>>
  %11 = tt.splat %9 : i32 -> tensor<32xi32>
  %12 = arith.addi %10, %3 : tensor<32xi32, #triton_gpu.blocked<{sizePerThread = [1], threadsPerWarp = [32], warpsPerCTA = [4], order = [0]}>>
  %13 = arith.addi %11, %4 : tensor<32xi32>
  %14 = triton_gpu.convert_layout %7 : tensor<32xi32, #triton_gpu.blocked<{sizePerThread = [1], threadsPerWarp = [32], warpsPerCTA = [4], order = [0]}>> -> tensor<32xi32, #triton_gpu.slice<{dim = 1, parent = #triton_gpu.blocked<{sizePerThread = [1, 1], threadsPerWarp = [32, 1], warpsPerCTA = [4, 1], order = [0, 1]}>}>>
  %15 = tt.expand_dims %14 {axis = 1 : i32} : tensor<32xi32, #triton_gpu.slice<{dim = 1, parent = #triton_gpu.blocked<{sizePerThread = [1, 1], threadsPerWarp = [32, 1], warpsPerCTA = [4, 1], order = [0, 1]}>}>> -> tensor<32x1xi32, #triton_gpu.blocked<{sizePerThread = [1, 1], threadsPerWarp = [32, 1], warpsPerCTA = [4, 1], order = [0, 1]}>>
  %16 = builtin.unrealized_conversion_cast %15 : tensor<32x1xi32, #triton_gpu.blocked<{sizePerThread = [1, 1], threadsPerWarp = [32, 1], warpsPerCTA = [4, 1], order = [0, 1]}>> to tensor<32x1xi32, #triton_gpu.blocked<{sizePerThread = [1, 1], threadsPerWarp = [32, 1], warpsPerCTA = [4, 1], order = [1, 0]}>>
  %17 = tt.expand_dims %8 {axis = 1 : i32} : tensor<32xi32> -> tensor<32x1xi32>
  %18 = tt.splat %arg9 : i32 -> tensor<32x1xi32, #triton_gpu.blocked<{sizePerThread = [1, 1], threadsPerWarp = [32, 1], warpsPerCTA = [4, 1], order = [1, 0]}>>
  %19 = tt.splat %arg9 : i32 -> tensor<32x1xi32>
  %20 = arith.muli %16, %18 : tensor<32x1xi32, #triton_gpu.blocked<{sizePerThread = [1, 1], threadsPerWarp = [32, 1], warpsPerCTA = [4, 1], order = [1, 0]}>>
  %21 = arith.muli %17, %19 : tensor<32x1xi32>
  %22 = triton_gpu.convert_layout %3 : tensor<32xi32, #triton_gpu.blocked<{sizePerThread = [1], threadsPerWarp = [32], warpsPerCTA = [4], order = [0]}>> -> tensor<32xi32, #triton_gpu.slice<{dim = 0, parent = #triton_gpu.blocked<{sizePerThread = [1, 1], threadsPerWarp = [1, 32], warpsPerCTA = [1, 4], order = [0, 1]}>}>>
  %23 = tt.expand_dims %22 {axis = 0 : i32} : tensor<32xi32, #triton_gpu.slice<{dim = 0, parent = #triton_gpu.blocked<{sizePerThread = [1, 1], threadsPerWarp = [1, 32], warpsPerCTA = [1, 4], order = [0, 1]}>}>> -> tensor<1x32xi32, #triton_gpu.blocked<{sizePerThread = [1, 1], threadsPerWarp = [1, 32], warpsPerCTA = [1, 4], order = [0, 1]}>>
  %24 = builtin.unrealized_conversion_cast %23 : tensor<1x32xi32, #triton_gpu.blocked<{sizePerThread = [1, 1], threadsPerWarp = [1, 32], warpsPerCTA = [1, 4], order = [0, 1]}>> to tensor<1x32xi32, #triton_gpu.blocked<{sizePerThread = [1, 1], threadsPerWarp = [1, 32], warpsPerCTA = [4, 1], order = [1, 0]}>>
  %25 = tt.expand_dims %4 {axis = 0 : i32} : tensor<32xi32> -> tensor<1x32xi32>
  %26 = tt.broadcast %20 : tensor<32x1xi32, #triton_gpu.blocked<{sizePerThread = [1, 1], threadsPerWarp = [32, 1], warpsPerCTA = [4, 1], order = [1, 0]}>> -> tensor<32x32xi32, #triton_gpu.blocked<{sizePerThread = [1, 1], threadsPerWarp = [32, 1], warpsPerCTA = [4, 1], order = [1, 0]}>>
  %27 = tt.broadcast %21 : tensor<32x1xi32> -> tensor<32x32xi32>
  %28 = tt.broadcast %24 : tensor<1x32xi32, #triton_gpu.blocked<{sizePerThread = [1, 1], threadsPerWarp = [1, 32], warpsPerCTA = [4, 1], order = [1, 0]}>> -> tensor<32x32xi32, #triton_gpu.blocked<{sizePerThread = [1, 1], threadsPerWarp = [1, 32], warpsPerCTA = [4, 1], order = [1, 0]}>>
  %29 = tt.broadcast %25 : tensor<1x32xi32> -> tensor<32x32xi32>
  %30 = arith.addi %27, %29 : tensor<32x32xi32>
  %31 = tt.splat %arg0 : !tt.ptr<f16> -> tensor<32x32x!tt.ptr<f16>>
  %32 = tt.addptr %31, %30 : tensor<32x32x!tt.ptr<f16>>, tensor<32x32xi32>
  %33 = tt.expand_dims %4 {axis = 1 : i32} : tensor<32xi32> -> tensor<32x1xi32>
  %34 = tt.splat %arg10 : i32 -> tensor<32x1xi32>
  %35 = arith.muli %33, %34 : tensor<32x1xi32>
  %36 = tt.expand_dims %13 {axis = 0 : i32} : tensor<32xi32> -> tensor<1x32xi32>
  %37 = tt.broadcast %35 : tensor<32x1xi32> -> tensor<32x32xi32>
  %38 = tt.broadcast %36 : tensor<1x32xi32> -> tensor<32x32xi32>
  %39 = arith.addi %37, %38 : tensor<32x32xi32>
  %40 = tt.splat %arg1 : !tt.ptr<f16> -> tensor<32x32x!tt.ptr<f16>>
  %41 = tt.addptr %40, %39 : tensor<32x32x!tt.ptr<f16>>, tensor<32x32xi32>
  %42 = tt.splat %arg2 : !tt.ptr<f16> -> tensor<32x!tt.ptr<f16>>
  %43 = tt.addptr %42, %13 : tensor<32x!tt.ptr<f16>>, tensor<32xi32>
  %44 = arith.addi %arg8, %c31_i32 : i32
  %45 = arith.divsi %44, %c32_i32 : i32
  %46 = tt.splat %arg6 : i32 -> tensor<32x1xi32>
  %47 = arith.cmpi slt, %17, %46 : tensor<32x1xi32>
  %48 = tt.broadcast %47 : tensor<32x1xi1> -> tensor<32x32xi1>
  %49 = tt.splat %arg7 : i32 -> tensor<1x32xi32>
…
  %33 = "arith.muli"(%29, %31) <{overflowFlags = #arith.overflow<none>}> : (tensor<32x1xi32>, tensor<32x1xi32>) -> tensor<32x1xi32>
  %34 = "triton_gpu.convert_layout"(%15) : (tensor<32xi32, #triton_gpu.blocked<{sizePerThread = [1], threadsPerWarp = [32], warpsPerCTA = [4], order = [0]}>>) -> tensor<32xi32, #triton_gpu.slice<{dim = 0, parent = #triton_gpu.blocked<{sizePerThread = [1, 1], threadsPerWarp = [1, 32], warpsPerCTA = [1, 4], order = [0, 1]}>}>>
  %35 = "tt.expand_dims"(%34) <{axis = 0 : i32}> : (tensor<32xi32, #triton_gpu.slice<{dim = 0, parent = #triton_gpu.blocked<{sizePerThread = [1, 1], threadsPerWarp = [1, 32], warpsPerCTA = [1, 4], order = [0, 1]}>}>>) -> tensor<1x32xi32, #triton_gpu.blocked<{sizePerThread = [1, 1], threadsPerWarp = [1, 32], warpsPerCTA = [1, 4], order = [0, 1]}>>
  %36 = "builtin.unrealized_conversion_cast"(%35) : (tensor<1x32xi32, #triton_gpu.blocked<{sizePerThread = [1, 1], threadsPerWarp = [1, 32], warpsPerCTA = [1, 4], order = [0, 1]}>>) -> tensor<1x32xi32, #triton_gpu.blocked<{sizePerThread = [1, 1], threadsPerWarp = [1, 32], warpsPerCTA = [4, 1], order = [1, 0]}>>
  %37 = "tt.expand_dims"(%16) <{axis = 0 : i32}> : (tensor<32xi32>) -> tensor<1x32xi32>
  %38 = "tt.broadcast"(%32) : (tensor<32x1xi32, #triton_gpu.blocked<{sizePerThread = [1, 1], threadsPerWarp = [32, 1], warpsPerCTA = [4, 1], order = [1, 0]}>>) -> tensor<32x32xi32, #triton_gpu.blocked<{sizePerThread = [1, 1], threadsPerWarp = [32, 1], warpsPerCTA = [4, 1], order = [1, 0]}>>
  %39 = "builtin.unrealized_conversion_cast"(%38) : (tensor<32x32xi32, #triton_gpu.blocked<{sizePerThread = [1, 1], threadsPerWarp = [32, 1], warpsPerCTA = [4, 1], order = [1, 0]}>>) -> tensor<32x32xi32, #triton_gpu.blocked<{sizePerThread = [1, 1], threadsPerWarp = [1, 32], warpsPerCTA = [4, 1], order = [1, 0]}>>
  %40 = "tt.broadcast"(%33) : (tensor<32x1xi32>) -> tensor<32x32xi32>
  %41 = "tt.broadcast"(%36) : (tensor<1x32xi32, #triton_gpu.blocked<{sizePerThread = [1, 1], threadsPerWarp = [1, 32], warpsPerCTA = [4, 1], order = [1, 0]}>>) -> tensor<32x32xi32, #triton_gpu.blocked<{sizePerThread = [1, 1], threadsPerWarp = [1, 32], warpsPerCTA = [4, 1], order = [1, 0]}>>
  %42 = "tt.broadcast"(%37) : (tensor<1x32xi32>) -> tensor<32x32xi32>
  %43 = "arith.addi"(%39, %41) <{overflowFlags = #arith.overflow<none>}> : (tensor<32x32xi32, #triton_gpu.blocked<{sizePerThread = [1, 1], threadsPerWarp = [1, 32], warpsPerCTA = [4, 1], order = [1, 0]}>>, tensor<32x32xi32, #triton_gpu.blocked<{sizePerThread = [1, 1], threadsPerWarp = [1, 32], warpsPerCTA = [4, 1], order = [1, 0]}>>) -> tensor<32x32xi32, #triton_gpu.blocked<{sizePerThread = [1, 1], threadsPerWarp = [1, 32], warpsPerCTA = [4, 1], order = [1, 0]}>>
  %44 = "arith.addi"(%40, %42) <{overflowFlags = #arith.overflow<none>}> : (tensor<32x32xi32>, tensor<32x32xi32>) -> tensor<32x32xi32>
  %45 = "tt.splat"(%arg0) : (!tt.ptr<f16>) -> tensor<32x32x!tt.ptr<f16>, #triton_gpu.blocked<{sizePerThread = [1, 1], threadsPerWarp = [1, 32], warpsPerCTA = [4, 1], order = [1, 0]}>>
  %46 = "tt.splat"(%arg0) : (!tt.ptr<f16>) -> tensor<32x32x!tt.ptr<f16>>
  %47 = "tt.addptr"(%45, %43) : (tensor<32x32x!tt.ptr<f16>, #triton_gpu.blocked<{sizePerThread = [1, 1], threadsPerWarp = [1, 32], warpsPerCTA = [4, 1], order = [1, 0]}>>, tensor<32x32xi32, #triton_gpu.blocked<{sizePerThread = [1, 1], threadsPerWarp = [1, 32], warpsPerCTA = [4, 1], order = [1, 0]}>>) -> tensor<32x32x!tt.ptr<f16>, #triton_gpu.blocked<{sizePerThread = [1, 1], threadsPerWarp = [1, 32], warpsPerCTA = [4, 1], order = [1, 0]}>>
  %48 = "tt.addptr"(%46, %44) : (tensor<32x32x!tt.ptr<f16>>, tensor<32x32xi32>) -> tensor<32x32x!tt.ptr<f16>>
  %49 = "triton_gpu.convert_layout"(%15) : (tensor<32xi32, #triton_gpu.blocked<{sizePerThread = [1], threadsPerWarp = [32], warpsPerCTA = [4], order = [0]}>>) -> tensor<32xi32, #triton_gpu.slice<{dim = 1, parent = #triton_gpu.blocked<{sizePerThread = [1, 1], threadsPerWarp = [32, 1], warpsPerCTA = [4, 1], order = [0, 1]}>}>>
  %50 = "tt.expand_dims"(%49) <{axis = 1 : i32}> : (tensor<32xi32, #triton_gpu.slice<{dim = 1, parent = #triton_gpu.blocked<{sizePerThread = [1, 1], threadsPerWarp = [32, 1], warpsPerCTA = [4, 1], order = [0, 1]}>}>>) -> tensor<32x1xi32, #triton_gpu.blocked<{sizePerThread = [1, 1], threadsPerWarp = [32, 1], warpsPerCTA = [4, 1], order = [0, 1]}>>
  %51 = "builtin.unrealized_conversion_cast"(%50) : (tensor<32x1xi32, #triton_gpu.blocked<{sizePerThread = [1, 1], threadsPerWarp = [32, 1], warpsPerCTA = [4, 1], order = [0, 1]}>>) -> tensor<32x1xi32, #triton_gpu.blocked<{sizePerThread = [1, 1], threadsPerWarp = [32, 1], warpsPerCTA = [4, 1], order = [1, 0]}>>
  %52 = "tt.expand_dims"(%16) <{axis = 1 : i32}> : (tensor<32xi32>) -> tensor<32x1xi32>
  %53 = "tt.splat"(%arg10) : (i32) -> tensor<32x1xi32, #triton_gpu.blocked<{sizePerThread = [1, 1], threadsPerWarp = [32, 1], warpsPerCTA = [4, 1], order = [1, 0]}>>
  %54 = "tt.splat"(%arg10) : (i32) -> tensor<32x1xi32>
  %55 = "arith.muli"(%51, %53) <{overflowFlags = #arith.overflow<none>}> : (tensor<32x1xi32, #triton_gpu.blocked<{sizePerThread = [1, 1], threadsPerWarp = [32, 1], warpsPerCTA = [4, 1], order = [1, 0]}>>, tensor<32x1xi32, #triton_gpu.blocked<{sizePerThread = [1, 1], threadsPerWarp = [32, 1], warpsPerCTA = [4, 1], order = [1, 0]}>>) -> tensor<32x1xi32, #triton_gpu.blocked<{sizePerThread = [1, 1], threadsPerWarp = [32, 1], warpsPerCTA = [4, 1], order = [1, 0]}>>
  %56 = "arith.muli"(%52, %54) <{overflowFlags = #arith.overflow<none>}> : (tensor<32x1xi32>, tensor<32x1xi32>) -> tensor<32x1xi32>
  %57 = "triton_gpu.convert_layout"(%24) : (tensor<32xi32, #triton_gpu.blocked<{sizePerThread = [1], threadsPerWarp = [32], warpsPerCTA = [4], order = [0]}>>) -> tensor<32xi32, #triton_gpu.slice<{dim = 0, parent = #triton_gpu.blocked<{sizePerThread = [1, 1], threadsPerWarp = [1, 32], warpsPerCTA = [1, 4], order = [0, 1]}>}>>
  %58 = "tt.expand_dims"(%57) <{axis = 0 : i32}> : (tensor<32xi32, #triton_gpu.slice<{dim = 0, parent = #triton_gpu.blocked<{sizePerThread = [1, 1], threadsPerWarp = [1, 32], warpsPerCTA = [1, 4], order = [0, 1]}>}>>) -> tensor<1x32xi32, #triton_gpu.blocked<{sizePerThread = [1, 1], threadsPerWarp = [1, 32], warpsPerCTA = [1, 4], order = [0, 1]}>>
  %59 = "builtin.unrealized_conversion_cast"(%58) : (tensor<1x32xi32, #triton_gpu.blocked<{sizePerThread = [1, 1], threadsPerWarp = [1, 32], warpsPerCTA = [1, 4], order = [0, 1]}>>) -> tensor<1x32xi32, #triton_gpu.blocked<{sizePerThread = [1, 1], threadsPerWarp = [1, 32], warpsPerCTA = [4, 1], order = [1, 0]}>>
  %60 = "tt.expand_dims"(%25) <{axis = 0 : i32}> : (tensor<32xi32>) -> tensor<1x32xi32>
  %61 = "tt.broadcast"(%55) : (tensor<32x1xi32, #triton_gpu.blocked<{sizePerThread = [1, 1], threadsPerWarp = [32, 1], warpsPerCTA = [4, 1], order = [1, 0]}>>) -> tensor<32x32xi32, #triton_gpu.blocked<{sizePerThread = [1, 1], threadsPerWarp = [32, 1], warpsPerCTA = [4, 1], order = [1, 0]}>>
  %62 = "builtin.unrealized_conversion_cast"(%61) : (tensor<32x32xi32, #triton_gpu.blocked<{sizePerThread = [1, 1], threadsPerWarp = [32, 1], warpsPerCTA = [4, 1], order = [1, 0]}>>) -> tensor<32x32xi32, #triton_gpu.blocked<{sizePerThread = [1, 1], threadsPerWarp = [1, 32], warpsPerCTA = [4, 1], order = [1, 0]}>>
  %63 = "tt.broadcast"(%56) : (tensor<32x1xi32>) -> tensor<32x32xi32>
  %64 = "tt.broadcast"(%59) : (tensor<1x32xi32, #triton_gpu.blocked<{sizePerThread = [1, 1], threadsPerWarp = [1, 32], warpsPerCTA = [4, 1], order = [1, 0]}>>) -> tensor<32x32xi32, #triton_gpu.blocked<{sizePerThread = [1, 1], threadsPerWarp = [1, 32], warpsPerCTA = [4, 1], order = [1, 0]}>>
  %65 = "tt.broadcast"(%60) : (tensor<1x32xi32>) -> tensor<32x32xi32>
  %66 = "arith.addi"(%62, %64) <{overflowFlags = #arith.overflow<none>}> : (tensor<32x32xi32, #triton_gpu.blocked<{sizePerThread = [1, 1], threadsPerWarp = [1, 32], warpsPerCTA = [4, 1], order = [1, 0]}>>, tensor<32x32xi32, #triton_gpu.blocked<{sizePerThread = [1, 1], threadsPerWarp = [1, 32], warpsPerCTA = [4, 1], order = [1, 0]}>>) -> tensor<32x32xi32, #triton_gpu.blocked<{sizePerThread = [1, 1], threadsPerWarp = [1, 32], warpsPerCTA = [4, 1], order = [1, 0]}>>
  %67 = "arith.addi"(%63, %65) <{overflowFlags = #arith.overflow<none>}> : (tensor<32x32xi32>, tensor<32x32xi32>) -> tensor<32x32xi32>
  %68 = "tt.splat"(%arg1) : (!tt.ptr<f16>) -> tensor<32x32x!tt.ptr<f16>, #triton_gpu.blocked<{sizePerThread = [1, 1], threadsPerWarp = [1, 32], warpsPerCTA = [4, 1], order = [1, 0]}>>
  %69 = "tt.splat"(%arg1) : (!tt.ptr<f16>) -> tensor<32x32x!tt.ptr<f16>>
  %70 = "tt.addptr"(%68, %66) : (tensor<32x32x!tt.ptr<f16>, #triton_gpu.blocked<{sizePerThread = [1, 1], threadsPerWarp = [1, 32], warpsPerCTA = [4, 1], order = [1, 0]}>>, tensor<32x32xi32, #triton_gpu.blocked<{sizePerThread = [1, 1], threadsPerWarp = [1, 32], warpsPerCTA = [4, 1], order = [1, 0]}>>) -> tensor<32x32x!tt.ptr<f16>, #triton_gpu.blocked<{sizePerThread = [1, 1], threadsPerWarp = [1, 32], warpsPerCTA = [4, 1], order = [1, 0]}>>
  %71 = "tt.addptr"(%69, %67) : (tensor<32x32x!tt.ptr<f16>>, tensor<32x32xi32>) -> tensor<32x32x!tt.ptr<f16>>
  %72 = "tt.splat"(%arg2) : (!tt.ptr<f16>) -> tensor<32x!tt.ptr<f16>, #triton_gpu.blocked<{sizePerThread = [1], threadsPerWarp = [32], warpsPerCTA = [4], order = [0]}>>
  %73 = "tt.splat"(%arg2) : (!tt.ptr<f16>) -> tensor<32x!tt.ptr<f16>>
  %74 = "tt.addptr"(%72, %24) : (tensor<32x!tt.ptr<f16>, #triton_gpu.blocked<{sizePerThread = [1], threadsPerWarp = [32], warpsPerCTA = [4], order = [0]}>>, tensor<32xi32, #triton_gpu.blocked<{sizePerThread = [1], threadsPerWarp = [32], warpsPerCTA = [4], order = [0]}>>) -> tensor<32x!tt.ptr<f16>, #triton_gpu.blocked<{sizePerThread = [1], threadsPerWarp = [32], warpsPerCTA = [4], order = [0]}>>
  %75 = "tt.addptr"(%73, %25) : (tensor<32x!tt.ptr<f16>>, tensor<32xi32>) -> tensor<32x!tt.ptr<f16>>
  %76 = "arith.addi"(%arg8, %0) <{overflowFlags = #arith.overflow<none>}> : (i32, i32) -> i32
  %77 = "arith.divsi"(%76, %11) : (i32, i32) -> i32
  %78 = "tt.splat"(%arg6) : (i32) -> tensor<32x1xi32, #triton_gpu.blocked<{sizePerThread = [1, 1], threadsPerWarp = [32, 1], warpsPerCTA = [4, 1], order = [1, 0]}>>
  %79 = "tt.splat"(%arg6) : (i32) -> tensor<32x1xi32>
  %80 = "arith.cmpi"(%28, %78) <{predicate = 2 : i64}> : (tensor<32x1xi32, #triton_gpu.blocked<{sizePerThread = [1, 1], threadsPerWarp = [32, 1], warpsPerCTA = [4, 1], order = [1, 0]}>>, tensor<32x1xi32, #triton_gpu.blocked<{sizePerThread = [1, 1], threadsPerWarp = [32, 1], warpsPerCTA = [4, 1], order = [1, 0]}>>) -> tensor<32x1xi1, #triton_gpu.blocked<{sizePerThread = [1, 1], threadsPerWarp = [32, 1], warpsPerCTA = [4, 1], order = [1, 0]}>>
  %81 = "arith.cmpi"(%29, %79) <{predicate = 2 : i64}> : (tensor<32x1xi32>, tensor<32x1xi32>) -> tensor<32x1xi1>
  %82 = "tt.broadcast"(%80) : (tensor<32x1xi1, #triton_gpu.blocked<{sizePerThread = [1, 1], threadsPerWarp = [32, 1], warpsPerCTA = [4, 1], order = [1, 0]}>>) -> tensor<32x32xi1, #triton_gpu.blocked<{sizePerThread = [1, 1], threadsPerWarp = [32, 1], warpsPerCTA = [4, 1], order = [1, 0]}>>
  %83 = "builtin.unrealized_conversion_cast"(%82) : (tensor<32x32xi1, #triton_gpu.blocked<{sizePerThread = [1, 1], threadsPerWarp = [32, 1], warpsPerCTA = [4, 1], order = [1, 0]}>>) -> tensor<32x32xi1, #triton_gpu.blocked<{sizePerThread = [1, 1], threadsPerWarp = [1, 32], warpsPerCTA = [4, 1], order = [1, 0]}>>
  %84 = "tt.broadcast"(%81) : (tensor<32x1xi1>) -> tensor<32x32xi1>
  %85 = "tt.splat"(%arg7) : (i32) -> tensor<1x32xi32, #triton_gpu.blocked<{sizePerThread = [1, 1], threadsPerWarp = [1, 32], warpsPerCTA = [4, 1], order = [1, 0]}>>
  %86 = "tt.splat"(%arg7) : (i32) -> tensor<1x32xi32>
  %87 = "arith.cmpi"(%59, %85) <{predicate = 2 : i64}> : (tensor<1x32xi32, #triton_gpu.blocked<{sizePerThread = [1, 1], threadsPerWarp = [1, 32], warpsPerCTA = [4, 1], order = [1, 0]}>>, tensor<1x32xi32, #triton_gpu.blocked<{sizePerThread = [1, 1], threadsPerWarp = [1, 32], warpsPerCTA = [4, 1], order = [1, 0]}>>) -> tensor<1x32xi1, #triton_gpu.blocked<{sizePerThread = [1, 1], threadsPerWarp = [1, 32], warpsPerCTA = [4, 1], order = [1, 0]}>>
  %88 = "arith.cmpi"(%60, %86) <{predicate = 2 : i64}> : (tensor<1x32xi32>, tensor<1x32xi32>) -> tensor<1x32xi1>
  %89 = "tt.broadcast"(%87) : (tensor<1x32xi1, #triton_gpu.blocked<{sizePerThread = [1, 1], threadsPerWarp = [1, 32], warpsPerCTA = [4, 1], order = [1, 0]}>>) -> tensor<32x32xi1, #triton_gpu.blocked<{sizePerThread = [1, 1], threadsPerWarp = [1, 32], warpsPerCTA = [4, 1], order = [1, 0]}>>
  %90 = "tt.broadcast"(%88) : (tensor<1x32xi1>) -> tensor<32x32xi1>
  %91 = "arith.muli"(%arg10, %11) <{overflowFlags = #arith.overflow<none>}> : (i32, i32) -> i32
  %92 = "tt.splat"(%91) : (i32) -> tensor<32x32xi32, #triton_gpu.blocked<{sizePerThread = [1, 1], threadsPerWarp = [1, 32], warpsPerCTA = [4, 1], order = [1, 0]}>>
  %93 = "tt.splat"(%91) : (i32) -> tensor<32x32xi32>
  %94:3 = "scf.for"(%6, %77, %5, %9, %47, %70) ({
  ^bb0(%arg12: i32, %arg13: tensor<32x32xf32, #triton_gpu.blocked<{sizePerThread = [1, 1], threadsPerWarp = [1, 32], warpsPerCTA = [4, 1], order = [1, 0]}>>, %arg14: tensor<32x32x!tt.ptr<f16>, #triton_gpu.blocked<{sizePerThread = [1, 1], threadsPerWarp = [1, 32], warpsPerCTA = [4, 1], order = [1, 0]}>>, %arg15: tensor<32x32x!tt.ptr<f16>, #triton_gpu.blocked<{sizePerThread = [1, 1], threadsPerWarp = [1, 32], warpsPerCTA = [4, 1], order = [1, 0]}>>):
    %152 = "builtin.unrealized_conversion_cast"(%arg15) : (tensor<32x32x!tt.ptr<f16>, #triton_gpu.blocked<{sizePerThread = [1, 1], threadsPerWarp = [1, 32], warpsPerCTA = [4, 1], order = [1, 0]}>>) -> tensor<32x32x!tt.ptr<f16>>
    %153 = "builtin.unrealized_conversion_cast"(%152) : (tensor<32x32x!tt.ptr<f16>>) -> tensor<32x32x!tt.ptr<f16>, #triton_gpu.blocked<{sizePerThread = [1, 1], threadsPerWarp = [1, 32], warpsPerCTA = [4, 1], order = [1, 0]}>>
    %154 = "builtin.unrealized_conversion_cast"(%arg14) : (tensor<32x32x!tt.ptr<f16>, #triton_gpu.blocked<{sizePerThread = [1, 1], threadsPerWarp = [1, 32], warpsPerCTA = [4, 1], order = [1, 0]}>>) -> tensor<32x32x!tt.ptr<f16>>
    %155 = "builtin.unrealized_conversion_cast"(%154) : (tensor<32x32x!tt.ptr<f16>>) -> tensor<32x32x!tt.ptr<f16>, #triton_gpu.blocked<{sizePerThread = [1, 1], threadsPerWarp = [1, 32], warpsPerCTA = [4, 1], order = [1, 0]}>>
    %156 = "builtin.unrealized_conversion_cast"(%arg13) : (tensor<32x32xf32, #triton_gpu.blocked<{sizePerThread = [1, 1], threadsPerWarp = [1, 32], warpsPerCTA = [4, 1], order = [1, 0]}>>) -> tensor<32x32xf32>
    %157 = "builtin.unrealized_conversion_cast"(%156) : (tensor<32x32xf32>) -> tensor<32x32xf32, #triton_gpu.blocked<{sizePerThread = [1, 1], threadsPerWarp = [1, 32], warpsPerCTA = [4, 1], order = [1, 0]}>>
    %158 = "arith.muli"(<<UNKNOWN SSA VALUE>>, %11) <{overflowFlags = #arith.overflow<none>}> : (i32, i32) -> i32
    %159 = "arith.subi"(%arg8, %158) <{overflowFlags = #arith.overflow<none>}> : (i32, i32) -> i32
    %160 = "tt.splat"(%159) : (i32) -> tensor<1x32xi32, #triton_gpu.blocked<{sizePerThread = [1, 1], threadsPerWarp = [1, 32], warpsPerCTA = [4, 1], order = [1, 0]}>>
    %161 = "tt.splat"(%159) : (i32) -> tensor<1x32xi32>
    %162 = "arith.cmpi"(%36, %160) <{predicate = 2 : i64}> : (tensor<1x32xi32, #triton_gpu.blocked<{sizePerThread = [1, 1], threadsPerWarp = [1, 32], warpsPerCTA = [4, 1], order = [1, 0]}>>, tensor<1x32xi32, #triton_gpu.blocked<{sizePerThread = [1, 1], threadsPerWarp = [1, 32], warpsPerCTA = [4, 1], order = [1, 0]}>>) -> tensor<1x32xi1, #triton_gpu.blocked<{sizePerThread = [1, 1], threadsPerWarp = [1, 32], warpsPerCTA = [4, 1], order = [1, 0]}>>
    %163 = "arith.cmpi"(%37, %161) <{predicate = 2 : i64}> : (tensor<1x32xi32>, tensor<1x32xi32>) -> tensor<1x32xi1>
    %164 = "tt.broadcast"(%162) : (tensor<1x32xi1, #triton_gpu.blocked<{sizePerThread = [1, 1], threadsPerWarp = [1, 32], warpsPerCTA = [4, 1], order = [1, 0]}>>) -> tensor<32x32xi1, #triton_gpu.blocked<{sizePerThread = [1, 1], threadsPerWarp = [1, 32], warpsPerCTA = [4, 1], order = [1, 0]}>>
    %165 = "tt.broadcast"(%163) : (tensor<1x32xi1>) -> tensor<32x32xi1>
    %166 = "arith.andi"(%83, %164) : (tensor<32x32xi1, #triton_gpu.blocked<{sizePerThread = [1, 1], threadsPerWarp = [1, 32], warpsPerCTA = [4, 1], order = [1, 0]}>>, tensor<32x32xi1, #triton_gpu.blocked<{sizePerThread = [1, 1], threadsPerWarp = [1, 32], warpsPerCTA = [4, 1], order = [1, 0]}>>) -> tensor<32x32xi1, #triton_gpu.blocked<{sizePerThread = [1, 1], threadsPerWarp = [1, 32], warpsPerCTA = [4, 1], order = [1, 0]}>>
    %167 = "arith.andi"(%84, %165) : (tensor<32x32xi1>, tensor<32x32xi1>) -> tensor<32x32xi1>
    %168 = "tt.load"(%155, %166, %3) <{boundaryCheck = array<i32>, cache = 1 : i32, evict = 1 : i32, isVolatile = false, operandSegmentSizes = array<i32: 1, 1, 1>}> : (tensor<32x32x!tt.ptr<f16>, #triton_gpu.blocked<{sizePerThread = [1, 1], threadsPerWarp = [1, 32], warpsPerCTA = [4, 1], order = [1, 0]}>>, tensor<32x32xi1, #triton_gpu.blocked<{sizePerThread = [1, 1], threadsPerWarp = [1, 32], warpsPerCTA = [4, 1], order = [1, 0]}>>, tensor<32x32xf16, #triton_gpu.blocked<{sizePerThread = [1, 1], threadsPerWarp = [1, 32], warpsPerCTA = [4, 1], order = [1, 0]}>>) -> tensor<32x32xf16, #triton_gpu.blocked<{sizePerThread = [1, 1], threadsPerWarp = [1, 32], warpsPerCTA = [4, 1], order = [1, 0]}>>
    %169 = "tt.load"(<<UNKNOWN SSA VALUE>>, %167, %4) <{boundaryCheck = array<i32>, cache = 1 : i32, evict = 1 : i32, isVolatile = false, operandSegmentSizes = array<i32: 1, 1, 1>}> : (tensor<32x32x!tt.ptr<f16>>, tensor<32x32xi1>, tensor<32x32xf16>) -> tensor<32x32xf16>
    %170 = "tt.splat"(%159) : (i32) -> tensor<32x1xi32, #triton_gpu.blocked<{sizePerThread = [1, 1], threadsPerWarp = [32, 1], warpsPerCTA = [4, 1], order = [1, 0]}>>
    %171 = "tt.splat"(%159) : (i32) -> tensor<32x1xi32>
    %172 = "arith.cmpi"(%51, %170) <{predicate = 2 : i64}> : (tensor<32x1xi32, #triton_gpu.blocked<{sizePerThread = [1, 1], threadsPerWarp = [32, 1], warpsPerCTA = [4, 1], order = [1, 0]}>>, tensor<32x1xi32, #triton_gpu.blocked<{sizePerThread = [1, 1], threadsPerWarp = [32, 1], warpsPerCTA = [4, 1], order = [1, 0]}>>) -> tensor<32x1xi1, #triton_gpu.blocked<{sizePerThread = [1, 1], threadsPerWarp = [32, 1], warpsPerCTA = [4, 1], order = [1, 0]}>>
    %173 = "arith.cmpi"(%52, %171) <{predicate = 2 : i64}> : (tensor<32x1xi32>, tensor<32x1xi32>) -> tensor<32x1xi1>
    %174 = "tt.broadcast"(%172) : (tensor<32x1xi1, #triton_gpu.blocked<{sizePerThread = [1, 1], threadsPerWarp = [32, 1], warpsPerCTA = [4, 1], order = [1, 0]}>>) -> tensor<32x32xi1, #triton_gpu.blocked<{sizePerThread = [1, 1], threadsPerWarp = [32, 1], warpsPerCTA = [4, 1], order = [1, 0]}>>
    %175 = "builtin.unrealized_conversion_cast"(%174) : (tensor<32x32xi1, #triton_gpu.blocked<{sizePerThread = [1, 1], threadsPerWarp = [32, 1], warpsPerCTA = [4, 1], order = [1, 0]}>>) -> tensor<32x32xi1, #triton_gpu.blocked<{sizePerThread = [1, 1], threadsPerWarp = [1, 32], warpsPerCTA = [4, 1], order = [1, 0]}>>
    %176 = "tt.broadcast"(%173) : (tensor<32x1xi1>) -> tensor<32x32xi1>
    %177 = "arith.andi"(%175, %89) : (tensor<32x32xi1, #triton_gpu.blocked<{sizePerThread = [1, 1], threadsPerWarp = [1, 32], warpsPerCTA = [4, 1], order = [1, 0]}>>, tensor<32x32xi1, #triton_gpu.blocked<{sizePerThread = [1, 1], threadsPerWarp = [1, 32], warpsPerCTA = [4, 1], order = [1, 0]}>>) -> tensor<32x32xi1, #triton_gpu.blocked<{sizePerThread = [1, 1], threadsPerWarp = [1, 32], warpsPerCTA = [4, 1], order = [1, 0]}>>
    %178 = "arith.andi"(%176, %90) : (tensor<32x32xi1>, tensor<32x32xi1>) -> tensor<32x32xi1>
    %179 = "tt.load"(%153, %177, %3) <{boundaryCheck = array<i32>, cache = 1 : i32, evict = 1 : i32, isVolatile = false, operandSegmentSizes = array<i32: 1, 1, 1>}> : (tensor<32x32x!tt.ptr<f16>, #triton_gpu.blocked<{sizePerThread = [1, 1], threadsPerWarp = [1, 32], warpsPerCTA = [4, 1], order = [1, 0]}>>, tensor<32x32xi1, #triton_gpu.blocked<{sizePerThread = [1, 1], threadsPerWarp = [1, 32], warpsPerCTA = [4, 1], order = [1, 0]}>>, tensor<32x32xf16, #triton_gpu.blocked<{sizePerThread = [1, 1], threadsPerWarp = [1, 32], warpsPerCTA = [4, 1], order = [1, 0]}>>) -> tensor<32x32xf16, #triton_gpu.blocked<{sizePerThread = [1, 1], threadsPerWarp = [1, 32], warpsPerCTA = [4, 1], order = [1, 0]}>>
    %180 = "tt.load"(<<UNKNOWN SSA VALUE>>, %178, %4) <{boundaryCheck = array<i32>, cache = 1 : i32, evict = 1 : i32, isVolatile = false, operandSegmentSizes = array<i32: 1, 1, 1>}> : (tensor<32x32x!tt.ptr<f16>>, tensor<32x32xi1>, tensor<32x32xf16>) -> tensor<32x32xf16>
    %181 = "triton_gpu.convert_layout"(%168) : (tensor<32x32xf16, #triton_gpu.blocked<{sizePerThread = [1, 1], threadsPerWarp = [1, 32], warpsPerCTA = [4, 1], order = [1, 0]}>>) -> tensor<32x32xf16, #triton_gpu.dot_op<{opIdx = 0, parent = #triton_gpu.blocked<{sizePerThread = [2, 2], threadsPerWarp = [2, 16], warpsPerCTA = [4, 1], order = [1, 0]}>}>>
    %182 = "triton_gpu.convert_layout"(%179) : (tensor<32x32xf16, #triton_gpu.blocked<{sizePerThread = [1, 1], threadsPerWarp = [1, 32], warpsPerCTA = [4, 1], order = [1, 0]}>>) -> tensor<32x32xf16, #triton_gpu.dot_op<{opIdx = 1, parent = #triton_gpu.blocked<{sizePerThread = [2, 2], threadsPerWarp = [2, 16], warpsPerCTA = [4, 1], order = [1, 0]}>}>>
    %183 = "triton_gpu.convert_layout"(%157) : (tensor<32x32xf32, #triton_gpu.blocked<{sizePerThread = [1, 1], threadsPerWarp = [1, 32], warpsPerCTA = [4, 1], order = [1, 0]}>>) -> tensor<32x32xf32, #triton_gpu.blocked<{sizePerThread = [2, 2], threadsPerWarp = [2, 16], warpsPerCTA = [4, 1], order = [1, 0]}>>
    %184 = "tt.dot"(%181, %182, %183) <{inputPrecision = 2 : i32, maxNumImpreciseAcc = 0 : i32}> : (tensor<32x32xf16, #triton_gpu.dot_op<{opIdx = 0, parent = #triton_gpu.blocked<{sizePerThread = [2, 2], threadsPerWarp = [2, 16], warpsPerCTA = [4, 1], order = [1, 0]}>}>>, tensor<32x32xf16, #triton_gpu.dot_op<{opIdx = 1, parent = #triton_gpu.blocked<{sizePerThread = [2, 2], threadsPerWarp = [2, 16], warpsPerCTA = [4, 1], order = [1, 0]}>}>>, tensor<32x32xf32, #triton_gpu.blocked<{sizePerThread = [2, 2], threadsPerWarp = [2, 16], warpsPerCTA = [4, 1], order = [1, 0]}>>) -> tensor<32x32xf32, #triton_gpu.blocked<{sizePerThread = [2, 2], threadsPerWarp = [2, 16], warpsPerCTA = [4, 1], order = [1, 0]}>>
    %185 = "builtin.unrealized_conversion_cast"(%184) : (tensor<32x32xf32, #triton_gpu.blocked<{sizePerThread = [2, 2], threadsPerWarp = [2, 16], warpsPerCTA = [4, 1], order = [1, 0]}>>) -> tensor<32x32xf32, #triton_gpu.blocked<{sizePerThread = [1, 1], threadsPerWarp = [1, 32], warpsPerCTA = [4, 1], order = [1, 0]}>>
    %186 = "tt.dot"(%169, %180, <<UNKNOWN SSA VALUE>>) <{inputPrecision = 2 : i32, maxNumImpreciseAcc = 0 : i32}> : (tensor<32x32xf16>, tensor<32x32xf16>, tensor<32x32xf32>) -> tensor<32x32xf32>
    %187 = "tt.addptr"(%155, %7) : (tensor<32x32x!tt.ptr<f16>, #triton_gpu.blocked<{sizePerThread = [1, 1], threadsPerWarp = [1, 32], warpsPerCTA = [4, 1], order = [1, 0]}>>, tensor<32x32xi32, #triton_gpu.blocked<{sizePerThread = [1, 1], threadsPerWarp = [1, 32], warpsPerCTA = [4, 1], order = [1, 0]}>>) -> tensor<32x32x!tt.ptr<f16>, #triton_gpu.blocked<{sizePerThread = [1, 1], threadsPerWarp = [1, 32], warpsPerCTA = [4, 1], order = [1, 0]}>>
    %188 = "tt.addptr"(<<UNKNOWN SSA VALUE>>, %8) : (tensor<32x32x!tt.ptr<f16>>, tensor<32x32xi32>) -> tensor<32x32x!tt.ptr<f16>>
    %189 = "tt.addptr"(%153, %92) : (tensor<32x32x!tt.ptr<f16>, #triton_gpu.blocked<{sizePerThread = [1, 1], threadsPerWarp = [1, 32], warpsPerCTA = [4, 1], order = [1, 0]}>>, tensor<32x32xi32, #triton_gpu.blocked<{sizePerThread = [1, 1], threadsPerWarp = [1, 32], warpsPerCTA = [4, 1], order = [1, 0]}>>) -> tensor<32x32x!tt.ptr<f16>, #triton_gpu.blocked<{sizePerThread = [1, 1], threadsPerWarp = [1, 32], warpsPerCTA = [4, 1], order = [1, 0]}>>
    %190 = "tt.addptr"(<<UNKNOWN SSA VALUE>>, %93) : (tensor<32x32x!tt.ptr<f16>>, tensor<32x32xi32>) -> tensor<32x32x!tt.ptr<f16>>
    "scf.yield"(%185, %187, %189) : (tensor<32x32xf32, #triton_gpu.blocked<{sizePerThread = [1, 1], threadsPerWarp = [1, 32], warpsPerCTA = [4, 1], order = [1, 0]}>>, tensor<32x32x!tt.ptr<f16>, #triton_gpu.blocked<{sizePerThread = [1, 1], threadsPerWarp = [1, 32], warpsPerCTA = [4, 1], order = [1, 0]}>>, tensor<32x32x!tt.ptr<f16>, #triton_gpu.blocked<{sizePerThread = [1, 1], threadsPerWarp = [1, 32], warpsPerCTA = [4, 1], order = [1, 0]}>>) -> ()
    "scf.yield"(%186, %188, %190) : (tensor<32x32xf32>, tensor<32x32x!tt.ptr<f16>>, tensor<32x32x!tt.ptr<f16>>) -> ()
  }) : (i32, i32, i32, tensor<32x32xf32, #triton_gpu.blocked<{sizePerThread = [1, 1], threadsPerWarp = [1, 32], warpsPerCTA = [4, 1], order = [1, 0]}>>, tensor<32x32x!tt.ptr<f16>, #triton_gpu.blocked<{sizePerThread = [1, 1], threadsPerWarp = [1, 32], warpsPerCTA = [4, 1], order = [1, 0]}>>, tensor<32x32x!tt.ptr<f16>, #triton_gpu.blocked<{sizePerThread = [1, 1], threadsPerWarp = [1, 32], warpsPerCTA = [4, 1], order = [1, 0]}>>) -> (tensor<32x32xf32, #triton_gpu.blocked<{sizePerThread = [1, 1], threadsPerWarp = [1, 32], warpsPerCTA = [4, 1], order = [1, 0]}>>, tensor<32x32x!tt.ptr<f16>, #triton_gpu.blocked<{sizePerThread = [1, 1], threadsPerWarp = [1, 32], warpsPerCTA = [4, 1], order = [1, 0]}>>, tensor<32x32x!tt.ptr<f16>, #triton_gpu.blocked<{sizePerThread = [1, 1], threadsPerWarp = [1, 32], warpsPerCTA = [4, 1], order = [1, 0]}>>)
  %95:3 = "scf.for"(%6, %77, %5, %10, %48, %71) ({
  }) : (i32, i32, i32, tensor<32x32xf32>, tensor<32x32x!tt.ptr<f16>>, tensor<32x32x!tt.ptr<f16>>) -> (tensor<32x32xf32>, tensor<32x32x!tt.ptr<f16>>, tensor<32x32x!tt.ptr<f16>>)
  %96 = "tt.splat"(%arg7) : (i32) -> tensor<32xi32, #triton_gpu.blocked<{sizePerThread = [1], threadsPerWarp = [32], warpsPerCTA = [4], order = [0]}>>
  %97 = "tt.splat"(%arg7) : (i32) -> tensor<32xi32>
  %98 = "arith.cmpi"(%24, %96) <{predicate = 2 : i64}> : (tensor<32xi32, #triton_gpu.blocked<{sizePerThread = [1], threadsPerWarp = [32], warpsPerCTA = [4], order = [0]}>>, tensor<32xi32, #triton_gpu.blocked<{sizePerThread = [1], threadsPerWarp = [32], warpsPerCTA = [4], order = [0]}>>) -> tensor<32xi1, #triton_gpu.blocked<{sizePerThread = [1], threadsPerWarp = [32], warpsPerCTA = [4], order = [0]}>>
  %99 = "arith.cmpi"(%25, %97) <{predicate = 2 : i64}> : (tensor<32xi32>, tensor<32xi32>) -> tensor<32xi1>
  %100 = "tt.load"(%74, %98, %1) <{boundaryCheck = array<i32>, cache = 1 : i32, evict = 1 : i32, isVolatile = false, operandSegmentSizes = array<i32: 1, 1, 1>}> : (tensor<32x!tt.ptr<f16>, #triton_gpu.blocked<{sizePerThread = [1], threadsPerWarp = [32], warpsPerCTA = [4], order = [0]}>>, tensor<32xi1, #triton_gpu.blocked<{sizePerThread = [1], threadsPerWarp = [32], warpsPerCTA = [4], order = [0]}>>, tensor<32xf16, #triton_gpu.blocked<{sizePerThread = [1], threadsPerWarp = [32], warpsPerCTA = [4], order = [0]}>>) -> tensor<32xf16, #triton_gpu.blocked<{sizePerThread = [1], threadsPerWarp = [32], warpsPerCTA = [4], order = [0]}>>
  %101 = "tt.load"(%75, %99, %2) <{boundaryCheck = array<i32>, cache = 1 : i32, evict = 1 : i32, isVolatile = false, operandSegmentSizes = array<i32: 1, 1, 1>}> : (tensor<32x!tt.ptr<f16>>, tensor<32xi1>, tensor<32xf16>) -> tensor<32xf16>
  %102 = "arith.sitofp"(%arg4) : (i32) -> f32
  %103 = "tt.splat"(%102) : (f32) -> tensor<32x32xf32, #triton_gpu.blocked<{sizePerThread = [1, 1], threadsPerWarp = [1, 32], warpsPerCTA = [4, 1], order = [1, 0]}>>
  %104 = "tt.splat"(%102) : (f32) -> tensor<32x32xf32>
  %105 = "arith.mulf"(%94#0, %103) <{fastmath = #arith.fastmath<none>}> : (tensor<32x32xf32, #triton_gpu.blocked<{sizePerThread = [1, 1], threadsPerWarp = [1, 32], warpsPerCTA = [4, 1], order = [1, 0]}>>, tensor<32x32xf32, #triton_gpu.blocked<{sizePerThread = [1, 1], threadsPerWarp = [1, 32], warpsPerCTA = [4, 1], order = [1, 0]}>>) -> tensor<32x32xf32, #triton_gpu.blocked<{sizePerThread = [1, 1], threadsPerWarp = [1, 32], warpsPerCTA = [4, 1], order = [1, 0]}>>
  %106 = "arith.mulf"(%95#0, %104) <{fastmath = #arith.fastmath<none>}> : (tensor<32x32xf32>, tensor<32x32xf32>) -> tensor<32x32xf32>
  %107 = "arith.sitofp"(%arg5) : (i32) -> f16
  %108 = "tt.splat"(%107) : (f16) -> tensor<32xf16, #triton_gpu.blocked<{sizePerThread = [1], threadsPerWarp = [32], warpsPerCTA = [4], order = [0]}>>
  %109 = "tt.splat"(%107) : (f16) -> tensor<32xf16>
  %110 = "arith.mulf"(%100, %108) <{fastmath = #arith.fastmath<none>}> : (tensor<32xf16, #triton_gpu.blocked<{sizePerThread = [1], threadsPerWarp = [32], warpsPerCTA = [4], order = [0]}>>, tensor<32xf16, #triton_gpu.blocked<{sizePerThread = [1], threadsPerWarp = [32], warpsPerCTA = [4], order = [0]}>>) -> tensor<32xf16, #triton_gpu.blocked<{sizePerThread = [1], threadsPerWarp = [32], warpsPerCTA = [4], order = [0]}>>
  %111 = "arith.mulf"(%101, %109) <{fastmath = #arith.fastmath<none>}> : (tensor<32xf16>, tensor<32xf16>) -> tensor<32xf16>
  %112 = "triton_gpu.convert_layout"(%110) : (tensor<32xf16, #triton_gpu.blocked<{sizePerThread = [1], threadsPerWarp = [32], warpsPerCTA = [4], order = [0]}>>) -> tensor<32xf16, #triton_gpu.slice<{dim = 0, parent = #triton_gpu.blocked<{sizePerThread = [1, 1], threadsPerWarp = [1, 32], warpsPerCTA = [1, 4], order = [0, 1]}>}>>
  %113 = "tt.expand_dims"(%112) <{axis = 0 : i32}> : (tensor<32xf16, #triton_gpu.slice<{dim = 0, parent = #triton_gpu.blocked<{sizePerThread = [1, 1], threadsPerWarp = [1, 32], warpsPerCTA = [1, 4], order = [0, 1]}>}>>) -> tensor<1x32xf16, #triton_gpu.blocked<{sizePerThread = [1, 1], threadsPerWarp = [1, 32], warpsPerCTA = [1, 4], order = [0, 1]}>>
  %114 = "builtin.unrealized_conversion_cast"(%113) : (tensor<1x32xf16, #triton_gpu.blocked<{sizePerThread = [1, 1], threadsPerWarp = [1, 32], warpsPerCTA = [1, 4], order = [0, 1]}>>) -> tensor<1x32xf16, #triton_gpu.blocked<{sizePerThread = [1, 1], threadsPerWarp = [1, 32], warpsPerCTA = [4, 1], order = [1, 0]}>>
  %115 = "tt.expand_dims"(%111) <{axis = 0 : i32}> : (tensor<32xf16>) -> tensor<1x32xf16>
  %116 = "arith.extf"(%114) : (tensor<1x32xf16, #triton_gpu.blocked<{sizePerThread = [1, 1], threadsPerWarp = [1, 32], warpsPerCTA = [4, 1], order = [1, 0]}>>) -> tensor<1x32xf32, #triton_gpu.blocked<{sizePerThread = [1, 1], threadsPerWarp = [1, 32], warpsPerCTA = [4, 1], order = [1, 0]}>>
  %117 = "arith.extf"(%115) : (tensor<1x32xf16>) -> tensor<1x32xf32>
  %118 = "tt.broadcast"(%116) : (tensor<1x32xf32, #triton_gpu.blocked<{sizePerThread = [1, 1], threadsPerWarp = [1, 32], warpsPerCTA = [4, 1], order = [1, 0]}>>) -> tensor<32x32xf32, #triton_gpu.blocked<{sizePerThread = [1, 1], threadsPerWarp = [1, 32], warpsPerCTA = [4, 1], order = [1, 0]}>>
  %119 = "tt.broadcast"(%117) : (tensor<1x32xf32>) -> tensor<32x32xf32>
  %120 = "arith.addf"(%105, %118) <{fastmath = #arith.fastmath<none>}> : (tensor<32x32xf32, #triton_gpu.blocked<{sizePerThread = [1, 1], threadsPerWarp = [1, 32], warpsPerCTA = [4, 1], order = [1, 0]}>>, tensor<32x32xf32, #triton_gpu.blocked<{sizePerThread = [1, 1], threadsPerWarp = [1, 32], warpsPerCTA = [4, 1], order = [1, 0]}>>) -> tensor<32x32xf32, #triton_gpu.blocked<{sizePerThread = [1, 1], threadsPerWarp = [1, 32], warpsPerCTA = [4, 1], order = [1, 0]}>>
  %121 = "arith.addf"(%106, %119) <{fastmath = #arith.fastmath<none>}> : (tensor<32x32xf32>, tensor<32x32xf32>) -> tensor<32x32xf32>
  %122 = "arith.truncf"(%120) : (tensor<32x32xf32, #triton_gpu.blocked<{sizePerThread = [1, 1], threadsPerWarp = [1, 32], warpsPerCTA = [4, 1], order = [1, 0]}>>) -> tensor<32x32xf16, #triton_gpu.blocked<{sizePerThread = [1, 1], threadsPerWarp = [1, 32], warpsPerCTA = [4, 1], order = [1, 0]}>>
  %123 = "arith.truncf"(%121) : (tensor<32x32xf32>) -> tensor<32x32xf16>
  %124 = "tt.splat"(%arg11) : (i32) -> tensor<32x1xi32, #triton_gpu.blocked<{sizePerThread = [1, 1], threadsPerWarp = [32, 1], warpsPerCTA = [4, 1], order = [1, 0]}>>
  %125 = "tt.splat"(%arg11) : (i32) -> tensor<32x1xi32>
  %126 = "arith.muli"(%124, %28) <{overflowFlags = #arith.overflow<none>}> : (tensor<32x1xi32, #triton_gpu.blocked<{sizePerThread = [1, 1], threadsPerWarp = [32, 1], warpsPerCTA = [4, 1], order = [1, 0]}>>, tensor<32x1xi32, #triton_gpu.blocked<{sizePerThread = [1, 1], threadsPerWarp = [32, 1], warpsPerCTA = [4, 1], order = [1, 0]}>>) -> tensor<32x1xi32, #triton_gpu.blocked<{sizePerThread = [1, 1], threadsPerWarp = [32, 1], warpsPerCTA = [4, 1], order = [1, 0]}>>
  %127 = "arith.muli"(%125, %29) <{overflowFlags = #arith.overflow<none>}> : (tensor<32x1xi32>, tensor<32x1xi32>) -> tensor<32x1xi32>
  %128 = "tt.splat"(%arg3) : (!tt.ptr<f16>) -> tensor<32x1x!tt.ptr<f16>, #triton_gpu.blocked<{sizePerThread = [1, 1], threadsPerWarp = [32, 1], warpsPerCTA = [4, 1], order = [1, 0]}>>
  %129 = "tt.splat"(%arg3) : (!tt.ptr<f16>) -> tensor<32x1x!tt.ptr<f16>>
  %130 = "tt.addptr"(%128, %126) : (tensor<32x1x!tt.ptr<f16>, #triton_gpu.blocked<{sizePerThread = [1, 1], threadsPerWarp = [32, 1], warpsPerCTA = [4, 1], order = [1, 0]}>>, tensor<32x1xi32, #triton_gpu.blocked<{sizePerThread = [1, 1], threadsPerWarp = [32, 1], warpsPerCTA = [4, 1], order = [1, 0]}>>) -> tensor<32x1x!tt.ptr<f16>, #triton_gpu.blocked<{sizePerThread = [1, 1], threadsPerWarp = [32, 1], warpsPerCTA = [4, 1], order = [1, 0]}>>
  %131 = "tt.addptr"(%129, %127) : (tensor<32x1x!tt.ptr<f16>>, tensor<32x1xi32>) -> tensor<32x1x!tt.ptr<f16>>
  %132 = "tt.broadcast"(%130) : (tensor<32x1x!tt.ptr<f16>, #triton_gpu.blocked<{sizePerThread = [1, 1], threadsPerWarp = [32, 1], warpsPerCTA = [4, 1], order = [1, 0]}>>) -> tensor<32x32x!tt.ptr<f16>, #triton_gpu.blocked<{sizePerThread = [1, 1], threadsPerWarp = [32, 1], warpsPerCTA = [4, 1], order = [1, 0]}>>
  %133 = "builtin.unrealized_conversion_cast"(%132) : (tensor<32x32x!tt.ptr<f16>, #triton_gpu.blocked<{sizePerThread = [1, 1], threadsPerWarp = [32, 1], warpsPerCTA = [4, 1], order = [1, 0]}>>) -> tensor<32x32x!tt.ptr<f16>, #triton_gpu.blocked<{sizePerThread = [1, 1], threadsPerWarp = [1, 32], warpsPerCTA = [4, 1], order = [1, 0]}>>
  %134 = "tt.broadcast"(%131) : (tensor<32x1x!tt.ptr<f16>>) -> tensor<32x32x!tt.ptr<f16>>
  %135 = "tt.addptr"(%133, %64) : (tensor<32x32x!tt.ptr<f16>, #triton_gpu.blocked<{sizePerThread = [1, 1], threadsPerWarp = [1, 32], warpsPerCTA = [4, 1], order = [1, 0]}>>, tensor<32x32xi32, #triton_gpu.blocked<{sizePerThread = [1, 1], threadsPerWarp = [1, 32], warpsPerCTA = [4, 1], order = [1, 0]}>>) -> tensor<32x32x!tt.ptr<f16>, #triton_gpu.blocked<{sizePerThread = [1, 1], threadsPerWarp = [1, 32], warpsPerCTA = [4, 1], order = [1, 0]}>>
  %136 = "tt.addptr"(%134, %65) : (tensor<32x32x!tt.ptr<f16>>, tensor<32x32xi32>) -> tensor<32x32x!tt.ptr<f16>>
  %137 = "tt.splat"(%arg6) : (i32) -> tensor<32x1xi32, #triton_gpu.blocked<{sizePerThread = [1, 1], threadsPerWarp = [32, 1], warpsPerCTA = [4, 1], order = [1, 0]}>>
  %138 = "tt.splat"(%arg6) : (i32) -> tensor<32x1xi32>
  %139 = "arith.cmpi"(%28, %137) <{predicate = 2 : i64}> : (tensor<32x1xi32, #triton_gpu.blocked<{sizePerThread = [1, 1], threadsPerWarp = [32, 1], warpsPerCTA = [4, 1], order = [1, 0]}>>, tensor<32x1xi32, #triton_gpu.blocked<{sizePerThread = [1, 1], threadsPerWarp = [32, 1], warpsPerCTA = [4, 1], order = [1, 0]}>>) -> tensor<32x1xi1, #triton_gpu.blocked<{sizePerThread = [1, 1], threadsPerWarp = [32, 1], warpsPerCTA = [4, 1], order = [1, 0]}>>
  %140 = "arith.cmpi"(%29, %138) <{predicate = 2 : i64}> : (tensor<32x1xi32>, tensor<32x1xi32>) -> tensor<32x1xi1>
  %141 = "tt.splat"(%arg7) : (i32) -> tensor<1x32xi32, #triton_gpu.blocked<{sizePerThread = [1, 1], threadsPerWarp = [1, 32], warpsPerCTA = [4, 1], order = [1, 0]}>>
  %142 = "tt.splat"(%arg7) : (i32) -> tensor<1x32xi32>
  %143 = "arith.cmpi"(%59, %141) <{predicate = 2 : i64}> : (tensor<1x32xi32, #triton_gpu.blocked<{sizePerThread = [1, 1], threadsPerWarp = [1, 32], warpsPerCTA = [4, 1], order = [1, 0]}>>, tensor<1x32xi32, #triton_gpu.blocked<{sizePerThread = [1, 1], threadsPerWarp = [1, 32], warpsPerCTA = [4, 1], order = [1, 0]}>>) -> tensor<1x32xi1, #triton_gpu.blocked<{sizePerThread = [1, 1], threadsPerWarp = [1, 32], warpsPerCTA = [4, 1], order = [1, 0]}>>
  %144 = "arith.cmpi"(%60, %142) <{predicate = 2 : i64}> : (tensor<1x32xi32>, tensor<1x32xi32>) -> tensor<1x32xi1>
  %145 = "tt.broadcast"(%139) : (tensor<32x1xi1, #triton_gpu.blocked<{sizePerThread = [1, 1], threadsPerWarp = [32, 1], warpsPerCTA = [4, 1], order = [1, 0]}>>) -> tensor<32x32xi1, #triton_gpu.blocked<{sizePerThread = [1, 1], threadsPerWarp = [32, 1], warpsPerCTA = [4, 1], order = [1, 0]}>>
  %146 = "builtin.unrealized_conversion_cast"(%145) : (tensor<32x32xi1, #triton_gpu.blocked<{sizePerThread = [1, 1], threadsPerWarp = [32, 1], warpsPerCTA = [4, 1], order = [1, 0]}>>) -> tensor<32x32xi1, #triton_gpu.blocked<{sizePerThread = [1, 1], threadsPerWarp = [1, 32], warpsPerCTA = [4, 1], order = [1, 0]}>>
  %147 = "tt.broadcast"(%140) : (tensor<32x1xi1>) -> tensor<32x32xi1>
  %148 = "tt.broadcast"(%143) : (tensor<1x32xi1, #triton_gpu.blocked<{sizePerThread = [1, 1], threadsPerWarp = [1, 32], warpsPerCTA = [4, 1], order = [1, 0]}>>) -> tensor<32x32xi1, #triton_gpu.blocked<{sizePerThread = [1, 1], threadsPerWarp = [1, 32], warpsPerCTA = [4, 1], order = [1, 0]}>>
  %149 = "tt.broadcast"(%144) : (tensor<1x32xi1>) -> tensor<32x32xi1>
  %150 = "arith.andi"(%146, %148) : (tensor<32x32xi1, #triton_gpu.blocked<{sizePerThread = [1, 1], threadsPerWarp = [1, 32], warpsPerCTA = [4, 1], order = [1, 0]}>>, tensor<32x32xi1, #triton_gpu.blocked<{sizePerThread = [1, 1], threadsPerWarp = [1, 32], warpsPerCTA = [4, 1], order = [1, 0]}>>) -> tensor<32x32xi1, #triton_gpu.blocked<{sizePerThread = [1, 1], threadsPerWarp = [1, 32], warpsPerCTA = [4, 1], order = [1, 0]}>>
  %151 = "arith.andi"(%147, %149) : (tensor<32x32xi1>, tensor<32x32xi1>) -> tensor<32x32xi1>
  "tt.store"(%135, %122, %150) <{boundaryCheck = array<i32>, cache = 1 : i32, evict = 1 : i32}> : (tensor<32x32x!tt.ptr<f16>, #triton_gpu.blocked<{sizePerThread = [1, 1], threadsPerWarp = [1, 32], warpsPerCTA = [4, 1], order = [1, 0]}>>, tensor<32x32xf16, #triton_gpu.blocked<{sizePerThread = [1, 1], threadsPerWarp = [1, 32], warpsPerCTA = [4, 1], order = [1, 0]}>>, tensor<32x32xi1, #triton_gpu.blocked<{sizePerThread = [1, 1], threadsPerWarp = [1, 32], warpsPerCTA = [4, 1], order = [1, 0]}>>) -> ()
  "tt.store"(%136, %123, %151) <{boundaryCheck = array<i32>, cache = 1 : i32, evict = 1 : i32}> : (tensor<32x32x!tt.ptr<f16>>, tensor<32x32xf16>, tensor<32x32xi1>) -> ()
  "tt.return"() : () -> ()
}) {noinline = false} : () -> ()


} -> SUCCESS
//===-------------------------------------------===//

//===-------------------------------------------===//
Legalizing operation : 'tt.return'(0x555d5bde9770) {
  "tt.return"() : () -> ()

} -> SUCCESS : operation marked legal by the target
//===-------------------------------------------===//
ImplicitTypeIDRegistry::lookupOrInsert(mlir::detail::PreservedAnalyses::AllAnalysesType)
ImplicitTypeIDRegistry::lookupOrInsert(mlir::DataLayoutSpecInterface)
ImplicitTypeIDRegistry::lookupOrInsert(mlir::detail::StorageUserTrait::IsMutable<mlir::TypeID::get<mlir::detail::StorageUserTrait::IsMutable>()::Empty>)
ImplicitTypeIDRegistry::lookupOrInsert(mlir::triton::gpu::TritonGPU_AttrTrait::Trait<mlir::TypeID::get<mlir::triton::gpu::TritonGPU_AttrTrait::Trait>()::Empty>)
ImplicitTypeIDRegistry::lookupOrInsert(mlir::triton::gpu::DistributedEncodingTrait::Trait<mlir::TypeID::get<mlir::triton::gpu::DistributedEncodingTrait::Trait>()::Empty>)
#blocked = #triton_gpu.blocked<{sizePerThread = [1], threadsPerWarp = [32], warpsPerCTA = [4], order = [0]}>
#blocked1 = #triton_gpu.blocked<{sizePerThread = [1, 1], threadsPerWarp = [1, 32], warpsPerCTA = [4, 1], order = [1, 0]}>
#blocked2 = #triton_gpu.blocked<{sizePerThread = [1, 1], threadsPerWarp = [32, 1], warpsPerCTA = [4, 1], order = [0, 1]}>
#blocked3 = #triton_gpu.blocked<{sizePerThread = [1, 1], threadsPerWarp = [32, 1], warpsPerCTA = [4, 1], order = [1, 0]}>
#blocked4 = #triton_gpu.blocked<{sizePerThread = [1, 1], threadsPerWarp = [1, 32], warpsPerCTA = [1, 4], order = [0, 1]}>
#blocked5 = #triton_gpu.blocked<{sizePerThread = [2, 2], threadsPerWarp = [2, 16], warpsPerCTA = [4, 1], order = [1, 0]}>
module attributes {"triton_gpu.num-ctas" = 1 : i32, "triton_gpu.num-warps" = 4 : i32, triton_gpu.target = "cuda", "triton_gpu.threads-per-warp" = 32 : i32} {
  tt.func public @addmm_kernel(%arg0: !tt.ptr<f16> {tt.divisibility = 16 : i32}, %arg1: !tt.ptr<f16> {tt.divisibility = 16 : i32}, %arg2: !tt.ptr<f16> {tt.divisibility = 16 : i32}, %arg3: !tt.ptr<f16> {tt.divisibility = 16 : i32}, %arg4: i32, %arg5: i32, %arg6: i32 {tt.divisibility = 16 : i32}, %arg7: i32 {tt.divisibility = 16 : i32}, %arg8: i32 {tt.divisibility = 16 : i32}, %arg9: i32 {tt.divisibility = 16 : i32}, %arg10: i32 {tt.divisibility = 16 : i32}, %arg11: i32 {tt.divisibility = 16 : i32}) attributes {noinline = false} {
    %c31_i32 = arith.constant 31 : i32
    %cst = arith.constant dense<0.000000e+00> : tensor<32xf16, #blocked>
    %cst_0 = arith.constant dense<0.000000e+00> : tensor<32x32xf16, #blocked1>
    %c1_i32 = arith.constant 1 : i32
    %c0_i32 = arith.constant 0 : i32
    %cst_1 = arith.constant dense<32> : tensor<32x32xi32, #blocked1>
    %cst_2 = arith.constant dense<0.000000e+00> : tensor<32x32xf32, #blocked1>
    %c32_i32 = arith.constant 32 : i32
    %0 = tt.get_program_id x : i32
    %1 = tt.get_program_id y : i32
    %2 = arith.muli %0, %c32_i32 : i32
    %3 = tt.make_range {end = 32 : i32, start = 0 : i32} : tensor<32xi32, #blocked>
    %4 = tt.splat %2 : i32 -> tensor<32xi32, #blocked>
    %5 = arith.addi %4, %3 : tensor<32xi32, #blocked>
    %6 = arith.muli %1, %c32_i32 : i32
    %7 = tt.splat %6 : i32 -> tensor<32xi32, #blocked>
    %8 = arith.addi %7, %3 : tensor<32xi32, #blocked>
    %9 = triton_gpu.convert_layout %5 : tensor<32xi32, #blocked> -> tensor<32xi32, #triton_gpu.slice<{dim = 1, parent = #blocked2}>>
    %10 = tt.expand_dims %9 {axis = 1 : i32} : tensor<32xi32, #triton_gpu.slice<{dim = 1, parent = #blocked2}>> -> tensor<32x1xi32, #blocked2>
    %11 = triton_gpu.convert_layout %10 : tensor<32x1xi32, #blocked2> -> tensor<32x1xi32, #blocked3>
    %12 = tt.splat %arg9 : i32 -> tensor<32x1xi32, #blocked3>
    %13 = arith.muli %11, %12 : tensor<32x1xi32, #blocked3>
    %14 = triton_gpu.convert_layout %3 : tensor<32xi32, #blocked> -> tensor<32xi32, #triton_gpu.slice<{dim = 0, parent = #blocked4}>>
    %15 = tt.expand_dims %14 {axis = 0 : i32} : tensor<32xi32, #triton_gpu.slice<{dim = 0, parent = #blocked4}>> -> tensor<1x32xi32, #blocked4>
    %16 = triton_gpu.convert_layout %15 : tensor<1x32xi32, #blocked4> -> tensor<1x32xi32, #blocked1>
    %17 = tt.broadcast %13 : tensor<32x1xi32, #blocked3> -> tensor<32x32xi32, #blocked3>
    %18 = triton_gpu.convert_layout %17 : tensor<32x32xi32, #blocked3> -> tensor<32x32xi32, #blocked1>
    %19 = tt.broadcast %16 : tensor<1x32xi32, #blocked1> -> tensor<32x32xi32, #blocked1>
    %20 = arith.addi %18, %19 : tensor<32x32xi32, #blocked1>
    %21 = tt.splat %arg0 : !tt.ptr<f16> -> tensor<32x32x!tt.ptr<f16>, #blocked1>
    %22 = tt.addptr %21, %20 : tensor<32x32x!tt.ptr<f16>, #blocked1>, tensor<32x32xi32, #blocked1>
    %23 = triton_gpu.convert_layout %3 : tensor<32xi32, #blocked> -> tensor<32xi32, #triton_gpu.slice<{dim = 1, parent = #blocked2}>>
    %24 = tt.expand_dims %23 {axis = 1 : i32} : tensor<32xi32, #triton_gpu.slice<{dim = 1, parent = #blocked2}>> -> tensor<32x1xi32, #blocked2>
    %25 = triton_gpu.convert_layout %24 : tensor<32x1xi32, #blocked2> -> tensor<32x1xi32, #blocked3>
    %26 = tt.splat %arg10 : i32 -> tensor<32x1xi32, #blocked3>
    %27 = arith.muli %25, %26 : tensor<32x1xi32, #blocked3>
    %28 = triton_gpu.convert_layout %8 : tensor<32xi32, #blocked> -> tensor<32xi32, #triton_gpu.slice<{dim = 0, parent = #blocked4}>>
    %29 = tt.expand_dims %28 {axis = 0 : i32} : tensor<32xi32, #triton_gpu.slice<{dim = 0, parent = #blocked4}>> -> tensor<1x32xi32, #blocked4>
    %30 = triton_gpu.convert_layout %29 : tensor<1x32xi32, #blocked4> -> tensor<1x32xi32, #blocked1>
    %31 = tt.broadcast %27 : tensor<32x1xi32, #blocked3> -> tensor<32x32xi32, #blocked3>
    %32 = triton_gpu.convert_layout %31 : tensor<32x32xi32, #blocked3> -> tensor<32x32xi32, #blocked1>
    %33 = tt.broadcast %30 : tensor<1x32xi32, #blocked1> -> tensor<32x32xi32, #blocked1>
    %34 = arith.addi %32, %33 : tensor<32x32xi32, #blocked1>
    %35 = tt.splat %arg1 : !tt.ptr<f16> -> tensor<32x32x!tt.ptr<f16>, #blocked1>
    %36 = tt.addptr %35, %34 : tensor<32x32x!tt.ptr<f16>, #blocked1>, tensor<32x32xi32, #blocked1>
    %37 = tt.splat %arg2 : !tt.ptr<f16> -> tensor<32x!tt.ptr<f16>, #blocked>
    %38 = tt.addptr %37, %8 : tensor<32x!tt.ptr<f16>, #blocked>, tensor<32xi32, #blocked>
    %39 = arith.addi %arg8, %c31_i32 : i32
    %40 = arith.divsi %39, %c32_i32 : i32
    %41 = tt.splat %arg6 : i32 -> tensor<32x1xi32, #blocked3>
    %42 = arith.cmpi slt, %11, %41 : tensor<32x1xi32, #blocked3>
    %43 = tt.broadcast %42 : tensor<32x1xi1, #blocked3> -> tensor<32x32xi1, #blocked3>
    %44 = triton_gpu.convert_layout %43 : tensor<32x32xi1, #blocked3> -> tensor<32x32xi1, #blocked1>
    %45 = tt.splat %arg7 : i32 -> tensor<1x32xi32, #blocked1>
    %46 = arith.cmpi slt, %30, %45 : tensor<1x32xi32, #blocked1>
    %47 = tt.broadcast %46 : tensor<1x32xi1, #blocked1> -> tensor<32x32xi1, #blocked1>
    %48 = arith.muli %arg10, %c32_i32 : i32
    %49 = tt.splat %48 : i32 -> tensor<32x32xi32, #blocked1>
    %50:3 = scf.for %arg12 = %c0_i32 to %40 step %c1_i32 iter_args(%arg13 = %cst_2, %arg14 = %22, %arg15 = %36) -> (tensor<32x32xf32, #blocked1>, tensor<32x32x!tt.ptr<f16>, #blocked1>, tensor<32x32x!tt.ptr<f16>, #blocked1>)  : i32 {
      %82 = arith.muli %arg12, %c32_i32 : i32
      %83 = arith.subi %arg8, %82 : i32
      %84 = tt.splat %83 : i32 -> tensor<1x32xi32, #blocked1>
      %85 = arith.cmpi slt, %16, %84 : tensor<1x32xi32, #blocked1>
      %86 = tt.broadcast %85 : tensor<1x32xi1, #blocked1> -> tensor<32x32xi1, #blocked1>
      %87 = arith.andi %44, %86 : tensor<32x32xi1, #blocked1>
      %88 = tt.load %arg14, %87, %cst_0 : tensor<32x32x!tt.ptr<f16>, #blocked1>
      %89 = tt.splat %83 : i32 -> tensor<32x1xi32, #blocked3>
      %90 = arith.cmpi slt, %25, %89 : tensor<32x1xi32, #blocked3>
      %91 = tt.broadcast %90 : tensor<32x1xi1, #blocked3> -> tensor<32x32xi1, #blocked3>
      %92 = triton_gpu.convert_layout %91 : tensor<32x32xi1, #blocked3> -> tensor<32x32xi1, #blocked1>
      %93 = arith.andi %92, %47 : tensor<32x32xi1, #blocked1>
      %94 = tt.load %arg15, %93, %cst_0 : tensor<32x32x!tt.ptr<f16>, #blocked1>
      %95 = triton_gpu.convert_layout %88 : tensor<32x32xf16, #blocked1> -> tensor<32x32xf16, #triton_gpu.dot_op<{opIdx = 0, parent = #blocked5}>>
      %96 = triton_gpu.convert_layout %94 : tensor<32x32xf16, #blocked1> -> tensor<32x32xf16, #triton_gpu.dot_op<{opIdx = 1, parent = #blocked5}>>
      %97 = triton_gpu.convert_layout %arg13 : tensor<32x32xf32, #blocked1> -> tensor<32x32xf32, #blocked5>
      %98 = tt.dot %95, %96, %97 : tensor<32x32xf16, #triton_gpu.dot_op<{opIdx = 0, parent = #blocked5}>> * tensor<32x32xf16, #triton_gpu.dot_op<{opIdx = 1, parent = #blocked5}>> -> tensor<32x32xf32, #blocked5>
      %99 = triton_gpu.convert_layout %98 : tensor<32x32xf32, #blocked5> -> tensor<32x32xf32, #blocked1>
      %100 = tt.addptr %arg14, %cst_1 : tensor<32x32x!tt.ptr<f16>, #blocked1>, tensor<32x32xi32, #blocked1>
      %101 = tt.addptr %arg15, %49 : tensor<32x32x!tt.ptr<f16>, #blocked1>, tensor<32x32xi32, #blocked1>
      scf.yield %99, %100, %101 : tensor<32x32xf32, #blocked1>, tensor<32x32x!tt.ptr<f16>, #blocked1>, tensor<32x32x!tt.ptr<f16>, #blocked1>
    }
    %51 = tt.splat %arg7 : i32 -> tensor<32xi32, #blocked>
    %52 = arith.cmpi slt, %8, %51 : tensor<32xi32, #blocked>
    %53 = tt.load %38, %52, %cst : tensor<32x!tt.ptr<f16>, #blocked>
    %54 = arith.sitofp %arg4 : i32 to f32
    %55 = tt.splat %54 : f32 -> tensor<32x32xf32, #blocked1>
    %56 = arith.mulf %50#0, %55 : tensor<32x32xf32, #blocked1>
    %57 = arith.sitofp %arg5 : i32 to f16
    %58 = tt.splat %57 : f16 -> tensor<32xf16, #blocked>
    %59 = arith.mulf %53, %58 : tensor<32xf16, #blocked>
    %60 = triton_gpu.convert_layout %59 : tensor<32xf16, #blocked> -> tensor<32xf16, #triton_gpu.slice<{dim = 0, parent = #blocked4}>>
    %61 = tt.expand_dims %60 {axis = 0 : i32} : tensor<32xf16, #triton_gpu.slice<{dim = 0, parent = #blocked4}>> -> tensor<1x32xf16, #blocked4>
    %62 = triton_gpu.convert_layout %61 : tensor<1x32xf16, #blocked4> -> tensor<1x32xf16, #blocked1>
    %63 = arith.extf %62 : tensor<1x32xf16, #blocked1> to tensor<1x32xf32, #blocked1>
    %64 = tt.broadcast %63 : tensor<1x32xf32, #blocked1> -> tensor<32x32xf32, #blocked1>
    %65 = arith.addf %56, %64 : tensor<32x32xf32, #blocked1>
    %66 = arith.truncf %65 : tensor<32x32xf32, #blocked1> to tensor<32x32xf16, #blocked1>
    %67 = tt.splat %arg11 : i32 -> tensor<32x1xi32, #blocked3>
    %68 = arith.muli %67, %11 : tensor<32x1xi32, #blocked3>
    %69 = tt.splat %arg3 : !tt.ptr<f16> -> tensor<32x1x!tt.ptr<f16>, #blocked3>
    %70 = tt.addptr %69, %68 : tensor<32x1x!tt.ptr<f16>, #blocked3>, tensor<32x1xi32, #blocked3>
    %71 = tt.broadcast %70 : tensor<32x1x!tt.ptr<f16>, #blocked3> -> tensor<32x32x!tt.ptr<f16>, #blocked3>
    %72 = triton_gpu.convert_layout %71 : tensor<32x32x!tt.ptr<f16>, #blocked3> -> tensor<32x32x!tt.ptr<f16>, #blocked1>
    %73 = tt.addptr %72, %33 : tensor<32x32x!tt.ptr<f16>, #blocked1>, tensor<32x32xi32, #blocked1>
    %74 = tt.splat %arg6 : i32 -> tensor<32x1xi32, #blocked3>
    %75 = arith.cmpi slt, %11, %74 : tensor<32x1xi32, #blocked3>
    %76 = tt.splat %arg7 : i32 -> tensor<1x32xi32, #blocked1>
    %77 = arith.cmpi slt, %30, %76 : tensor<1x32xi32, #blocked1>
    %78 = tt.broadcast %75 : tensor<32x1xi1, #blocked3> -> tensor<32x32xi1, #blocked3>
    %79 = triton_gpu.convert_layout %78 : tensor<32x32xi1, #blocked3> -> tensor<32x32xi1, #blocked1>
    %80 = tt.broadcast %77 : tensor<1x32xi1, #blocked1> -> tensor<32x32xi1, #blocked1>
    %81 = arith.andi %79, %80 : tensor<32x32xi1, #blocked1>
    tt.store %73, %66, %81 : tensor<32x32x!tt.ptr<f16>, #blocked1>
    tt.return
  }
}

